model/model.pt (torch, 113790 bytes, 20 tensors)

weight f4 [32, 1, 3, 3]
0.41672692 0.13120185 0.4630139 0.11227595 0.16867092 -0.2447851 0.21587904 -0.18071347
-0.14862147 -0.0384098 -0.31395206 -0.34091768 -0.20599128 -0.10310266 -0.18034855 0.16842374
-0.23230334 0.26141763 0.1270953 -0.16174865 0.0038151068 0.008313406 -0.14085439 -0.14682999
-0.24038197 -0.287345 -0.38936064 -0.2408378 0.061076403 -0.32730725 -0.155843 -0.13853236
-0.010545331 -0.22833104 0.24179976 -0.1538506 -0.0971327 -0.26677772 -0.2477018 0.0020452745
0.10872989 0.11996976 -0.33744395 -0.27414834 0.06396117 -0.29070967 -0.034446236 -0.08293434
0.016490422 0.07913536 -0.21442692 -0.18601333 0.090616405 -0.12602875 -0.270482 -0.38307518
-0.47532174 -0.20182282 -0.22642152 -0.30522445 -0.17381497 0.060394548 0.15452905 -0.10751061
-0.14380367 -0.43174094 -0.2167227 0.2141466 0.2696396 0.10937324 -0.23411682 -0.10541868
-0.39768586 -0.36291093 0.02116806 -0.43054387 -0.21805866 -0.40214652 0.13902919 0.264558
0.10438679 -0.14475137 0.08453734 -0.45753926 -0.082202904 -0.1410648 -0.19712982 -0.1893196
-0.11076631 -0.26311404 -0.29556453 -0.3510204 -0.006021491 -0.027292646 0.06702463 -0.27408698
-0.29225054 0.18373719 -0.24966978 0.015456273 0.19829606 0.3239119 0.17755064 -0.19067888
-0.2636129 0.28910393 -0.057184428 0.31269976 -0.17823629 -0.41148552 -0.22714092 0.084560476
-0.075478286 -0.4051687 0.1632929 -0.39107814 0.1331506 -0.033328373 0.09182235 -0.16099551
-0.09527194 -0.22361195 -0.34924927 -0.33803695 0.06689155 -0.39998254 -0.27840468 -0.44082174
-0.0051421053 -0.030159136 0.16487916 -0.11054209 -0.10180174 -0.046873737 -0.18528791 -0.42999274
-0.30935448 -0.14552839 0.17080046 -0.16436677 -0.3000113 -0.0037808763 0.18446222 -0.21150738
0.07096753 -0.08311714 -0.3138458 -0.14717081 -0.22951928 0.10291384 -0.05856685 -0.19188818
-0.43096757 -0.20562412 -0.087891325 0.14485586 -0.09713609 -0.03162648 -0.2812654 -0.1787749
-0.20873989 0.28211018 -0.070194 -0.29904553 -0.08785044 0.13960925 0.079274416 -0.2640653
-0.38093045 -0.1419923 -0.099932075 0.23924328 -0.18217607 -0.2895778 0.009622518 0.28767475
0.34174216 0.005529828 0.044813387 0.21712944 0.18370472 -0.1824464 0.24952982 -0.306716
-0.33507782 -0.20747031 -0.17105563 -0.3213641 0.026800726 -0.03285551 -0.07265355 0.1993808
-0.093774356 -0.25800213 -0.008843737 -0.36497363 -0.365118 -0.123041764 -0.21954611 -0.18768878
-0.33122852 -0.3515825 -0.212853 -0.37217376 -0.14668755 0.013266537 -0.17955917 -0.3741192
-0.4260514 0.2102488 -0.18025625 -0.4377367 0.03735839 -0.075916685 -0.12645307 -0.23344053
-0.026567845 0.17222239 0.17605706 -0.361179 0.20676342 -0.29745016 -0.22726202 -0.09393847
-0.3117181 -0.4313571 0.06588503 0.13001996 0.004846364 -0.1827079 -0.21032071 0.33445317
0.49731356 0.35346586 0.25629297 -0.10609559 -0.22315143 0.15741898 0.14542374 -0.13028504
-0.16343023 -0.36452678 -0.4002673 0.2571168 0.32740483 -0.05617487 -0.27849233 0.1536929
0.23925234 -0.19536413 -0.30589613 -0.1795057 0.14271009 -0.30542594 0.13000254 -0.24564019
00000000: 3b5d d53e c759 063e 2810 ed3e eff0 e53d
00000010: 12b8 2c3e f2a8 7abe 650f 5d3e f40c 39be
00000020: 3a30 18be 9853 1dbd 53be a0be c38c aebe
00000030: 61ef 52be 7d27 d3bd 4aad 38be 4677 2c3e
00000040: ede0 6dbe 88d8 853e 4525 023e 70a1 25be
00000050: df06 7a3b f434 083c 223c 10be 9a5a 16be
00000060: b126 76be e21e 93be 475a c7be 2f9e 76be
00000070: 402b 7a3d d194 a7be 4f95 1fbe 6ddb 0dbe
00000080: 53c6 2cbc 9dcf 69be 5b9a 773e 038b 1dbe
00000090: 82ed c6bd 1797 88be 8aa5 7dbe 030a 063b
000000a0: c7ad de3d b5b2 f53d 74c5 acbe 2c5d 8cbe
000000b0: 13fe 823d e6d7 94be 7f17 0dbd 7bd9 a9bd
000000c0: ec16 873c b811 a23d bb92 5bbe 477a 3ebe
000000d0: 1895 b93d ae0d 01be 9e7c 8abe 6e22 c4be
000000e0: 5f5d f3be a4aa 4ebe 0bdb 67be 6146 9cbe
000000f0: 8dfc 31be 4660 773d dd3c 1e3e 862e dcbd
00000100: 4541 13be 260d ddbe 8eec 5dbe 3f49 5b3e
00000110: 340e 8a3e 14ff df3d 52bc 6fbe c0e5 d7bd
00000120: 7b9d cbbe 76cf b9be a468 ad3c 3f70 dcbe
00000130: c54a 5fbe 26e6 cdbe ab5d 0e3e 2574 873e
00000140: bec8 d53d b439 14be ea21 ad3d 9642 eabe
00000150: ff59 a8bd 4a73 10be 66dc 49be ffdc 41be
00000160: 72d9 e2bd e2b6 86be 3c54 97be f2b8 b3be
00000170: ed4f c5bb d494 dfbc 3644 893d 2155 8cbe
00000180: dda1 95be 9a25 3c3e 6fa9 7fbe 4f3c 7d3c
00000190: 1f0e 4b3e c8d7 a53e d6cf 353e 5341 43be
000001a0: 45f8 86be 6e05 943e 383a 6abd 2f1a a03e
000001b0: 9383 36be 3bae d2be a197 68be 0b2e ad3d
000001c0: 5c94 9abd 4672 cfbe 4136 273e 653b c8be
000001d0: a258 083e 5583 08bd 5b0d bc3d 02dc 24be
000001e0: ef1d c3bd 88fa 64be cdd0 b2be 2e13 adbe
000001f0: 70fe 883d 83ca ccbe 0f8b 8ebe 63b3 e1be
00000200: 1b7f a8bb 4b10 f7bc 15d6 283e e463 e2bd
00000210: 6e7d d0bd adfe 3fbd 1dbc 3dbe 0228 dcbe
00000220: b663 9ebe 6505 15be 51e6 2e3e c34f 28be
00000230: 159b 99be 94c8 77bb aae3 3c3e 6495 58be
00000240: 6d57 913d 5239 aabd 66b0 a0be f2b3 16be
00000250: 1a07 6bbe 7ec4 d23d cbe3 6fbd 567e 44be
00000260: c8a7 dcbe 218f 52be 5e00 b4bd 1855 143e
00000270: 49ef c6bd c58a 01bd 0502 90be c410 37be
00000280: e9bf 55be bf70 903e dfc1 8fbd 7f1c 99be
00000290: eeea b3bd baf5 0e3e a05a a23d 9133 87be
000002a0: 5109 c3be 6e66 11be 30a9 ccbd 31fc 743e
000002b0: 5d8c 3abe 8b43 94be c4a7 1d3c 1b4a 933e
000002c0: d4f8 ae3e 8f33 b53b 3e8e 373d 2e57 5e3e
000002d0: 171d 3c3e 3bd3 3abe bf84 7f3e e109 9dbe
000002e0: 528f abbe 1973 54be 3529 2fbe d689 a4be
000002f0: 328d db3c 8093 06bd 62cb 94bd 7b2a 4c3e
00000300: c50c c0bd db18 84be 52e5 10bc d3dd babe
00000310: bff0 babe 52fd fbbd b2d0 60be 7d31 40be
00000320: c996 a9be 9f02 b4be 23f6 59be 8f8d bebe
00000330: 4335 16be e45b 593c 5cde 37be 8d8c bfbe
00000340: 6923 dabe 764b 573e 1895 38be 061f e0be
00000350: 1c05 193d 357a 9bbd ea7c 01be 090b 6fbe
00000360: cfa4 d9bc 115b 303e 4d48 343e 74ec b8be
00000370: cab9 533e 634b 98be 60b7 68be d062 c0bd
00000380: 8499 9fbe d6da dcbe bbee 863d f423 053e
00000390: 3fce 9e3b c817 3bbe 505e 57be 723d ab3e
000003a0: e29f fe3e 7af9 b43e d538 833e a548 d9bd
000003b0: cf81 64be 7132 213e f6e9 143e 7169 05be
000003c0: 415a 27be 41a3 babe d6ef ccbe d0a4 833e
000003d0: 9ba1 a73e 9f17 66bd 8c96 8ebe ac61 1d3e
000003e0: 91fe 743e 890d 48be 6b9e 9cbe 58d0 37be
000003f0: 9822 123e ca60 9cbe 631f 053e 1a89 7bbe

bias f4 [32]
-0.057313487 0.23402533 0.08358069 0.07022486 -0.048945077 -0.15236259 0.17411253 -0.09455064
0.25845346 0.07188384 0.02242076 -0.048661284 -0.058577962 0.021373786 -0.15683189 0.14867741
0.0054127467 0.08270723 0.03490967 -0.05781497 0.083231844 0.1015177 0.055685353 0.28807238
0.06391568 -0.07685227 0.11462533 -0.10292894 -0.020534735 -0.043152895 0.275556 -0.05448111
00000000: 8cc1 6abd 56a4 6f3e 5a2c ab3d 0dd2 8f3d
00000010: a27a 48bd f004 1cbe 8e4a 323e c4a3 c1bd
00000020: 0354 843e d637 933d beab b73c 0e51 47bd
00000030: 72ef 6fbd 1418 af3c 8a98 20be e43e 183e
00000040: 695d b13b 6862 a93d 71fd 0e3d 64cf 6cbd
00000050: 7575 aa3d 83e8 cf3d 5316 643d 397e 933e
00000060: 39e6 823d b964 9dbd afc0 ea3d 68cc d2bd
00000070: 7638 a8bc 17c1 30bd ad15 8d3e 9627 5fbd

weight f4 [32]
0.99101806 0.78563935 0.8474389 0.6813664 0.64616764 0.73777384 0.9205974 1.168933
1.1727341 0.7672675 0.6529787 1.115449 0.67584205 0.68182164 0.8879956 0.8850592
0.6890248 0.712185 1.0653534 1.0621282 0.86149395 0.8857891 0.8750848 0.9944386
0.8102972 1.0544127 0.8568611 0.8259314 1.0339321 1.0690397 1.1468374 0.8880524
00000000: 5cb3 7d3f a91f 493f c1f1 583f 076e 2e3f
00000010: 3e6b 253f bfde 3c3f 45ac 6b3f 999f 953f
00000020: 271c 963f a56b 443f 9d29 273f 08c7 8e3f
00000030: fc03 2d3f dd8b 2e3f ae53 633f 3d93 623f
00000040: ee63 303f c251 363f 805d 883f d1f3 873f
00000050: de8a 5c3f 13c3 623f 8f05 603f 8793 7e3f
00000060: a36f 4f3f fff6 863f 405b 5b3f 3d70 533f
00000070: e357 843f 4bd6 883f 91cb 923f 6757 633f

bias f4 [32]
-0.12581098 0.038228553 -0.060827214 -0.040522214 -0.103957035 -0.13219668 0.024458157 0.03294895
0.12794453 -0.037912663 -0.07195319 -0.13548137 -0.19273475 -0.19650143 0.01635571 0.008936901
-0.12896909 0.08622286 -0.01687013 -0.061323363 0.023370463 0.004014087 -0.05442318 0.12413305
-0.09196042 -0.029541854 -0.075150244 -0.29098558 0.019887855 0.064300306 0.14002146 -0.13551638
00000000: 98d4 00be 8b95 1c3d f525 79bd 9ffa 25bd
00000010: 6de7 d4bd 915e 07be 795c c83c 7af5 063d
00000020: e403 033e 4f4a 1bbd 325c 93bd a1bb 0abe
00000030: 425c 45be ac37 49be 69fc 853c 146c 123c
00000040: 7910 04be 9c95 b03d 3a33 8abc 352e 7bbd
00000050: 6a73 bf3c 9a88 833b d7ea 5ebd 7839 fe3d
00000060: bf55 bcbd c201 f2bc 5fe8 99bd 10fc 94be
00000070: dbeb a23c e1af 833d c961 0f3e cec4 0abe

running_mean f4 [32]
0.34429204 -0.5505052 -0.6591991 -0.40766016 -0.38411158 -0.2894969 -0.6647701 0.031326506
-0.52032375 -0.47087136 -0.35690513 0.2565236 -0.3251487 -0.5445736 -0.23353596 -0.57412887
-0.35837463 -0.25823647 -0.4027761 0.2146331 -0.5400446 -0.5571067 -0.56462 -0.70689124
-0.40304562 0.06303762 -0.41837826 0.2165196 -0.30704036 -0.34734 -0.49602282 0.21278451
00000000: 0c47 b03e e9ed 0cbf 46c1 28bf d5b8 d0be
00000010: 46aa c4be f038 94be 602e 2abf 3950 003d
00000020: f033 05bf 0d16 f1be 45bc b6be 1057 833e
00000030: e479 a6be 2d69 0bbf 0d24 6fbe 1cfa 12bf
00000040: e17c b7be 9237 84be ab38 cebe c8c8 5b3e
00000050: 5d40 0abf 8b9e 0ebf f08a 10bf d3f6 34bf
00000060: ff5b cebe de19 813d ad35 d6be 50b7 5d3e
00000070: 6534 9dbe 8cd6 b1be b4f6 fdbe 2fe4 593e

running_var f4 [32]
0.037551977 0.09026678 0.12932485 0.048020847 0.043607038 0.024261938 0.13041873 0.0009824705
0.082681395 0.06451761 0.036870338 0.018900689 0.03370422 0.087640956 0.0163398 0.09663764
0.038361628 0.02055669 0.04728155 0.014434992 0.089019194 0.093929656 0.093289405 0.14859933
0.04892917 0.010480131 0.053628366 0.016825411 0.02898932 0.036562465 0.07166415 0.014367406
00000000: 1ad0 193d cadd b83d bc6d 043e 82b1 443d
00000010: 4b9d 323d f9c0 c63c 7d8c 053e 3dc6 803a
00000020: dd54 a93d cf21 843d 5a05 173d 9ed5 9a3c
00000030: 700d 0a3d 1a7d b33d 0bdb 853c f4e9 c53d
00000040: 1521 1d3d 8166 a83c 4caa 413d bf80 6c3c
00000050: b24f b63d 315e c03d 840e bf3d 6c2a 183e
00000060: f469 483d dbb4 2b3c 6ba9 5b3d 72d5 893c
00000070: 037b ed3c 86c2 153d a7c4 923d 4565 6b3c

weight f4 [32, 32, 3, 3]
0.0139197605 0.0049699815 0.043284193 0.0133225 0.027465759 0.044672903 0.0016832296 -0.03144443
-0.011550257 0.095185146 0.09129506 0.08858917 0.06842136 0.107117064 0.13440987 0.08673568
0.07715228 0.13294512 0.14101297 0.12510373 0.10523127 0.17075127 0.14618288 0.14137714
0.13863595 0.11780917 0.111525625 0.077348314 0.121003665 0.083534256 0.12857862 0.11597587
0.09338409 0.11860301 0.09996331 0.13346493 0.027398618 0.057997353 0.04652967 -0.0005561163
0.04460613 0.0404136 0.013012964 0.04303786 0.029046357 0.03414751 0.053768165 0.04422253
0.03514668 0.07723611 0.04276527 0.05788435 0.07858504 0.033708513 0.08721037 0.0683653
0.106186435 0.096459255 0.10566134 0.102794066 0.101446 0.06523974 0.063746795 0.032080024
0.037749022 0.0056042117 0.059921574 0.036229525 0.00043449394 0.053788077 0.028678738 0.040098447
0.04290889 0.07072068 0.047419928 0.08981227 0.06810955 0.09556139 0.076198936 0.121053204
0.05771298 0.12992744 0.16323228 0.13076046 0.15005118 0.10995049 0.12559527 0.15059394
0.1132212 0.15969156 0.09928755 0.08490964 0.12212507 0.111795366 0.06920631 0.09054954
0.08220209 0.103407115 0.11147727 0.0032218567 -0.014612069 -0.009116937 0.032031275 0.00093368284
-0.016293166 -0.036149 -0.08479122 -0.0118477605 0.04346921 0.03887123 0.033290006 0.045314003
0.0045957114 0.05080154 0.028820928 0.063099906 0.057636056 0.061913166 0.07455495 0.062955424
0.117649086 0.06329664 0.0947738 0.084069036 0.09470114 0.06737114 -0.037647735 -0.0051345923
0.009816214 -0.06740656 -0.011865807 0.0051080436 -0.017767308 -0.02166161 -0.027552906 0.10905556
0.12720975 0.1473878 0.11572862 0.112288125 0.11311924 0.16515738 0.148186 0.13141519
0.066029795 0.0508583 0.08082508 0.095979296 0.07573817 0.03876078 0.09970392 0.042218983
0.05162948 0.0951245 0.10083727 0.08423361 0.104780525 0.1587742 0.08094359 0.062378008
0.13050234 0.1334775 0.18352406 0.13749963 0.15174706 0.12229262 0.15136391 0.16036978
0.16055661 0.13420856 0.1612443 -0.00055262656 0.0074595534 0.048594996 -0.03586424 -0.06055062
0.004409558 -0.038956147 -0.04099729 -0.011284927 0.085080855 0.08436528 0.080442905 0.13073577
0.104446836 0.100839555 0.10347506 0.14536603 0.12794474 0.12506433 0.07267481 0.08112459
0.11775485 0.14216031 0.1380551 0.12515794 0.12924157 0.09643852 0.1448018 0.15231183
0.15002415 0.144888 0.17701703 0.13551405 0.16124694 0.17931405 0.14296806 0.06954953
0.07794258 0.094862126 0.11793764 0.079403184 0.11276254 0.123723745 0.079403706 0.12327149
0.08101451 0.09579468 0.078206144 0.11677162 0.12613909 0.115984395 0.02797709 0.110992305
0.047785014 -0.022630926 -0.003979062 -0.055189118 -0.09148477 -0.04629735 0.019761672 -0.026876962
-0.024370419 0.0030456465 0.073894404 0.030656058 0.018518403 0.107136995 0.06379807 0.10067603
0.0730312 0.0537656 0.064900845 0.053468473 0.047834307 0.0694281 0.00423616 0.022927163
0.042881824 -0.038399767 -0.036815733 -0.039423 0.11117169 0.09973036 0.12163606 0.12145461
00000000: b50f 643c 3adb a23b c44a 313d 9d46 5a3c
00000010: dfff e03c effa 363d d09f dc3a e0cb 00bd
00000020: 4a3d 3dbc 6ef0 c23d e8f8 ba3d 3d6e b53d
00000030: 7f20 8c3d 3160 db3d bea2 093e 7aa2 b13d
00000040: 0402 9e3d c422 083e b465 103e 311b 003e
00000050: 7e83 d73d 6cd9 2e3e f7b0 153e 2bc5 103e
00000060: 95f6 0d3e ef45 f13d 8c67 e43d cb68 9e3d
00000070: c5d0 f73d 0214 ab3d 1daa 033e c284 ed3d
00000080: 2840 bf3d 23e6 f23d 90b9 cc3d 08ab 083e
00000090: 1173 e03c a28e 6d3d e595 3e3d 55c8 11ba
000000a0: ebb4 363d bb88 253d 5434 553c 7848 303d
000000b0: a0f2 ed3c 42de 0b3d 023c 5c3d af22 353d
000000c0: f7f5 0f3d f72d 9e3d a32a 2f3d 2418 6d3d
000000d0: 32f1 a03d f011 0a3d 5a9b b23d 1b03 8c3d
000000e0: 4678 d93d 6e8c c53d f964 d83d b285 d23d
000000f0: ecc2 cf3d 6a9c 853d ae8d 823d 5866 033d
00000100: b89e 1a3d 89a3 b73b 5370 753d 6965 143d
00000110: cacc e339 e350 5c3d acef ea3c 453e 243d
00000120: 3bc1 2f3d 01d6 903d 663b 423d 7fef b73d
00000130: 057d 8b3d b1b5 c33d 300e 9c3d beea f73d
00000140: 7264 6c3d b30b 053e 5d26 273e 12e6 053e
00000150: 04a7 193e b92d e13d 0c9c 003e 4c35 1a3e
00000160: 84e0 e73d 2f86 233e 4557 cb3d 1be5 ad3d
00000170: b51c fa3d f8f4 e43d 0abc 8d3d 0a72 b93d
00000180: 9259 a83d 1cc7 d33d 324e e43d c925 533b
00000190: 7667 6fbc 355f 15bc 3a33 033d 65c2 743a
000001a0: 3f79 85bc f910 14bd 05a7 adbd 1c1d 42bc
000001b0: c50c 323d 7037 1f3d 1a5b 083d 2d9b 393d
000001c0: 9f97 963b 4715 503d de19 ec3c 863a 813d
000001d0: c913 6c3d a998 7d3d 44b0 983d c6ee 803d
000001e0: 01f2 f03d aba1 813d c418 c23d 632c ac3d
000001f0: acf2 c13d e1f9 893d 8334 1abd 1540 a8bb
00000200: 30d4 203c 730c 8abd cd68 42bc 6061 a73b
00000210: bf8c 91bc b073 b1bc a2b6 e1bc 8558 df3d
00000220: 4643 023e d4ec 163e 2003 ed3d 51f7 e53d
00000230: 0fab e73d 041f 293e 12be 173e b491 063e
00000240: a13a 873d cb50 503d 9f87 a53d cb90 c43d
00000250: 9d1c 9b3d a0c3 1e3d 9231 cc3d d0ed 2c3d
00000260: 6f79 533d a2d0 c23d c583 ce3d ac82 ac3d
00000270: 2c97 d63d b495 223e c1c5 a53d 1580 7f3d
00000280: 68a2 053e 53ae 083e bbed 3b3e b4cc 0c3e
00000290: 9563 1b3e 8e74 fa3d 24ff 1a3e fa37 243e
000002a0: f468 243e f86d 093e 3a1d 253e 24de 10ba
000002b0: 456f f43b 8c0b 473d 62e6 12bd ed03 78bd
000002c0: 0e7e 903b 7b90 1fbd c6ec 27bd 6ae4 38bc
000002d0: df3e ae3d b4c7 ac3d 40bf a43d 99df 053e
000002e0: 39e8 d53d f884 ce3d bbea d33d d5da 143e
000002f0: f203 033e dd10 003e 88d6 943d a624 a63d
00000300: 7429 f13d 7992 113e 515e 0d3e 6729 003e
00000310: e757 043e 8f81 c53d ec46 143e a2f7 1b3e
00000320: ee9f 193e 855d 143e f443 353e 32c4 0a3e
00000330: eb1d 253e 1a9e 373e 3866 123e fc6f 8e3d
00000340: 5ca0 9f3d 1347 c23d 4a89 f13d 239e a23d
00000350: 0cf0 e63d e062 fd3d 699e a23d c375 fc3d
00000360: efea a53d 0030 c43d 8b2a a03d f625 ef3d
00000370: 9b2a 013e 3a89 ed3d 3630 e53c ef4f e33d
00000380: 38ba 433d 7e64 b9bc cb62 82bb fc0d 62bd
00000390: 5e5c bbbd 4aa2 3dbd 3be3 a13c 132d dcbc
000003a0: 79a4 c7bc 7899 473b f355 973d 6a22 fb3c
000003b0: e8b3 973c a46a db3d 90a8 823d 3c2f ce3d
000003c0: 6291 953d 5139 5c3d bcea 843d c201 5b3d
000003d0: e8ed 433d 5230 8e3d 7ccf 8a3b bfd1 bb3c
000003e0: daa4 2f3d 1349 1dbd 18cc 16bd 037a 21bd
000003f0: fcad e33d 6e3f cc3d 541c f93d 32bd f83d

bias f4 [32]
-0.000217412 0.039852843 0.044730328 -0.0077755246 -0.050456967 -0.009470579 0.07662921 -0.10630046
-0.024482038 0.034171063 -0.042875655 0.029360764 -0.072764866 -0.006008785 0.02717561 0.11667464
-0.10839293 -0.00027434397 -0.001299714 -0.034006204 0.044394556 -0.0059942966 0.0063717016 -0.08332421
-0.0008777557 -0.018445823 0.001015 0.0002777172 -0.062324364 0.025545549 0.043816496 0.07233965
00000000: 17f9 63b9 bc3c 233d 2637 373d d4c9 febb
00000010: f7ab 4ebd 7d2a 1bbc c6ef 9c3d 0eb4 d9bd
00000020: 8e8e c8bc f5f6 0b3d 629e 2fbd fc85 f03c
00000030: bf05 95bd 58e5 c4bb 639f de3c 1df3 ee3d
00000040: 1dfd ddbd d3d5 8fb9 2a5b aaba 174a 0bbd
00000050: 11d7 353d ce6b c4bb b5c9 d03b e2a5 aabd
00000060: 3019 66ba b21b 97bc c009 853a 929a 9139
00000070: d547 7fbd e644 d13c ed78 333d cf26 943d

weight f4 [32]
0.9971596 0.8245095 0.78107256 0.9777532 0.69940996 0.7100664 0.8884929 0.9714926
0.9654771 0.8753848 0.70684236 0.7709352 0.8817513 0.76487726 0.79285336 1.2414236
0.8892137 0.7973443 0.84676284 0.83263475 0.8492896 1.0932225 0.80415326 0.77898234
0.6942899 1.0706775 0.70897025 0.9984561 0.90512776 0.94854456 0.62887484 0.72289383
00000000: da45 7f3f 0e13 533f 5ff4 473f 094e 7a3f
00000010: 880c 333f e9c6 353f 4574 633f bdb3 783f
00000020: 8229 773f 3819 603f 9ff3 343f 025c 453f
00000030: 74ba 613f ffce 433f 70f8 4a3f f8e6 9e3f
00000040: 82a3 633f c21e 4c3f 73c5 583f 8d27 553f
00000050: 0b6b 593f b7ee 8b3f fddc 4d3f 636b 473f
00000060: fcbc 313f f60b 893f 137f 353f d29a 7f3f
00000070: 74b6 673f d1d3 723f f1fd 203f 920f 393f

bias f4 [32]
-0.028574018 -0.031434666 0.052353024 0.019401819 -0.14162254 -0.11125372 0.0669217 -0.14034261
-0.02680182 -0.034398302 -0.18980962 -0.0495051 -0.13089141 -0.10547771 0.015647415 0.05999423
-0.10191402 -0.07588339 -0.0754063 0.074177206 -2.4585277e-05 -0.01570698 -0.09900812 -0.22360264
-0.13005954 -0.19312575 -0.07260887 0.014358006 -0.17986195 0.076133296 0.22303842 -0.02638182
00000000: 0f14 eabc a3c1 00bd 2070 563d 90f0 9e3c
00000010: 8005 11be fed8 e3bd 3f0e 893d f9b5 0fbe
00000020: 7e8f dbbc 3ce5 0cbd 745d 42be dcc5 4abd
00000030: 6608 06be b304 d8bd 022f 803c 82bc 753d
00000040: 4cb8 d0bd c068 9bbd 9e6e 9abd 38ea 973d
00000050: 7b3c ceb7 edab 80bc c5c4 cabd 17f8 64be
00000060: 542e 05be c2c2 45be f6b3 94bd d83d 6b3c
00000070: bb2d 38be c6eb 9b3d 2f64 643e b01e d8bc

running_mean f4 [32]
9.43605 4.232142 4.63648 -7.2215657 -4.2065516 2.9295871 4.2141533 7.513142
5.247379 8.67828 -0.5010685 3.3174062 0.35361165 4.2945576 4.9509387 -1.2562028
-7.0232015 5.079409 5.3134193 4.885138 2.7052512 -7.76653 -1.3053695 -2.2066622
3.9733357 7.0657897 3.1427724 0.31897232 6.598443 3.9709423 5.4656987 0.6741106
00000000: 10fa 1641 b56d 8740 0b5e 9440 1117 e7c0
00000010: 129c 86c0 5b7e 3b40 58da 8640 a96b f040
00000020: 87ea a740 3cda 0a41 0646 00bf 6250 5440
00000030: 960c b53e 046d 8940 176e 9e40 41cb a0bf
00000040: 11be e0c0 858a a240 8807 aa40 0d53 9c40
00000050: d622 2d40 6a87 f8c0 5916 a7bf f439 0dc0
00000060: 224b 7e40 f31a e240 2f23 4940 5750 a33e
00000070: 7226 d340 eb23 7e40 01e7 ae40 8392 2c3f

running_var f4 [32]
74.41767 25.188904 12.454733 21.077291 3.9436924 21.641481 27.765663 13.064175
27.05234 116.78753 5.281087 25.295391 28.46177 39.899086 5.839631 11.462581
11.621666 31.861813 33.27527 7.2420607 44.80331 20.987024 23.392971 26.341093
24.862774 12.684846 9.424602 53.473194 13.863901 8.409509 8.349871 26.498283
00000000: d9d5 9442 e082 c941 9646 4741 4b9e a841
00000010: 7565 7c40 c121 ad41 1420 de41 dc06 5141
00000020: 316b d841 3793 e942 aafe a840 f65c ca41
00000030: b4b1 e341 aa98 1f42 42de ba40 bb66 3741
00000040: 58f2 3941 fee4 fe41 e019 0542 f6be e740
00000050: 9736 3342 6de5 a741 ce24 bb41 8fba d241
00000060: f6e6 c641 21f5 4a41 2bcb 1641 8de4 5542
00000070: 8ad2 5d41 598d 0641 1299 0541 7cfc d341

weight f4 [32, 32, 3, 3]
0.008069223 0.07852549 0.03900414 0.079923645 0.058739096 0.03869103 -0.00531203 0.028664948
0.061559655 -0.03327446 -0.09096386 -0.08843285 -0.00525691 -0.032016926 -0.11669045 -0.03822304
-0.107428335 -0.022897799 0.0005479094 -0.031119427 -0.047478154 -0.01776655 -0.016123522 0.034198567
0.012423028 0.0010751986 -0.019773908 0.0040215543 -0.054387208 -0.010470187 -0.07755842 -0.12395102
-0.046239063 -0.052681454 -0.09401102 -0.04856711 -0.016920768 -0.013840278 -0.045253817 -0.05111051
-0.07036421 -0.059570473 -0.019941768 -0.067776084 -0.010289375 -0.059996285 -0.075253345 -0.058483273
-0.043314468 -0.0275587 -0.04677018 -0.08844315 -0.110908344 -0.1131276 -0.051714648 -0.1135958
-0.054125164 -0.09162902 0.0014824981 -0.022315728 -0.06523622 -0.0677125 -0.089171425 -0.08574625
-0.060560666 0.0101357335 0.010481997 0.011442086 -0.02628508 -0.03451648 -0.051941216 0.020919945
0.008885134 -0.07860912 -0.07716315 -0.02468628 -0.021182742 -0.044848576 -0.0017713725 -0.03211978
-0.08653206 -0.0045339256 0.010173364 0.046896785 0.0467246 -0.000116104005 0.051344465 0.05035147
0.05912891 0.030237474 -0.00097020855 0.019092409 -0.019649368 -0.014896387 -0.048801962 -0.09504132
-0.023625918 -0.060082242 -0.06274773 -0.055263545 -0.07244505 -0.027382929 -0.023967655 -0.09023588
-0.054451425 -0.12021353 -0.108981654 -0.066584885 0.07281971 -0.00014684061 0.057954345 -0.00076037296
0.039173134 0.029487237 0.03882272 0.016835494 0.094842516 -0.09382414 -0.020976827 -0.074989185
-0.0035622295 -0.017988767 -0.07657129 -0.053603902 -0.029105006 -0.06608014 0.037356704 0.029798009
0.017698454 0.026766507 -0.057031486 -0.01605366 -0.03636687 -0.052182786 -0.0277368 -0.14921741
-0.18973535 -0.14285274 -0.22944936 -0.18192776 -0.10365064 -0.15487581 -0.15955773 -0.19188564
-0.08193195 -0.13088296 -0.08270062 -0.081424594 -0.096701115 -0.082570516 -0.06766209 -0.1337536
-0.09751962 -0.041698247 -0.03652342 -0.034570605 -0.0015371158 -0.08470452 -0.03036039 -0.03356594
-0.046831436 -0.07013705 -0.075641066 -0.046801414 -0.059165318 -0.05322773 -0.08689411 -0.09911232
-0.11180019 -0.044601396 -0.08167747 0.054902297 0.035334125 0.047360413 -0.009602941 0.06407376
0.057547253 -0.021469729 0.046567347 -0.008551506 -0.094994515 -0.076298214 -0.05127971 -0.035176337
0.002516844 -0.05231582 -0.10301919 -0.07206746 -0.08805347 -0.06411284 -0.09474752 -0.07468191
-0.10469988 -0.1041566 -0.026426481 -0.069111265 -0.07266517 -0.031478927 0.02350913 -0.008164425
-0.00375655 -0.011058268 0.044658635 -0.026775034 0.012143567 -0.012643698 0.025064504 -0.017404111
0.08901215 0.079436176 0.067444034 0.046803825 0.003733949 0.033989698 0.05598593 0.009592635
0.0013087743 -0.06593561 -0.02195015 -0.07230436 -0.026660489 -0.067994006 -0.057044037 -0.07941573
-0.057189904 -0.12972513 -0.12853932 -0.12975278 -0.11125895 -0.1410625 -0.1139559 -0.12354228
-0.13325709 -0.10071159 -0.06264303 -0.0374821 0.007624413 -0.0113366395 -0.03762131 -0.021344492
-0.06750177 -0.08259693 -0.034775503 -0.048365 -0.009966182 0.02453456 -0.042957846 0.025453884
-0.01014051 -0.054353878 -0.038765766 0.062052604 -0.10004047 -0.13154393 -0.099871896 -0.15355767
00000000: c634 043c f9d1 a03d cec2 1f3d 02af a33d
00000010: 6898 703d 7c7a 1e3d 8a10 aebb c1d2 ea3c
00000020: fa25 7c3d cd4a 08bd 434b babd 481c b5bd
00000030: 2842 acbb 2e24 03bd 67fb eebd c38f 1cbd
00000040: 6303 dcbd 2a94 bbbc 94a1 0f3a 2bee febc
00000050: 7478 42bd 288b 91bc 7a15 84bc cc13 0c3d
00000060: f589 4b3c aeed 8c3a e4fc a1bc 3ec7 833b
00000070: 1fc5 5ebd 268b 2bbc f3d6 9ebd 08da fdbd
00000080: 2c65 3dbd 82c8 57bd da88 c0bd 4eee 46bd
00000090: 6c9d 8abc 55c2 62bc 115c 39bd 4159 51bd
000000a0: 1c1b 90bd 2b00 74bd eb5c a3bc 30ce 8abd
000000b0: c494 28bc aabe 75bd 6d1e 9abd 288c 6fbd
000000c0: 836a 31bd c8c2 e1bc 1792 3fbd af21 b5bd
000000d0: ea23 e3bd 71af e7bd bdd2 53bd eaa4 e8bd
000000e0: 59b2 5dbd ffa7 bbbd 6250 c23a 79cf b6bc
000000f0: 919a 85bd daac 8abd 829f b6bd bb9b afbd
00000100: 760e 78bd 5910 263c afbc 2b3c 9677 3b3c
00000110: cf53 d7bc 2761 0dbd 50c0 54bd 4e60 ab3c
00000120: f492 113c d1fd a0bd b707 9ebd e23a cabc
00000130: 6e87 adbc 24b3 37bd 662d e8ba 0890 03bd
00000140: b837 b1bd 5391 94bb 2eae 263c d816 403d
00000150: 4b62 3f3d dd7c f3b8 934e 523d 583d 4e3d
00000160: 2831 723d 94b4 f73c 9855 7eba af67 9c3c
00000170: b6f7 a0bc fa0f 74bc 91e4 47bd 06a5 c2bd
00000180: 248b c1bc cc18 76bd e281 80bd 075c 62bd
00000190: 125e 94bd 2a52 e0bc d157 c4bc 97cd b8bd
000001a0: 7508 5fbd 8332 f6bd c631 dfbd a85d 88bd
000001b0: 8022 953d 3af9 19b9 8961 6d3d c453 47ba
000001c0: 0274 203d 388f f13c 9304 1f3d 97ea 893c
000001d0: cb3c c23d df26 c0bd 98d7 abbc ee93 99bd
000001e0: 4b74 69bb 2e5d 93bc 69d1 9cbd c48f 5bbd
000001f0: 9f6d eebc 0655 87bd 5803 193d f41a f43c
00000200: 59fc 903c 6f45 db3c d999 69bd f782 83bc
00000210: 6df5 14bd 9ebd 55bd 4938 e3bc 73cc 18be
00000220: fc49 42be fd47 12be c6f4 6abe 454b 3abe
00000230: c946 d4bd c497 1ebe 1a63 23be ab7d 44be
00000240: f0cb a7bd 2f06 06be f15e a9bd f0c1 a6bd
00000250: 3c0b c6bd bb1a a9bd 6c92 8abd b4f6 08be
00000260: 5eb8 c7bd c8cb 2abd 9599 15bd e899 0dbd
00000270: 0c79 c9ba 9079 adbd 5ab6 f8bc 707c 09bd
00000280: 52d2 3fbd 03a4 8fbd b4e9 9abd d7b2 3fbd
00000290: 5557 72bd 5205 5abd 8af5 b1bd 66fb cabd
000002a0: 7ff7 e4bd f4af 36bd 8446 a7bd 3be1 603d
000002b0: 84ba 103d fefc 413d a755 1dbc 1a39 833d
000002c0: abb6 6b3d 49e1 afbc 67bd 3e3d 9e1b 0cbc
000002d0: 7c8c c2bd 3d42 9cbd ac0a 52bd 1015 10bd
000002e0: a3f1 243b 1d49 56bd bafb d2bd 1b98 93bd
000002f0: 6155 b4bd 984d 83bd fd0a c2bd d4f2 98bd
00000300: e46c d6bd 0e50 d5bd 597c d8bc 358a 8dbd
00000310: 7ad1 94bd 0cf0 00bd 3896 c03c 15c4 05bc
00000320: 7330 76bb bd2d 35bc f9eb 363d 5157 dbbc
00000330: d0f5 463c 8327 4fbc 1354 cd3c 1193 8ebc
00000340: 014c b63d 6faf a23d 1920 8a3d 5eb5 3f3d
00000350: 45b5 743b c838 0b3d 8151 653d 6d2a 1d3c
00000360: 2e8b ab3a 4009 87bd cdd0 b3bc 4f14 94bd
00000370: 1967 dabc 7140 8bbd 02a7 69bd b7a4 a2bd
00000380: f63f 6abd aad6 04be d09f 03be eadd 04be
00000390: bbdb e3bd b072 10be b661 e9bd bc03 fdbd
000003a0: 8c74 08be e141 cebd fd4a 80bd d586 19bd
000003b0: 36d6 f93b 50bd 39bc ce18 1abd a5da aebc
000003c0: 5e3e 8abd 9428 a9bd c270 0ebd 611a 46bd
000003d0: 3249 23bc b4fc c83c 91f4 2fbd aa84 d03c
000003e0: 6224 26bc 2ca2 5ebd dac8 1ebd df2a 7e3d
000003f0: 05e2 ccbd 74b3 06be a389 ccbd 393e 1dbe

bias f4 [32]
-0.22908013 0.00038021937 -0.2143493 0.14036286 -0.049653623 0.20804492 0.03096621 -0.16826181
-0.05900766 0.057393968 -0.2000359 0.06554638 -0.09941058 -0.044020254 -0.12936567 0.45541734
-0.22423606 -0.11016796 -0.12508756 -0.12259091 0.048368227 0.06359765 0.060763996 -0.12794563
0.003792034 -0.052727457 -0.062207133 -0.018660782 -0.009280428 -0.039210234 -0.12091059 0.045480836
00000000: fb93 6abe 2e58 c739 627e 5bbe 48bb 0f3e
00000010: 9961 4bbd ba09 553e d9ac fd3c d34c 2cbe
00000020: 04b2 71bd f015 6b3d 36d6 4cbe 2e3d 863d
00000030: c697 cbbd 954e 34bd 6f78 04be 762c e93e
00000040: 239e 65be bd9f e1bd f416 00be f110 fbbd
00000050: c31d 463d 7c3f 823d abe3 783d 2e04 03be
00000060: c683 783b bff8 57bd e8cc 7ebd 7fde 98bc
00000070: f00c 18bc e99a 20bd f99f f7bd 1d4a 3a3d

weight f4 [32]
0.68035775 0.739981 0.7166728 1.0844778 0.6667649 0.9350577 0.7872559 0.7245713
0.7216394 0.87607443 0.71122456 0.8793772 0.75002813 0.9003685 0.7693741 1.4086808
0.8149113 0.7038449 0.749555 0.6159463 0.8790372 1.0627995 0.88198894 0.6853601
0.7447008 0.8706935 0.8282894 0.8038024 0.7140655 0.7434236 0.74948144 0.8924221
00000000: ed2b 2e3f 656f 3d3f de77 373f 2bd0 8a3f
00000010: 1bb1 2a3f f15f 6f3f 9a89 493f 817d 393f
00000020: 5cbd 383f 6a46 603f d012 363f dd1e 613f
00000030: d801 403f 8d7e 663f b3f5 443f a74f b43f
00000040: 079e 503f 2e2f 343f d6e2 3f3f a8ae 1d3f
00000050: 9508 613f d009 883f 07ca 613f c273 2f3f
00000060: b6a4 3e3f c5e5 5e3f c60a 543f fec5 4d3f
00000070: ffcc 363f 0251 3e3f 04de 3f3f c675 643f

bias f4 [32]
-0.31456396 -0.17915688 -0.25612932 -0.08768663 -0.14221343 0.06259203 -0.0847598 -0.24251263
-0.18856163 -0.13762453 -0.2304949 -0.14325897 -0.17599331 -0.12229395 -0.28066888 0.018974267
-0.20377603 -0.26158357 -0.2263358 -0.25244352 -0.13195594 -0.08273835 -0.12167424 -0.28651115
-0.14355758 -0.10379092 -0.11796328 -0.19117455 -0.21936762 -0.1980842 -0.29869166 -0.135255
00000000: 870e a1be e774 37be 6223 83be 0c95 b3bd
00000010: 66a0 11be 4030 803d 8c96 adbd 3b55 78be
00000020: 4d16 41be 72ed 0cbe db06 6cbe 7bb2 12be
00000030: 9737 34be 4075 fabd d5b3 8fbe ec6f 9b3c
00000040: aaaa 50be 48ee 85be 92c4 67be 4740 81be
00000050: 751f 07be b972 a9bd 5830 f9bd 97b1 92be
00000060: c200 13be 5590 d4bd bb96 f1bd 43c3 43be
00000070: e8a1 60be 96d6 4abe 1dee 98be 4980 0abe

running_mean f4 [32]
-2.855685 1.0592698 2.1031477 -5.3736796 4.967743 -3.2611997 -2.3214314 -2.4224808
3.9109087 -4.7665076 0.29730266 -3.835905 0.9640738 -5.3271003 -0.8596691 -4.267922
0.5611047 -2.2539616 -5.4300675 4.025536 -4.6815166 -4.830015 -4.4020643 -2.578453
-1.9337693 -5.225826 4.125631 -3.0305724 -0.5617433 3.5015666 -1.7018712 -5.413343
00000000: 8bc3 36c0 2796 873f f999 0640 2ff5 abc0
00000010: c0f7 9e40 7fb7 50c0 5592 14c0 ed09 1bc0
00000020: 544c 7a40 3b87 98c0 0e38 983e 787f 75c0
00000030: 8acd 763f 9b77 aac0 4613 5cbf d192 88c0
00000040: 8fa4 0f3f e840 10c0 1dc3 adc0 31d1 8040
00000050: fcce 95c0 7c8f 9ac0 b6dd 8cc0 6005 25c0
00000060: c185 f7bf f739 a7c0 2b05 8440 e6f4 41c0
00000070: 69ce 0fbf ab19 6040 ead6 d9bf 1b3a adc0

running_var f4 [32]
13.135066 6.331507 21.007053 29.369047 53.39913 29.758108 13.307588 15.930984
28.336645 24.361742 14.650971 30.325832 9.301975 27.752113 12.932753 18.462582
12.494921 21.911922 22.311798 15.939377 33.54617 22.691254 25.727255 18.568455
28.33068 16.328175 13.842838 17.801392 11.8432255 11.438281 12.829863 38.410328
00000000: 3b29 5241 b59b ca40 720e a841 cff3 ea41
00000010: b698 5542 9b10 ee41 e1eb 5441 4fe5 7e41
00000020: 73b1 e241 d9e4 c241 616a 6a41 4e9b f241
00000030: e4d4 1441 5404 de41 8eec 4e41 5eb3 9341
00000040: 32eb 4741 9e4b af41 907e b241 b007 7f41
00000050: 472f 0642 b087 b541 6bd1 cd41 328c 9441
00000060: 3ca5 e241 1aa0 8241 447c 5d41 4069 8e41
00000070: da7d 3d41 3303 3741 1e47 4d41 2da4 1942

weight f4 [2, 3200]
-0.0118434755 -0.012074104 0.013825448 0.0044296314 0.007124897 -0.020471375 -0.019843237 0.01214694
-0.015348896 -0.0026275567 -0.029251857 -0.004518259 0.002862846 -0.024760814 -0.013321256 -0.013652255
-0.03166 -0.0036845007 -0.015473187 -0.046880197 -0.02029202 -0.015636751 -0.015657894 -0.022173699
-0.01259073 -0.036043376 -0.03492778 -0.026119344 -0.034129534 -0.041894432 -0.019438352 -0.023658387
-0.036659002 -0.030775838 -0.048650287 -0.049721263 -0.048096817 -0.05012513 -0.010739182 -0.025973821
-0.01805852 -0.048811134 -0.064014725 -0.060378 -0.05443678 -0.054195575 -0.05730469 -0.06920102
-0.029733226 -0.030001236 -0.03736452 -0.030890722 -0.043732934 -0.030858321 -0.0362331 -0.023239454
-0.026153846 -0.023568837 -0.05160456 -0.03539366 -0.029981509 -0.0128326425 0.023361515 0.010938495
0.012371628 -0.029689884 0.005285317 0.0051324572 -0.0064821243 -0.0016398549 -0.025512842 0.002617272
0.012604651 -0.0074500013 0.021844445 -0.006808364 -0.017658416 0.0065219845 0.013047983 -0.0302613
-0.009878945 -0.028220613 -0.007987544 0.046661787 0.042997196 -0.012103852 0.028959662 0.00097517413
-0.010496172 -0.052497197 -0.034558948 -0.0023503427 -0.011183474 0.037265982 0.013137399 -0.04390583
0.0016487702 -0.0040542297 -0.036864363 -0.093271084 0.0135337105 0.01862355 0.0050640665 -0.00064690254
0.007832167 -0.025689293 0.00078834355 -0.013657762 0.0015527919 -0.0030779182 0.039777122 0.020282578
-0.017272495 -0.0031928332 -0.011350298 -0.02783537 -0.033906292 0.0028847074 -0.006243925 0.00968298
-0.0018611248 0.018195134 0.020025693 0.028097885 0.035412673 -0.017753787 0.020472586 0.010464578
-0.02323545 -0.008924533 -0.012741225 -0.026822574 -0.00011334689 0.03833725 0.056787327 0.074796215
0.052570995 0.07108142 0.016608901 -0.020530894 -0.0026816225 -0.008717255 0.021097317 0.036639106
0.033842135 0.009543137 0.039617304 0.053673994 -0.004038904 -0.0144208865 0.033617135 0.011182566
0.040804416 0.047183793 0.056937717 0.064332485 0.03514472 0.08139823 0.029609876 0.01618826
0.024474744 0.03481482 0.06740082 0.07680766 0.100478634 0.06314359 0.088593476 0.13486612
0.05110828 0.03457676 0.0014280906 0.022315556 0.052943356 0.036665328 0.0709482 0.13077408
0.016052565 0.07657529 0.05669057 0.010242182 0.01668666 0.012670061 -0.040937506 -0.026063783
0.20404801 0.31096655 0.08072202 0.014076878 -0.0037447482 0.026364392 0.0266034 0.005334331
-0.053478375 -0.08055785 0.18659231 0.29162973 0.059388 -0.04691489 -0.030363986 0.023612194
-0.0007636461 0.05467144 0.043108534 0.015871637 0.02148337 0.0016197498 -0.0227518 -0.0021632472
0.031062743 0.07147706 0.037350565 0.062385175 0.023259284 0.062505595 0.057165816 0.06179389
0.030007396 0.03615315 0.0177522 0.06445169 0.041717574 0.056635074 0.046087053 0.06724155
0.09094584 0.08037238 0.07406735 0.07227204 -0.0057564187 0.026081173 0.07057493 0.023267701
0.056510102 0.09755928 0.16433729 0.20304662 0.14222948 0.15411505 0.0054577244 0.040704012
0.041780874 -0.0052515916 0.02316003 0.10560861 0.10026409 0.18926996 0.093710504 0.06967043
0.0031424514 0.013640927 0.023508612 0.019038264 0.04350335 0.07731776 0.08669372 0.033464123
00000000: 230b 42bc 76d2 45bc 2284 623c 7126 913b
00000010: f877 e93b 96b3 a7bc 498e a2bc f603 473c
00000020: f079 7bbc 1633 2cbb 97a1 efbc e70d 94bb
00000030: 969e 3b3b 31d7 cabc 6641 5abc b5ad 5fbc
00000040: ebad 01bd aa77 71bb 4083 7dbc 7305 40bd
00000050: 733b a6bc a518 80bc fc44 80bc 9ea5 b5bc
00000060: 5949 4ebc 38a2 13bd 6f10 0fbd 3cf8 d5bc
00000070: 69cb 0bbd 7f99 2bbd 2e3d 9fbc 3ccf c1bc
00000080: c027 16bd 9c1d fcbc 8645 47bd 86a8 4bbd
00000090: 2b01 45bd 0250 4dbd 65f3 2fbc 0dc7 d4bc
000000a0: 76ef 93bc 2fee 47bd 271a 83bd ec4e 77bd
000000b0: 1af9 5ebd 2efc 5dbd 53b8 6abd 44b9 8dbd
000000c0: 1893 f3bc 27c5 f5bc 8a0b 19bd 8a0e fdbc
000000d0: 4e21 33bd 97ca fcbc 2969 14bd ab60 bebc
000000e0: 9740 d6bc 6f13 c1bc 4e5f 53bd f1f8 10bd
000000f0: c89b f5bc 0140 52bc a660 bf3c 6037 333c
00000100: 5eb2 4a3c 3338 f3bc 7430 ad3b 2c2e a83b
00000110: 0068 d4bb 66f0 d6ba 4f00 d1bc 8a86 2b3b
00000120: bd83 4e3c 241f f4bb 1ff3 b23c b218 dfbb
00000130: 62a8 90bc 5fb6 d53b 35c7 553c 8ce6 f7bc
00000140: 4cdb 21bc ea2e e7bc 30de 02bc 6e20 3f3d
00000150: d41d 303d 3c4f 46bc d03c ed3c d4a2 7f3a
00000160: 23f8 2bbc 4d07 57bd af8d 0dbd 3508 1abb
00000170: e43a 37bc 37a4 183d 3f3e 573c 99d6 33bd
00000180: 8c1b d83a 58d9 84bb 16ff 16bd e904 bfbd
00000190: 7fbc 5d3c 6a90 983c 78f0 a53b e594 29ba
000001a0: 7d52 003c 5a72 d2bc d7a8 4e3a cec4 5fbc
000001b0: 0d87 cb3a e6b6 49bb 56ed 223d a627 a63c
000001c0: 0c7f 8dbc da3e 51bb 9af6 39bc 0007 e4bc
000001d0: 53e1 0abd 5c0d 3d3b d799 ccbb 5da5 1e3c
000001e0: fcf0 f3ba f60d 953c ec0c a43c 892d e63c
000001f0: e10c 113d 6470 91bc 20b6 a73c 9f73 2b3c
00000200: 4558 bebc 3438 12bc 92c0 50bc 04bb dbbc
00000210: a6b4 edb8 8507 1d3d d499 683d c22e 993d
00000220: af54 573d 2393 913d 640f 883c 6830 a8bc
00000230: 29be 2fbb d1d2 0ebc 48d4 ac3c e312 163d
00000240: 0d9e 0a3d d15a 1c3c c145 223d 43d9 5b3d
00000250: c858 84bb 9545 6cbc 1fb2 093d 1537 373c
00000260: 8822 273d cb43 413d 8637 693d c0c0 833d
00000270: e9f3 0f3d 1db4 a63d 6990 f23c 3e9d 843c
00000280: 427f c83c fc99 0e3d 7109 8a3d 564d 9d3d
00000290: bec7 cd3d 6d51 813d 7f70 b53d 581a 0a3e
000002a0: ea56 513d 5ca0 0d3d c52e bb3a 1dcf b63c
000002b0: 22db 583d 622e 163d 4a4d 913d a4e9 053e
000002c0: ab80 833c 81d3 9c3d 5f34 683d d3ce 273c
000002d0: 76b2 883c 1696 4f3c 16ae 27bd b783 d5bc
000002e0: f6f1 503e 0237 9f3e 9651 a53d b5a2 663c
000002f0: 736a 75bb 23fa d73c 60ef d93c 9dcb ae3b
00000300: 240c 5bbd 84fb a4bd 0e12 3f3e 7e50 953e
00000310: d540 733d d429 40bd e5bd f8bc 5c6e c13c
00000320: 6c2f 48ba 29ef 5f3d 9392 303d 3c05 823c
00000330: e4fd af3c c94d d43a fc61 babc 44c5 0dbb
00000340: 4b77 fe3c 9162 923d e8fc 183d 9987 7f3d
00000350: 418a be3c ef02 803d b426 6a3d 971b 7d3d
00000360: 12d2 f53c 5315 143d 106d 913c 3fff 833d
00000370: 0ce0 2a3d 2efa 673d c7c5 3c3d f0b5 893d
00000380: d041 ba3d 469a a43d 9fb0 973d 5d03 943d
00000390: 57a0 bcbb 2fa8 d53c 9789 903d e89b be3c
000003a0: 2377 673d 29cd c73d 0948 283e 74eb 4f3e
000003b0: 9ba4 113e 56d0 1d3e b6d6 b23b 40b9 263d
000003c0: 6c22 2b3d 8b15 acbb 1aba bd3c 5449 d83d
000003d0: 4257 cd3d fccf 413e 4beb bf3d 5faf 8e3d
000003e0: 96f1 4d3b 327e 5f3c 2295 c03c 22f6 9b3c
000003f0: 9230 323d c658 9e3d 7a8c b13d ad11 093d

bias f4 [2]
-0.10353546 0.096150935
00000000: 660a d4bd c8ea c43d
