model/nose.pt (torch, 317694 bytes, 20 tensors)

cnn_layers_max.0.weight f4 [32, 3, 3, 3]
00000000: 9fb3 033d 27f7 443d 2e32 393c 4ed4 22be
00000010: 97a6 62be c48f 053e 92bf abbc f4a4 773d
00000020: 2f00 24be ecda 073d 41ca cabd 2a07 e1bd
00000030: 9b19 ca3d d50c 86be 3e93 dc3d 709b 1dbe
00000040: 2a51 8d3d d947 7f3d c897 0cbd a0ea 3e3d
00000050: 333e 823d 3a52 f9bd 4dc5 81be d2e0 75be
00000060: dd9c 1c3d cc3a f63d e946 bfbd 69b1 5fbe
00000070: 5093 15be c823 91bc cd48 34be 0cfd 8abe
00000080: ef4b 89be 877a 18be c668 2bbe b7a8 7dbe
00000090: 7ad3 2bbe ad92 36be 31dc 2ebe ce57 f23c
000000a0: f8c9 2abe 9c4b 1fbe 3d4e 01be ef9d d6bc
000000b0: 0211 5ebe 163e 3b3a 79b8 85be 04cf 69bc
000000c0: 2922 7c3d 9870 0dbe f40c c53d d768 0dbe
000000d0: f594 753d 5625 82bc 891d a4bd 8ea3 d93b
000000e0: 5e12 8a3d 0678 033d 851f 9cbe 8ba7 43bd
000000f0: 0bfb 2d3e 18ef cb3b 6683 883d 475e 42bd
00000100: 34cc 353e d35e 9c3d 190c 99be 9b4e 45be
00000110: 1634 8bbd 66e1 023e 93fb 443e 432f d9bd
00000120: 76a3 fdbd 2219 423e 4629 0cbe 11e4 3a3d
00000130: 0c7a 453c 8e5b 28be 7b3f 9d3e 54fc 023e
00000140: 1ab0 f73d 9d86 11be ebd3 96bc 767e 62be
00000150: 86d7 363e 42ec 2e3d 728b aabd 37ce 68bd
00000160: 26ae 263d 3b2b 44be cebd 8abe e63f b9bc
00000170: 98da 70bd d13d 023e a97a 593c 5678 3cbd
00000180: 5465 b63d 3263 af3c 6faa fc3d 409e 63bd
00000190: f273 59be 50ff 82be b3eb 45be 6b08 9e3d
000001a0: 90f2 ab3b fe2c 5cbb f4ce 7abe 0a77 7b3d
000001b0: c9ad dbbc 16b0 96bd 607b c63c 6c36 26be
000001c0: 4df7 b43d 924a b7bd d5bc 4f3d ecb5 70be
000001d0: 5992 afbd b30c 34be 8362 3ebe 8f54 f3bd
000001e0: 8fdd 80bd 9c9e 38be 6b03 69be 407b aebb
000001f0: 6c80 62be bb9a 3dbe 49cd 27be d31e 4cbc
00000200: 948d fbbd 4f0d 5bbd ccfc ffbd 6813 92be
00000210: 581a 7b3d ba65 b33c dcd4 acbb d72c 82bc
00000220: 25bc f23d dbb8 21bd d187 00bd 07a0 503e
00000230: e541 323e 2d9f ccbc 45a2 a5bd cbc7 353d
00000240: cd52 403e 591a e53d 61df cfbc f7cc c7bb
00000250: 1369 32bd 6ea3 273e d593 a4bd be9c 233e
00000260: eeca dcbc 96d8 61bd c4d3 173d bb15 d3bc
00000270: f7c8 4c3e 0858 553e dfda 933d 2f65 be3c
00000280: 5696 8c3c 80bb 7dbb 1281 a9ba d711 d4bd
00000290: 610a 26be 2561 31be 5a13 c63d a1cb 1ebe
000002a0: 8db2 1e3d cd4d b43d 3044 303d 97a1 31bd
000002b0: 8cc8 be3d a500 33be 99a2 cd3d b5d4 433e
000002c0: 4312 153e 7b3c 043e 986b f03c 01ca 013e
000002d0: c738 d1bd 07ef 4abb 5865 01be 1859 18be
000002e0: 406a 1cbc 077f 29be e138 bb3d b554 21be
000002f0: a967 da3d b1a7 8e3d aba9 b7bd a2bb 9b3d
00000300: f176 8cbc 75d2 55be 3628 1cbe eda9 613b
00000310: 79a4 11bd 6c90 89bc e685 79be 8899 cdbd
00000320: aa0e bebd a637 9a3d 3688 51be 3c5f 5bbe
00000330: 1f09 fcbd 8fd3 0fbe bd72 1fbe 254a d33d
00000340: dc71 68bd 03d9 5e3d ee17 523d dd2a 9ebd
00000350: 18a9 133d 9e28 3ebe d80e d1bd 84d6 61bd
00000360: ff47 6cbe 3dd7 83be 8c50 9bbd 7f08 443c
00000370: dcbf 4b3d 1eb5 3fbd 9de0 fbbc 2e2a 6f3c
00000380: 3e7a 33be 800f 22be 7671 ca3d 65a7 5c3d
00000390: 058e c0bc b7a7 93bd 7647 38be a57d 11be
000003a0: bba9 86be 87de 86be c646 cabd 72f4 6abe
000003b0: 6598 713d cbbc 813c 1b2e 4cbe 0306 553d
000003c0: 6966 54be 13e1 a7bc a4e0 51be 7908 31be
000003d0: 3f78 efbd 2e65 d9bd 2ec9 653c 4731 a23d
000003e0: 8053 89be 0945 97be 750e 1abe c7ad 05bd
000003f0: 9f12 523a 138a bfbd 7cb9 fb3c 2342 973c
0.032153722 0.048087265 0.011303468 -0.159013 -0.22133861 0.13043123 -0.020965371 0.060460046
-0.16015695 0.033167765 -0.09901858 -0.109876946 0.09868165 -0.26181665 0.10770272 -0.15391326
0.069002464 0.06232438 -0.034324437 0.046610475 0.0635952 -0.121738866 -0.2534584 -0.24011543
0.038235534 0.12022933 -0.09339697 -0.2184502 -0.14606977 -0.017717257 -0.17605896 -0.27146184
-0.26815745 -0.1489049 -0.16739187 -0.24771391 -0.1677989 -0.1782939 -0.17076184 0.029582884
-0.16678607 -0.15556186 -0.12627502 -0.026198355 -0.21686175 0.00071427354 -0.26117304 -0.014270548
0.061556015 -0.13812482 0.09621611 -0.13809524 0.05995651 -0.015886944 -0.08013446 0.0066418117
0.067417845 0.032096885 -0.30492797 -0.047767203 0.16990297 0.0062235706 0.06665687 -0.04745319
0.17753679 0.07635274 -0.29892042 -0.19268267 -0.06797044 0.12781295 0.19236593 -0.106047176
-0.12384693 0.189549 -0.1368762 0.045627657 0.012053024 -0.16441175 0.30712494 0.12791568
0.120941356 -0.14211507 -0.018411597 -0.22118554 0.17855653 0.04270578 -0.08327378 -0.056837287
0.040693425 -0.19157116 -0.27097934 -0.022613477 -0.058802217 0.12718894 0.013273873 -0.0460132
0.089060456 0.021409605 0.12337195 -0.05557084 -0.21235636 -0.25585413 -0.19328193 0.07716449
0.0052474216 -0.0033596153 -0.24493009 0.06139282 -0.026816266 -0.073578045 0.024228752 -0.16231698
0.088362314 -0.0894977 0.050717194 -0.23506898 -0.085728355 -0.1758297 -0.18592267 -0.11881363
-0.06292259 -0.18029255 -0.2275521 -0.005324751 -0.22119302 -0.18516056 -0.16386904 -0.012458521
-0.12282863 -0.05347949 -0.12499389 -0.2853043 0.06130442 0.021899093 -0.0052743983 -0.015890522
0.11852292 -0.039482933 -0.031379525 0.20373546 0.1740795 -0.024978245 -0.08087591 0.04437999
0.18781586 0.11186666 -0.02537507 -0.0060974318 -0.043557238 0.16370937 -0.08036009 0.15977761
-0.026952233 -0.055138193 0.03706719 -0.025767198 0.19998537 0.20834363 0.07219481 0.023241607
0.01716153 -0.0038716495 -0.0012932143 -0.10354965 -0.16214897 -0.17322214 0.0967166 -0.15507366
0.038744498 0.08803902 0.04303378 -0.043366995 0.09315595 -0.17480715 0.10040779 0.1912411
0.14557748 0.12913696 0.02934818 0.12674715 -0.102159075 -0.0030965225 -0.12636316 -0.14877737
-0.009546816 -0.16552363 0.09141708 -0.1575497 0.10664303 0.06965578 -0.089679085 0.076041475
-0.01714656 -0.20881064 -0.15249714 0.003443356 -0.035557244 -0.016792499 -0.24367484 -0.100390494
-0.09280141 0.07530145 -0.20462117 -0.21423048 -0.12306427 -0.14045547 -0.15571113 0.10316876
-0.05674921 0.054406177 0.051292352 -0.07723019 0.036049932 -0.18570182 -0.10207909 -0.05513622
-0.2307434 -0.2575015 -0.075837225 0.011964916 0.04974352 -0.046803586 -0.030746752 0.014597459
-0.175271 -0.15826225 0.09884922 0.053870577 -0.02350522 -0.072097234 -0.1799601 -0.14208086
-0.2630137 -0.2634165 -0.0987678 -0.22944811 0.058983225 0.015837094 -0.19939463 0.052007686
-0.20742191 -0.020493066 -0.2049585 -0.17288388 -0.11692857 -0.106150016 0.014025016 0.07919555
-0.26821518 -0.29544857 -0.15044577 -0.03263643 0.0008013639 -0.093525074 0.030728094 0.018464154

cnn_layers_max.0.bias f4 [32]
00000000: cf89 003d a718 fcbd 654b a3ba bb65 8abd
00000010: 0d99 05be ef86 12bd a3eb 2f3e 8fb3 ccbd
00000020: 288b febd 263f 373e 6f78 36bd 678f 813d
00000030: 4fcc a0bc a239 09be 66ea ecbc 60cf 3c3d
00000040: 276c 2bbe ed22 e4bc e0a9 f7bd c0f3 3f3c
00000050: 21da b53d 070b b8bc 3bfb 13be 5348 003d
00000060: 30d8 b9bc 8cfc 033e 4675 123b 3e51 3f3b
00000070: 95c1 b6bd 0b7e 323e 44e1 d0bc 131f 99bd
0.031381425 -0.123093896 -0.0012458382 -0.06757685 -0.13046665 -0.035773214 0.17179732 -0.099951856
-0.12428886 0.17895183 -0.04454845 0.0632618 -0.019628672 -0.13400891 -0.028920364 0.046096206
-0.16740476 -0.027848685 -0.12092948 0.011715829 0.088794954 -0.022466196 -0.14451306 0.031318974
-0.022686094 0.12889308 0.0022347732 0.0029192711 -0.089236416 0.17430894 -0.02549804 -0.0747663

cnn_layers_max.1.weight f4 [32]
00000000: 3c12 773f f9fc 4e3f 75ef 7c3f 6b0e 953f
00000010: f92b 4a3f 9f22 7f3f eb6c 863f b9c3 5e3f
00000020: 3e49 433f 0f19 873f 679b 7a3f 6c95 6d3f
00000030: 135d 863f 90a9 5c3f 8d0e 6b3f 05ff 7c3f
00000040: 7bf2 5b3f 0b58 813f effa 4f3f 3aa5 803f
00000050: 3319 703f 30c2 7e3f 6a20 453f b421 8a3f
00000060: c8ab 633f cf52 643f 1c2c 653f f0d0 8d3f
00000070: b16f 513f e6b0 7e3f c8f1 5a3f 254c 553f
0.965122 0.80854756 0.9880288 1.1645025 0.78973347 0.996622 1.0501989 0.870174
0.76283634 1.0554522 0.97893375 0.92806125 1.0497154 0.8619623 0.9181908 0.9882663
0.8591687 1.0104994 0.8124227 1.0050423 0.9378845 0.99515057 0.77002585 1.0791535
0.8893399 0.89188856 0.8952043 1.1079388 0.8181105 0.99488676 0.8552518 0.8331931

cnn_layers_max.1.bias f4 [32]
00000000: 767c 9cbd 45f0 2cbe b45c 93bd b09d 013d
00000010: d1fc 55be 8e73 78bd be7d e5bc 194a f4bd
00000020: 1f8b 58be e539 203d 9380 93bd 7d99 acbd
00000030: e2bc 04bd 45da efbd 7a28 87bd d7a5 6abd
00000040: 89f2 35be fa0f b2bd e642 3cbe 3fdb 93bc
00000050: cb41 cdbd e90c 1cbd 1abd 59be 9592 923d
00000060: dfa5 bcbd d729 3ebd 0462 f5bd 0dc5 653d
00000070: fe8e 00be 0760 13bb fea1 3dbb 1ef4 0dbe
-0.076409265 -0.1688853 -0.07195416 0.031644523 -0.20897223 -0.060657077 -0.02801406 -0.119281955
-0.2114682 0.039117713 -0.07202258 -0.08427713 -0.032406695 -0.117115535 -0.06599517 -0.057287063
-0.17768301 -0.086944535 -0.18384895 -0.01804888 -0.10022315 -0.03809825 -0.21263543 0.071568646
-0.09211325 -0.04642662 -0.119815856 0.056096125 -0.12554547 -0.0022487657 -0.0028935666 -0.13862655

cnn_layers_max.1.running_mean f4 [32]
00000000: c7f5 b6be 3f57 84bf ec50 b13d 5569 dd3c
00000010: 8e88 79bf d8ca 123f 1928 a4bd 4807 4abf
00000020: ec20 83bf 8525 28bf faba 0d3f c295 75bf
00000030: 96ae 143f 3c09 5fbf 5d13 2f3f bdb7 73bf
00000040: b3f9 6cbf b643 163f 457d 86bf d9f1 d03e
00000050: 1649 13bf cca2 c13e 89b4 92bf eab1 a4bd
00000060: 78c3 a83e c8ba 00bf 74cc 313f 9ae5 ac3e
00000070: 1a51 9cbf 29c1 3cbf 010f 013f a1e5 42bf
-0.35734388 -1.0339125 0.08658013 0.027027765 -0.9747399 0.57340765 -0.080154605 -0.7891736
-1.0244422 -0.6568225 0.5536343 -0.9593164 0.58078897 -0.87123466 0.6838892 -0.9520224
-0.9256851 0.5869707 -1.0506979 0.40809515 -0.57533395 0.37819517 -1.1461345 -0.08041747
0.3296163 -0.50285006 0.69452596 0.33768922 -1.221225 -0.7373224 0.5041352 -0.76131636

cnn_layers_max.1.running_var f4 [32]
00000000: 9365 543d 7a89 b23e ecb1 c73c a820 103c
00000010: a290 9c3e bf87 e83d b410 3d3c b3f1 4d3e
00000020: b634 ad3e baff 4d3e 4afa d23d 537b 993e
00000030: 0247 ee3d dd92 7c3e b6f3 1c3e a7b2 973e
00000040: 6f21 8b3e 1bb5 ee3d 4c69 b23e 68bb 703d
00000050: 905c e53d 8ed2 5c3d 744f d23e ebe6 313c
00000060: 6a36 203d 7aaa ac3d 7499 1b3e 34dd 303d
00000070: 1736 f33e 5d71 683e e05d b13d 710f 3f3e
0.05185468 0.3487051 0.024376832 0.008796848 0.30579096 0.113540165 0.011539627 0.20111732
0.33829278 0.20117083 0.10301645 0.299769 0.116346374 0.24665399 0.15327343 0.29628488
0.27173945 0.11655637 0.3484596 0.058772475 0.111992955 0.053911738 0.41076243 0.010858278
0.039114393 0.08430953 0.15195256 0.043179706 0.47502205 0.22699495 0.08660483 0.18658234

cnn_layers_avg.0.weight f4 [32, 32, 3, 3]
00000000: a46f 263c 9850 403d cfbb d73b f17f 003d
00000010: 178e b93d b83a e2bb 4f19 a2bc d8e5 a1bc
00000020: 543a 583c a868 063d c61f cabc bfcb 0fbd
00000030: 3eac 04bc 41ec 43bd 7da1 86bd 49f3 08bc
00000040: f6e8 23bd 6a01 2abd 4769 933d cf1c 6c3d
00000050: 4dc0 a8ba 0536 813d 3661 d03d 2337 113d
00000060: f4bb 86bc 4ab5 ec3d 629b 5b3d ce17 293e
00000070: 1b5e fd3d e351 303e 2f7f 6d3e 36d2 143e
00000080: 9d48 3d3e d075 fa3d fc4d 103e d7c8 173e
00000090: 890d afbc f99b d9bd b490 efbd 5084 a7bd
000000a0: 74f8 d5bd 2666 82bd dc2b e5bb 610f adbd
000000b0: e699 05bd 6b0f 1a3c e2df 6fbc 48b1 1bbd
000000c0: 5fde a1bc f9fb 8b3d 77a6 5e3c 2521 bb3d
000000d0: 8a28 743d 118f 103d a17a 713d 871a d13b
000000e0: 2a92 c138 c8ad 063d d3ed 793d 7c30 e3bc
000000f0: c9ee 193d a25a c23c 2164 43bd 9ac0 7dbd
00000100: e563 e0bd 52b3 69bd df86 8fbd a28a 2bbd
00000110: 7505 c4bd cfad c8bd 095c 0bbc f875 aebd
00000120: 0a47 2fbd 7208 adbc 6e9a a9bc 9a8e 38bc
00000130: a07f c0bc e5d8 90bd 1ba3 33bd 0d0d b6bb
00000140: 1a40 bbbd aed7 053e f7f2 943d dcc7 b73d
00000150: 6b1e dc3d b135 8d3d ac3d 023d af13 e33d
00000160: 8da9 de3d 1600 353d 9373 8f3c 24a3 ab3c
00000170: fe3d 3dbd 62da c63c 29ac a13c ad33 a5bb
00000180: 14be 5bbd df21 053c 6aa9 ce3c cd98 6d3d
00000190: 8e91 763c e037 8c3d b014 ab3c 369a 953d
000001a0: 172c 17bc 0318 913a 59f9 ae3c 88c4 f53c
000001b0: ee6c da3d dbaa c13d 8a63 f33c e3e7 69bc
000001c0: be7d d83d 8324 2a3d cdd9 093d 194a 4d3d
000001d0: 5ddb 8d3d a9c7 b4bd f342 7dbd 502d 4a3b
000001e0: ef3a b53c 8c3e 9fbc ffb1 80bd ee17 71bd
000001f0: 6951 5abd 3840 adbd 147c 4f3d 30e8 6fbc
00000200: c3b4 38bc e594 5a3c 57ab c33c ba17 21bb
00000210: 7284 3e3d ab05 09bc ffbe 07bc 20c3 5a3c
00000220: 5fa9 caba 0a02 c43c 9075 d03c 127b 9e3d
00000230: 3034 573c 4131 06bd df3f a13d bb56 fc3c
00000240: 9914 78bd f843 393c df56 90bc ed09 72bd
00000250: 6a55 223c 0ac4 153b 53f2 99bd dafe 393c
00000260: f397 3abd b5da b33d 1730 353c cf9f 503d
00000270: 996d 7a3d 8c2a 1c3d adb4 8e3c f8b0 f3bc
00000280: f517 34bd d4e5 cd3b 9ae1 54bd 4a09 65bd
00000290: da21 1cbc de54 0e3c 1321 0cbd 7254 7ebd
000002a0: fc8c 95bd 371b 98bd 197f 8bbd d567 453d
000002b0: 5de7 673d 66b1 9a3d 5428 b03d 31ae a03d
000002c0: 8d84 523d e9d3 873d 21f7 ff3d eca4 043e
000002d0: 89ef 3fbd 6e38 1bbc 82d9 d2bc 9f10 123d
000002e0: a822 9cbc 52f1 13bc 7548 493d ece4 8b3d
000002f0: 1898 fcbc 2336 4f3d eecb 343d 73e1 913c
00000300: afd3 4f3c d262 6bbc cf19 9a3d eebe 923c
00000310: 5f45 ef3c 9fc8 493c 1330 5d3d a3bb 303d
00000320: daa4 b8bc b631 85bb b8a8 29bd c852 3ebb
00000330: eda1 8cbb 45ac 103d e77e 0cbd 7fe8 153e
00000340: 2b9c 053e f41b 043e b970 d23d 6194 d03d
00000350: 1cf6 093e 3ee3 1f3d b878 163e a3f8 bc3d
00000360: 5126 1b3d 7b64 c33c 9241 d33c e7b0 0abd
00000370: ef6a 11bd 3c18 ad3d 242d 74bd 8885 73bd
00000380: a37b 8a3c e6f8 f93c 6371 983a 7263 80bd
00000390: a09a 19bc 36f3 d93b 4df3 97bd 2b83 5ebd
000003a0: c407 1dbc 27e1 1dbd 63f7 bdbd c8a7 a03c
000003b0: c2dc e2bc 1158 acbc ebdf 7f3d d4b7 19bd
000003c0: 425d 05bc a876 b03d 022f 973b 3cae 913d
000003d0: a877 213e 14d3 383e 7d37 203e 8369 c83d
000003e0: c57d 0b3e f27b 193e 2139 e83d 3ee2 153e
000003f0: c86a f2bd d415 eebc 59e8 53bd 0f96 a9bd
0.010158453 0.04695186 0.006583668 0.031372014 0.090603046 -0.0069039725 -0.019787459 -0.019762918
0.0131975 0.03281465 -0.024673354 -0.035106417 -0.008097706 -0.04783273 -0.0657377 -0.008358785
-0.04001709 -0.041505255 0.071978144 0.05764466 -0.0012874693 0.063091315 0.101747915 0.035452973
-0.016447045 0.11558016 0.05361498 0.16512987 0.12371465 0.17218737 0.23193048 0.14533314
0.18484731 0.12229502 0.14092249 0.14822708 -0.021368759 -0.106254525 -0.11697522 -0.081795335
-0.10447779 -0.063671395 -0.006993754 -0.08450199 -0.032617472 0.00940309 -0.01464078 -0.038010865
-0.019759355 0.06835169 0.013589493 0.09137181 0.059608974 0.03529269 0.05895484 0.006381336
9.230182e-05 0.032880574 0.061017822 -0.02773308 0.03758124 0.023724858 -0.047702912 -0.061951257
-0.10956553 -0.05705578 -0.070081465 -0.041880257 -0.09571353 -0.09798776 -0.00850583 -0.085185945
-0.042792358 -0.021122191 -0.02070352 -0.011264468 -0.023498356 -0.07072619 -0.04385672 -0.005555755
-0.09143086 0.13070557 0.07272904 0.08973667 0.10747989 0.068950064 0.031797096 0.11087739
0.10872183 0.044189535 0.017511165 0.020951815 -0.0462017 0.024274055 0.019735413 -0.0050415606
-0.05364807 0.008125751 0.025227267 0.05800705 0.015049351 0.06846595 0.020883888 0.07304804
-0.00922682 0.0011069778 0.021359133 0.03000094 0.10665308 0.09456416 0.02971055 -0.0142764775
0.105708584 0.041538727 0.033654977 0.050119493 0.06926606 -0.08827145 -0.061831426 0.0030849762
0.022122828 -0.019439004 -0.0628395 -0.05886071 -0.053300295 -0.084595144 0.05065544 -0.01464276
-0.011273566 0.013341163 0.023885412 -0.0024580793 0.04651303 -0.008363168 -0.008285283 0.0133521855
-0.0015461853 0.023926754 0.025446683 0.077383175 0.013135001 -0.032761816 0.078735106 0.030803075
-0.06056652 0.011307709 -0.017619548 -0.059091497 0.00990806 0.0022852444 -0.07516923 0.011352265
-0.045555066 0.087819494 0.011058829 0.050933655 0.061139677 0.038126513 0.017420137 -0.029747471
-0.04396816 0.006283501 -0.051972963 -0.055917062 -0.009529555 0.008687226 -0.03421123 -0.062092252
-0.07302281 -0.07427066 -0.06811351 0.048194725 0.05661713 0.07553367 0.08601442 0.078457244
0.05139594 0.066322155 0.12498308 0.12953538 -0.046859298 -0.009473903 -0.025738481 0.035660382
-0.019059494 -0.009029703 0.049141366 0.06830773 -0.030834243 0.05058874 0.044139795 0.017807698
0.012684747 -0.014366822 0.07524454 0.017913308 0.029207883 0.012315898 0.054000925 0.043147694
-0.022539545 -0.004064764 -0.04142067 -0.002904104 -0.004291764 0.03532054 -0.03430071 0.14639471
0.13047855 0.12901288 0.102754064 0.10184551 0.1347279 0.039035074 0.14694488 0.09227111
0.03787834 0.023851624 0.025788102 -0.033860113 -0.03550237 0.08451888 -0.059613362 -0.059453517
0.016904658 0.030514192 0.0011630472 -0.06268968 -0.009375244 0.0066513075 -0.07419453 -0.05432431
-0.009584371 -0.0385448 -0.09275701 0.019611254 -0.027693156 -0.021038087 0.062469404 -0.037528828
-0.00813991 0.08616382 0.004613758 0.07113311 0.15768301 0.1804927 0.15646167 0.0978575
0.13622196 0.14988688 0.113390215 0.14637086 -0.11836773 -0.029063143 -0.051735256 -0.082805745

cnn_layers_avg.0.bias f4 [32]
00000000: 07fc 9dbd 873a e63d 87fd a8bd cc98 a6bd
00000010: dda3 f4bc 9694 5cbd 74d2 c73d 4a59 c4bd
00000020: 8d34 d3bd 446e 583a d047 bfbd 96f8 eebd
00000030: d817 2c3c 9263 813b 3fc9 c4bd 43a2 58bd
00000040: e431 46be d055 bebd 1a6e 3fbd 12b7 32be
00000050: c522 aebd 7eb1 71bd 0baa 81bc d9eb bcbc
00000060: 2ce7 67bd ef9a 87bd fd2a d5bd da66 7b3c
00000070: 5bbe 46bc 474d 34be 68e8 6d3d 0edb 56bd
-0.07714086 0.11241632 -0.082514815 -0.081346124 -0.029863292 -0.05385264 0.097569376 -0.09587343
-0.10312758 0.0008256177 -0.09339869 -0.11668508 0.010503732 0.0039486373 -0.09608697 -0.05288912
-0.1935497 -0.09293711 -0.04673586 -0.17452648 -0.085027255 -0.05900716 -0.015828153 -0.02306168
-0.056616947 -0.06621348 -0.1040859 0.015344346 -0.012130345 -0.17607604 0.058082968 -0.052455

cnn_layers_avg.1.weight f4 [32]
00000000: 3208 853f deeb 823f 660e 683f 0ece 833f
00000010: 9123 833f e472 803f 4299 653f 6d74 653f
00000020: ff6f 6f3f bcb5 583f 3e75 843f 7577 7d3f
00000030: 1a0c 573f 3273 893f 77fc 823f 0cc3 583f
00000040: 5856 613f 3036 5d3f 07a4 5b3f 18f5 613f
00000050: 283a 563f 8f67 833f 1da6 553f 39c0 623f
00000060: 6041 613f 7ae4 593f 87e9 583f 3e0d 8a3f
00000070: 0dd3 603f eb99 603f ca48 6d3f d930 793f
1.0393126 1.0228231 0.9064697 1.0297258 1.0245229 1.0035062 0.8968698 0.89630777
0.9353027 0.84652305 1.034828 0.990104 0.8400284 1.073828 1.0233296 0.8467262
0.88022375 0.8641081 0.8579716 0.8826461 0.8368249 1.0265979 0.83456594 0.8857456
0.8799038 0.8511425 0.84731334 1.0785291 0.8782204 0.8773486 0.9268919 0.9734016

cnn_layers_avg.1.bias f4 [32]
00000000: f9c1 bcbd 037d 693c 0086 eabd 5507 3cbe
00000010: 9098 1ebd 26b7 1dbc cef2 8ebd bb5c a8bd
00000020: 514e 9ebd d62f 04be a8e6 56be f933 b7bd
00000030: e1b5 18be 02d0 dfbb f8e0 03be 4590 0bbe
00000040: 49f8 09be 3f01 eebd 6132 8fbd fbad 07be
00000050: bbd1 28be 563e 0dbe a34c c1bd aed7 d4bd
00000060: 9513 ebbd 8211 16be 1c8c 15be 7951 0fbd
00000070: 867d 87bd 8604 b5bd c12f bbbc 114a 24be
-0.09216685 0.0142509965 -0.1145134 -0.18362172 -0.038719714 -0.0096261855 -0.06979905 -0.08220812
-0.077297814 -0.12908873 -0.20986426 -0.0894546 -0.14913131 -0.0068302164 -0.12878788 -0.13629253
-0.1347362 -0.116213314 -0.06992031 -0.13249962 -0.16486256 -0.1379331 -0.094384454 -0.103927
-0.11478344 -0.14655116 -0.14604229 -0.034989808 -0.066157386 -0.088387534 -0.02284992 -0.16043879

cnn_layers_avg.1.running_mean f4 [32]
00000000: aa81 a840 7275 7040 0d51 f240 1916 c840
00000010: b130 8940 9464 8140 d876 d5c0 4b82 ffbe
00000020: 8888 7f40 95ba c640 8098 c040 a4f2 c4c0
00000030: a4fb 1dbf 4cda 9140 d8e5 9940 1fac a140
00000040: c463 23c0 78d5 99c0 d769 383e 7fbc 8abf
00000050: 27dd 3ac0 2695 d140 f204 d7bf 006e 25c0
00000060: 7916 aac0 550b 88c0 f3a3 a23f 6a30 6940
00000070: 1c91 9fc0 cfd4 90c0 b37a c040 40d1 b840
5.265828 3.7571683 7.572394 6.2526975 4.287194 4.0435276 -6.6707573 -0.49904093
3.9927082 6.210276 6.0186157 -6.154619 -0.617121 4.5578976 4.809307 5.052261
-2.5529642 -4.807308 0.18009125 -1.0838774 -2.919748 6.5494566 -1.6798384 -2.5848389
-5.3152432 -4.2513833 1.2706283 3.64358 -4.9864635 -4.5259776 6.014978 5.775543

cnn_layers_avg.1.running_var f4 [32]
00000000: 881e 9741 767b ef40 72e4 7541 cf00 5341
00000010: fb5f 7441 ecdb c841 8642 3741 3363 3c41
00000020: 4abe 8a41 cb70 4941 6e64 5241 69dc 2741
00000030: 9ce8 ce40 0279 0e41 9744 cb40 5313 3d41
00000040: 661e 1741 aad4 3e41 38be a340 99a5 df40
00000050: a7d2 1c41 c515 9141 9610 a540 0968 5041
00000060: b112 8d41 0df7 5c41 b01c 0941 a711 5e41
00000070: eeac d440 b2b1 4141 15c0 5041 9ea5 5441
18.889908 7.483821 15.368273 13.187697 15.273433 25.107384 11.453741 11.774219
17.342915 12.590037 13.149519 10.491311 6.4658947 8.904543 6.352123 11.817218
9.4449215 11.92692 5.11697 6.9889646 9.801429 18.13563 5.1582747 13.025399
17.634127 13.810315 8.569504 13.87931 6.6461096 12.105883 13.046895 13.290434

cnn_layers_max_2.0.weight f4 [32, 32, 3, 3]
00000000: 7ee4 d2bd 8534 bf3b 7f11 45bc 9dbb 08bd
00000010: 2f7e c3bc 09c9 2bbd a04e dfbd d08a 12bc
00000020: 1c15 cfbc 22fe a83c 384b 503b af61 af3d
00000030: c0f3 a83d c2c9 663d f928 c33d 69b5 b63b
00000040: e14b 883d 4f0b f83b c57b f93d 1ee1 d53d
00000050: 0e9b a93d 1dd1 d43c e914 953d bda8 d03d
00000060: a430 a23d 3e8c ab3d 6539 113c 581c 43bd
00000070: e8bb c4bd 1052 92bd 409a c6bc 4213 69bd
00000080: 8db9 bebd b520 10bd d4d6 a8bd 527c 39bd
00000090: 2ce9 43bd c932 3dbd 53bc 90bd fd82 4dbc
000000a0: c16d 9d3c c6b5 4bbc 8914 02bd 37a1 9bbc
000000b0: a4c5 b6bd 6fb4 833d 32b6 843d 8df4 ec3d
000000c0: 9925 293d 553b 013d 5a86 e13d 85b4 843d
000000d0: d748 d23d beff 3f3d f6fe ecbc 9570 7ebd
000000e0: 72ff 75bc b59e 063d 11c3 5cbd 92e8 bebd
000000f0: 600a f6bc 1dbe 31bd bd7d b9bb 6d0f 823d
00000100: 656a c83c 70ac 133d 32e5 7f3d 4719 60bc
00000110: 99a9 0ebd f326 293c 70f0 4e3d 386b e7bb
00000120: 1bbe 6cbd 6412 10bb 1c7f 5dbd 8b28 e13c
00000130: 484a a33c fafc d13c d51a 75bb bd5b 833c
00000140: 83db 40bd 2a57 353d 0952 423d 85d0 893d
00000150: ac8a a83d 55dc 803d 737e ce3c 5713 aa3d
00000160: e4ce 273d cdbc 1d3d 919b 31bd 7afb 97bd
00000170: 3730 e3bc b99b aabd b577 4ebd 9b10 ddbd
00000180: 8a1d f8bd 2b92 f3bd f06e bebc 1ee3 97bd
00000190: 2a48 f2bd bb78 89bd c0f2 cfbd fb6d 5fbd
000001a0: 986f 00be 44a5 4dbd 4431 183b 8aaa 82bc
000001b0: c27c c3bd d1e8 8abd 724c 7dbd d55f 76bd
000001c0: b346 5dbd 0a59 71bd ec06 25bc f33a 1fbd
000001d0: 89ae b3bd a17a bfbc 97d7 dcbb 9859 633c
000001e0: cbb7 dbbc 6dac 9dbd ee77 f3bc 0af5 4b3b
000001f0: addb 6dbd fec1 b53c 6a40 15bc 5ddc adbd
00000200: 024a efbd 9c61 f0bd ade2 c4bc 1b7e 82bd
00000210: 825c a9bd 2d1d bdbd c931 f7bd f6b2 f63b
00000220: 6cba 93bd e3dc 95bd c4c4 8ebd 9cfd 9fbd
00000230: 0875 2ebc 8f84 a4bd 133d cbbd 7ba7 31bd
00000240: 23d6 b43d 27f8 f33c 7de5 993d fb61 c83c
00000250: d9df 273d e676 9c3c 0c16 9c3d 717f 153d
00000260: c5e8 853d 8c2b 3c3c cb8e ad3d d1cd 443d
00000270: 83b8 33ba f11d e53b 04b3 363d 559b 6c3d
00000280: ba3f ad3d dea4 983d 3250 5abc 36b6 eb3c
00000290: c4ef 2237 7451 ae3c 7266 7abd 6f00 00bd
000002a0: 90f8 a13c a0c8 c5bc 23b6 44bd 333c a53d
000002b0: b710 923c 7910 e23c 6d47 853a 4d99 d53d
000002c0: 2559 bb3c 6d3f 443d ace6 463d d604 433d
000002d0: 3fe7 153d 7d43 773d 49de d839 eda5 12bc
000002e0: 9dee 1d3c 379e 85bc c6fe 023b 6f80 293d
000002f0: 271c 2cbd db8f a6bd 9d99 a1bd 536b bdbd
00000300: 3115 1ebd 63b4 bfbd 77b5 0cbd a584 f4bd
00000310: ada4 9ebd 5a34 e6bc f959 d0bc 7fa5 02bc
00000320: d609 ea3c 0adf e0bc 464d b8bc a3a9 a9bd
00000330: 8bf9 bbbc 7577 7bbc 5573 07bc 78c4 76bd
00000340: 716b c8bd e960 71bd 91d5 c3bc 0055 1fbd
00000350: 9042 3fbd df8d 0ebd 91ea 33bd fcf1 aebc
00000360: 7b41 e1bd af73 62bd f2db d5bd 83a8 89bd
00000370: 8c37 25bd 5770 5dbd 0343 4ebd f970 06bc
00000380: 091e d9bc ba2d f93c 7f1f 863d 3b70 833d
00000390: 2a74 e63c 0111 423d 707f 193d 0f6c 8bbc
000003a0: ff00 ad3c 85b8 d43b 3db8 b43b 7000 703c
000003b0: 0ae1 563d c101 b73d e39a c93c fdc3 923b
000003c0: 7948 3a3d 8669 5b3d 4bad af3d aa0c dfbd
000003d0: 3f76 40bd 2057 d5bd 3923 b3bd b814 c7bd
000003e0: 8ad1 63bd d949 25bd 4c5e 10bd 421e c8bd
000003f0: 37fc a53c 235c e93c a1ad 0fbd 1aa1 3ebd
-0.10297488 0.0058351182 -0.012028097 -0.033382047 -0.02386388 -0.04193977 -0.109036684 -0.008944228
-0.02527862 0.020628992 0.0031783115 0.085635535 0.082496166 0.056344755 0.09529299 0.005575825
0.06655098 0.0075697075 0.1218181 0.10443328 0.082815275 0.02597862 0.07279379 0.10188434
0.07919434 0.083763584 0.008863782 -0.047634453 -0.09606153 -0.071445584 -0.024243474 -0.05690313
-0.09312735 -0.03518744 -0.082441 -0.045284577 -0.047829792 -0.04619101 -0.0706717 -0.012543437
0.019217374 -0.012433475 -0.031757865 -0.018997772 -0.08924416 0.06430899 0.064800635 0.11570082
0.04129562 0.031550724 0.11011954 0.06479744 0.10267799 0.046874754 -0.028930169 -0.062119085
-0.015014516 0.0328662 -0.053896967 -0.09321703 -0.030034244 -0.043394197 -0.005660741 0.063505985
0.024464795 0.03605312 0.062474437 -0.013677902 -0.03482971 0.010324228 0.050522268 -0.007062342
-0.057798486 -0.0021983618 -0.0540763 0.027485153 0.019932881 0.025633324 -0.0037400026 0.016034955
-0.047084343 0.04427258 0.047441516 0.06729225 0.082295746 0.06292025 0.02520678 0.0830447
0.04096879 0.038510133 -0.04336125 -0.07421012 -0.027732952 -0.08330483 -0.05040713 -0.10794183
-0.12115009 -0.11893114 -0.023246258 -0.07416366 -0.118301705 -0.06712481 -0.10153723 -0.054548245
-0.1254257 -0.050206438 0.0023222724 -0.01595046 -0.0954528 -0.067826875 -0.061840482 -0.060149986
-0.054022502 -0.058922805 -0.010072451 -0.038874578 -0.08773524 -0.023373904 -0.0067395675 0.013876341
-0.026821038 -0.07698903 -0.029720273 0.0031121396 -0.058070827 0.02218723 -0.009109596 -0.084892966
-0.11684038 -0.117373675 -0.024033869 -0.06371709 -0.082695976 -0.092340805 -0.12070043 0.007528658
-0.072132915 -0.073175214 -0.06971124 -0.07812044 -0.01064802 -0.08033096 -0.09923758 -0.043372612
0.08829906 0.029781414 0.075144745 0.024460783 0.040984962 0.019099664 0.076213926 0.03649849
0.06538538 0.011484992 0.08474501 0.048047844 -0.00068558025 0.0069920947 0.044604316 0.057765324
0.084594205 0.07453321 -0.013324784 0.028773408 9.711777e-06 0.021279074 -0.061132856 -0.031250414
0.019771844 -0.024143517 -0.04802526 0.08068123 0.017830236 0.027595745 0.0010168381 0.104296304
0.022869656 0.04791205 0.04855983 0.047612034 0.036597487 0.060367096 0.00041364346 -0.008950693
0.009639409 -0.016310794 0.0019988283 0.04138225 -0.042019036 -0.08132907 -0.078906275 -0.09248986
-0.03859443 -0.09360578 -0.034352746 -0.119393624 -0.07746253 -0.028101135 -0.025433527 -0.007974028
0.028569143 -0.027450103 -0.022497784 -0.08284309 -0.02294614 -0.015348305 -0.008267243 -0.06024596
-0.09786118 -0.05893031 -0.023905547 -0.03889942 -0.04669434 -0.034803268 -0.04392487 -0.021355622
-0.109988175 -0.055286106 -0.10442342 -0.06721594 -0.040336177 -0.054062214 -0.050356876 -0.008205646
-0.02650358 0.030417312 0.06548976 0.06417891 0.028131563 0.047379497 0.03747505 -0.0170193
0.021118639 0.006491723 0.005515127 0.014648542 0.052460708 0.089358814 0.024609989 0.00447893
0.04547927 0.053567432 0.08577975 -0.10891087 -0.04698777 -0.104170084 -0.087469526 -0.09720749
-0.055619754 -0.04035363 -0.03524618 -0.09771396 0.020261867 0.028486317 -0.035077695 -0.046540357

cnn_layers_max_2.0.bias f4 [32]
00000000: 25f4 01be 547a 5fbd 82d6 00be f693 ac3b
00000010: ba9d 05be e12f 6cbc 025d 3bbe bc87 96be
00000020: a2b5 edbd e264 9dbd c29d 8bbe 97de e7bc
00000030: 6e01 ad3d 2561 1fbe dab2 563d 4e96 b4be
00000040: cdff 1dbe 66af a4bd 0420 e1bd 0715 1ebd
00000050: f804 a4bd 6fca 39be 4293 edbd 32f5 ebbd
00000060: 5ebc 23be a23e b0bd 40a5 59be 8aa2 95bd
00000070: e21f 8cbd c6cc c2bd 4d7a 5cbd 4ee4 a3bd
-0.1269079 -0.05456002 -0.12581828 0.0052666618 -0.13048449 -0.014415712 -0.18297198 -0.29400432
-0.11606909 -0.076852575 -0.27268797 -0.028304381 0.08447538 -0.15564401 0.05241666 -0.35270923
-0.15429612 -0.08041267 -0.109924346 -0.038594272 -0.0800876 -0.18143629 -0.11600353 -0.11521377
-0.15989825 -0.08605696 -0.21254444 -0.073063925 -0.06842019 -0.09511714 -0.053827573 -0.0800253

cnn_layers_max_2.1.weight f4 [32]
00000000: f69b 5b3f 8fd0 693f b9b2 633f d485 653f
00000010: 0b57 623f 5206 533f 4293 5f3f 3e58 5d3f
00000020: 3aff 693f 59a3 5b3f b7c1 5e3f 52a8 5e3f
00000030: faac 653f 525f 633f 9a93 653f aba8 5e3f
00000040: 26b8 573f 049a 593f d6eb 603f 78d2 5b3f
00000050: 1c25 5c3f a624 643f d10a 623f 7bb4 5a3f
00000060: e1ef 523f ba66 5f3f e75d 5f3f ca40 563f
00000070: b3ef 5a3f 14d9 583f c5f9 543f 9dcd 613f
0.8578485 0.9133386 0.88944584 0.8965733 0.8841407 0.8243152 0.8733407 0.8646277
0.9140507 0.85796124 0.87014335 0.86975586 0.89717066 0.8881732 0.8967835 0.86976117
0.84265363 0.85000634 0.8785986 0.85868025 0.85994124 0.8911842 0.88297755 0.8543164
0.82397276 0.87266123 0.8725266 0.8369261 0.85522 0.84706235 0.8319362 0.88204366

cnn_layers_max_2.1.bias f4 [32]
00000000: ee28 06be 2d96 cfbd b108 e9bd 57ae e7bd
00000010: 722b 0cbe 1739 1dbe 641d 11be e2de 0dbe
00000020: 9fb0 e5bd 8579 e0bd 7468 f6bd f73e dbbd
00000030: 0ee8 f0bd fb0d e8bd 6eac b7bd aad6 2ebe
00000040: 6a90 46be 503a 08be bcf0 14be 8ff8 cfbd
00000050: 937a 0dbe 1752 e6bd 3256 0fbe 3dbb 14be
00000060: 7822 3bbe 5773 15be cc59 18be 42e4 16be
00000070: 45de 02be 99bb e8bd fa0b 2bbe 6aae febd
-0.13101551 -0.10136066 -0.11378611 -0.113125496 -0.13688448 -0.1535381 -0.14171368 -0.13854554
-0.112153284 -0.10960678 -0.120316416 -0.10705369 -0.11763011 -0.113307916 -0.08968435 -0.17074075
-0.19391027 -0.13303494 -0.14544958 -0.10154831 -0.1381629 -0.11246126 -0.13997725 -0.1452455
-0.18274868 -0.1459478 -0.14878005 -0.14735511 -0.12780102 -0.113639064 -0.16703787 -0.124356106

cnn_layers_max_2.1.running_mean f4 [32]
00000000: d3cd 95be fe63 94c0 cf63 dabe 45b8 f5bf
00000010: c4a8 6c40 5e2a 3640 92fe 7fc0 3eb8 4a40
00000020: d56d e53f 1697 79be d1e2 c8bf 16a9 ef3f
00000030: 7a1d 2cc0 b445 53bf d6fd 1b40 8f8f 1cc0
00000040: 2366 63bf 1f56 293f 691a 7ac0 5edd 283d
00000050: 5d87 05c0 203b a6be 1861 84c0 ef69 8240
00000060: f32f 0a40 d301 38c0 e5f1 4ac0 e046 4640
00000070: 0aa3 7c40 8634 8340 f889 3440 3ab4 7540
-0.29258594 -4.637206 -0.42654273 -1.919686 3.6978006 2.846336 -3.9999127 3.1674953
1.7924143 -0.24374041 -1.5694219 1.8723476 -2.689299 -0.82528234 2.437368 -2.4462621
-0.88827723 0.66147035 -3.907862 0.041226737 -2.086387 -0.32466984 -4.1368523 4.0754313
2.1591766 -2.8751113 -3.171014 3.0980759 3.947451 4.1001616 2.820921 3.8391252

cnn_layers_max_2.1.running_var f4 [32]
00000000: 8aa4 8841 fa16 bd41 78cf b641 4aaf 1242
00000010: 208e 2142 c68a 0542 eee3 1d41 4891 8b41
00000020: 9f60 3f42 e882 0242 bc9b f941 a71b d341
00000030: f412 2542 57b5 d441 10b3 d241 dd5d c541
00000040: f667 9140 e661 f241 e3f5 5841 6b2a d241
00000050: 5bd5 bc41 702a 0242 91f0 ea41 e8f2 3041
00000060: b70f 9241 9d82 c241 e4fb ab41 4371 a341
00000070: d590 7841 5fd3 5741 a5ce e041 f527 8a41
17.080341 23.636219 22.851303 36.67118 40.388794 33.38552 9.868147 17.445938
47.844357 32.62784 31.201042 26.388502 41.26851 26.588545 26.337433 24.670832
4.5439405 30.297802 13.560031 26.270712 23.604177 32.541443 29.367464 11.059303
18.257673 24.313776 21.497993 20.430304 15.535359 13.489104 28.1009 17.26951

linear_layers.0.weight f4 [2, 28800]
00000000: bf28 f5bb 8f5a adbb ec97 43ba e92a aeba
00000010: 1ca8 a0bc 4002 18bd b732 fabc 9b5c afbc
00000020: a70a a6bc c15b bcbc 4927 88bc 2167 b5bb
00000030: 8f25 c93b 32db 363c 780f 933c 1f66 bb3c
00000040: 6d92 703c fc44 b63b df2a a33b 1548 9e3b
00000050: 9c04 8dbb e214 cabc d0ae ccbc 6bdf ebbc
00000060: 41dd aebc 8e82 f2bc 91e9 fcbc 0075 58bc
00000070: 5129 a0bc d248 c9bc d70c 413c d5d5 f7ba
00000080: f8da 87bb 0567 14bc ab99 4abc 8331 acbc
00000090: cb60 d4bc 1978 45bc 1c10 56bb e478 c53b
000000a0: 2aa6 c43a 14d3 b03c 0e7b 833c 39ed 913c
000000b0: 508b 9d3c 9fe5 b13c 2795 be3c dd2c 0e3c
000000c0: be56 843c 0252 1b3c 22f0 b53b 57c2 7c37
000000d0: d78f 13bc f307 76bc 262d aebc 0296 dabc
000000e0: 1471 d9bc 3427 cfbc 485a 62bc ed8f 90bc
000000f0: a9f8 4d3c ddde 1c3b de1c ca3b 9c53 8cbb
00000100: 0df0 2abc db5d 04bd 98ed c6bc 49d1 72bc
00000110: 1cf6 03bc 8eef 1e3c 622d a93b e5a7 2c3c
00000120: 3534 723c 612e 593c 43bd 903a e106 663c
00000130: 7357 f63b b738 853c e35b 073c fb24 2d3c
00000140: d8fb 383c 849f 623c 7c38 c3b9 7a86 45bc
00000150: 48a1 c6bc 655a b4bc cfd6 b1bc 0252 fbbc
00000160: a184 92bc a4cb 3cbc cb77 e33a 9c1c 41bc
00000170: 0d7b fbba f3be 8dbc 5943 91bc 9a1d a2bc
00000180: 91d6 8abb a3c4 35bb d28e 133c 7b2e 923b
00000190: 768b e43b af1f 133c 6a63 a23b 0909 e63a
000001a0: 2773 483b 56a9 caba 075f 143c b32c 963b
000001b0: aadc 89bb 48e7 0a3c c441 b23b 3731 7c3b
000001c0: e359 c53b 7175 12bc 0ebb 62bc 0d2f 8ebc
000001d0: 4bd3 0dbd 695f eebc f1ef a2bc 1d85 3cbc
000001e0: d27b 0fbb e6b3 bebb be10 53bc ce3b 61bc
000001f0: 8dd3 8cbc 2dbd 0dbc 5b7a a43b 9ef2 153c
00000200: 628d ee3b 8c47 3fbb df16 1d3c 3d45 10bb
00000210: f77b 43bc 4df6 07bc 987e d4bb 98c1 f0bb
00000220: 89ed 833a 2192 b6bb 1b4a 58bb 817b 47ba
00000230: 14ca 293c ade9 993c 9d39 b63b 156f 973b
00000240: cc92 b63b f9f6 4dbc eea9 13bd 68ce dbbc
00000250: d50c bdbc 1a3e 86bc d23f 88bb 1b94 5dbc
00000260: d5da 82bc 3ef4 69bc 2991 50bc d30c d9ba
00000270: 3b14 e83b 7433 2e3c ede0 a6bb f466 1dbc
00000280: 4d9b d1bb 0e35 8abc d475 bebc 19ec dabc
00000290: 6d0c 94bc 8330 b6bb 6468 523a ab00 563b
000002a0: 84de 193c eb84 b43b b7eb 1d3c 5b91 0f3c
000002b0: a345 753c dfc2 d53b 471a d039 74ae 3cbc
000002c0: 4143 c4bc da6d cfbc 5d7d c9bc 1fde a3bc
000002d0: 3d60 62bb c809 3ebc 17c9 8bbc 9f22 93bc
000002e0: 6f30 2abc 4048 bf3b e5a5 7b3c 3380 e13a
000002f0: 26ae 69bc 70b1 98bc 601b e4bc fee1 38bd
00000300: 16cf b4bc 68da f3bc 5f60 13bd 0af0 c1bc
00000310: 1c3d 19bc a1f0 5dbc eb3f 4c3b c14b 283c
00000320: d954 a73b 4e9f ce3b 4d2b af3c 0761 e23c
00000330: a65b 783c 0c26 0bbd c9d4 56bc e63c cebc
00000340: 9366 81bc 1b15 99bc 95ac a8bb 1799 dbbb
00000350: 3f34 16bc 448e e03b 243f 153b 2d6d 923c
00000360: e044 8c3c 8b4d 313c cf47 27bc 72bd aabc
00000370: 3bfe adbb 5ecd 33bd 54e1 fbbc 29b6 86bd
00000380: ddec 2abd e168 19bd 707a d0bc ade1 66bc
00000390: 4a56 273a 3314 dd3b 32c9 fd3b 830d de3b
000003a0: f0a8 bf3c dbce b73c 5ace 8f3c c651 fbbc
000003b0: 722a 1ebc de45 adbc 9a8f 84bc d7de 1fbc
000003c0: fe96 d3bb c359 fcbb 558a f13b 7d88 2b3c
000003d0: 323e 8e3c 11f1 563c 2f31 903c 2a85 ac3b
000003e0: d628 a1bb c457 09bc 9be2 f5bc 0f10 80bc
000003f0: ec2d 23bd 5871 b6bc 8714 ccbc 6ec6 56bd
-0.007481664 -0.0052903364 -0.0007461298 -0.0013287935 -0.01961141 -0.03711152 -0.03054176 -0.021406462
-0.020268751 -0.02299297 -0.016620295 -0.0055359756 0.0061385105 0.011160659 0.017951712 0.022875844
0.014683348 0.005562423 0.004979476 0.00483037 -0.004303528 -0.02466816 -0.0249857 -0.028793057
-0.021345736 -0.029603269 -0.030873092 -0.013211489 -0.019550951 -0.024570856 0.011782846 -0.0018908331
-0.004145976 -0.009057765 -0.012365739 -0.021019703 -0.02592506 -0.012052559 -0.003266341 0.006026374
0.0015003134 0.021585025 0.016049888 0.017813312 0.019231468 0.021715937 0.02326448 0.008677688
0.016154643 0.009480001 0.0055523077 1.5065619e-05 -0.009006462 -0.015016544 -0.021261763 -0.026682857
-0.026543178 -0.025287248 -0.01381547 -0.017646754 0.012571492 0.0023936548 0.006167992 -0.004282428
-0.010433209 -0.03231607 -0.024283215 -0.014820405 -0.0080542825 0.009700669 0.0051628808 0.010538076
0.014782955 0.0132556865 0.0011042733 0.014039726 0.007517749 0.016262395 0.008261654 0.010567899
0.011290513 0.013831977 -0.00037235382 -0.0120559875 -0.024246827 -0.02201576 -0.021708874 -0.030678753
-0.017885508 -0.011523161 0.0017354427 -0.011786606 -0.0019186452 -0.017302966 -0.01773231 -0.019789506
-0.004237004 -0.0027735613 0.009006219 0.0044611073 0.006974633 0.008979722 0.0049556987 0.00175503
0.0030586214 -0.0015461843 0.009055859 0.0045829653 -0.0042072134 0.008477993 0.005439969 0.0038481483
0.006022678 -0.008939133 -0.013838543 -0.01735642 -0.034625333 -0.02909823 -0.019889804 -0.011506346
-0.002189387 -0.0058197854 -0.01288241 -0.013747169 -0.017190719 -0.00865106 0.0050194687 0.009152083
0.0072800377 -0.0029186932 0.009587972 -0.0022013925 -0.011931411 -0.008298469 -0.0064848177 -0.007347297
0.0010065298 -0.005571619 -0.0033003155 -0.0007609651 0.010363121 0.018788183 0.0055610673 0.0046213963
0.005571699 -0.01257109 -0.03605073 -0.02683182 -0.023077408 -0.016387034 -0.0041579986 -0.013524081
-0.015973488 -0.014279423 -0.012729921 -0.0016559608 0.00708249 0.010632385 -0.005092731 -0.0096070655
-0.006396687 -0.016871002 -0.023249544 -0.026723908 -0.018072331 -0.0055599823 0.00080264197 0.0032654207
0.009391431 0.005509009 0.009638718 0.008762683 0.014970216 0.0065234746 0.0003969243 -0.011516202
-0.02395785 -0.025320936 -0.02459591 -0.020003377 -0.0034542226 -0.011599012 -0.01706366 -0.017960845
-0.010387524 0.0058374703 0.015359377 0.0017204344 -0.014262712 -0.018639296 -0.027845085 -0.045137398
-0.022071403 -0.02976723 -0.03598058 -0.02367403 -0.0093529485 -0.01354614 0.0031166028 0.010271967
0.00510655 0.0063056117 0.021382952 0.027634157 0.015158569 -0.03397183 -0.013112255 -0.025175523
-0.015795982 -0.018686822 -0.0051475265 -0.0067015993 -0.00916773 0.006852897 0.002277323 0.017874325
0.017122686 0.01082171 -0.010209992 -0.020842288 -0.0053098476 -0.043897025 -0.030747093 -0.06577713
-0.041729797 -0.037453536 -0.025449008 -0.014091891 0.00063834025 0.0067467927 0.0077449316 0.006776513
0.023395985 0.022437504 0.01755445 -0.030678641 -0.009653674 -0.02115148 -0.016181756 -0.009757719
-0.0064572087 -0.00770113 0.007371227 0.010469553 0.017363641 0.013118998 0.017601578 0.005264898
-0.004918198 -0.008382741 -0.03001528 -0.015632657 -0.039838716 -0.022270843 -0.024912132 -0.05243533

linear_layers.0.bias f4 [2]
00000000: 212a 8239 55b5 243c
0.0002482692 0.010052999
