model/model_archive/mask.pt (torch, 110590 bytes, 20 tensors)

cnn_layers_max.0.weight f4 [32, 1, 3, 3]
0	0x3dea627a	0.11444564
1	0x3e3de74d	0.18545265
2	0x3dfeea59	0.12447042
3	0xbd33b33c	-0.043872103
4	0xbeb09829	-0.3449109
5	0xbec6905a	-0.38782007
6	0xbe8d655c	-0.27616394
7	0xbec44971	-0.3833728
8	0xbd858c4c	-0.065209
9	0x3e27d3e7	0.16389428
10	0xbbfd3202	-0.0077269087
11	0x3c33a77b	0.010965223
12	0x3e1b3a70	0.15159011
13	0xbe573fbd	-0.21020408
14	0xbeba8a9b	-0.36433873
15	0xbef20d96	-0.4727599
16	0xbecb65db	-0.39726147
17	0x3d83b585	0.064311065
18	0xbe982d74	-0.29722178
19	0xbce5ec7d	-0.028066868
20	0xbec1edf5	-0.3787686
21	0xbd7402cc	-0.05957298
22	0xbe2a2f82	-0.16619685
23	0x3df72e2a	0.12069352
24	0xbe4a581f	-0.19760178
25	0x3e4a90b7	0.19781767
26	0xbea372f7	-0.3192365
27	0xbebaf021	-0.3651133
28	0xbe991ba1	-0.29903892
29	0x3e46a0dc	0.193973
30	0xbd867dec	-0.065669864
31	0x3e50a730	0.20376277
32	0xbe78559c	-0.24251407
33	0xbe5bb6c1	-0.21456434
34	0x3e04be12	0.12963131
35	0xbe85323e	-0.26014894
36	0x3e66e34d	0.22547646
37	0xbea9adab	-0.3314031
38	0x3e1ac699	0.15114821
39	0xbe54edbe	-0.20793816
40	0xbd5ce9be	-0.05393385
41	0xbe6f4776	-0.23367104
42	0x3e2451af	0.16046785
43	0xbe52dc90	-0.2059195
44	0xbe92cb87	-0.28670904
45	0xbd307bec	-0.04308693
46	0xbe807899	-0.2509201
47	0xbe560638	-0.2090081
48	0x3dc5e290	0.09662354
49	0x3d19780d	0.037468005
50	0xbcc57a4c	-0.024106167
51	0xbe7624a3	-0.24037413
52	0xbe4a7b6f	-0.19773649
53	0xbe3f8542	-0.18703178
54	0x3bfcc63e	0.007714062
55	0xbf01f3d4	-0.5076268
56	0xbd8f754c	-0.070047945
57	0xbb96db05	-0.004603746
58	0xbe381f28	-0.17980635
59	0xbeb09e14	-0.34495604
60	0xbeaae9ff	-0.3338165
61	0xbdc86ca1	-0.09786344
62	0x3cf834aa	0.03029855
63	0x3e91580f	0.28387496
64	0x3e82e5e1	0.2556601
65	0x3ed0a43e	0.40750307
66	0x3e8df6f6	0.2772748
67	0xbe684f94	-0.22686607
68	0xbe832d32	-0.2562042
69	0xbe81826c	-0.25294816
70	0x3e1350b4	0.14386255
71	0x3df59a7b	0.119923554
72	0x3dc04011	0.0938722
73	0x3c74ca22	0.01494077
74	0x3dc9cdcd	0.098537065
75	0xbebd5c86	-0.36984652
76	0x3d8d9db7	0.06914847
77	0xbef6162b	-0.48063788
78	0xbe25a217	-0.16175114
79	0xbecf7348	-0.4051764
80	0xbea905d3	-0.33012256
81	0xbe656f88	-0.22405827
82	0xbe5226fc	-0.20522684
83	0x3e535c0c	0.20640582
84	0x3e4ea929	0.20181717
85	0x3da15119	0.07876796
86	0xbed2ca43	-0.41169938
87	0xbdd80128	-0.105470955
88	0xbeb2e835	-0.34942785
89	0x3e8b49ad	0.27204648
90	0x3e499293	0.1968482
91	0x3e986ccc	0.29770505
92	0xbe6e67e8	-0.23281825
93	0x3da1e2ab	0.079045616
94	0xbe686a5c	-0.22696823
95	0xbe0394e2	-0.12849763
96	0x3e1ce77b	0.15322678
97	0x3e95148c	0.2911724
98	0x3da610d6	0.0810868
99	0xbb5b1ece	-0.003343511
100	0x3d9945ae	0.074839935
101	0xbee737fd	-0.45159903
102	0x3caf6729	0.021411495
103	0x3e6310b5	0.22174342
104	0xbeacafb8	-0.33727813
105	0xbe1b558a	-0.1516935
106	0xbe486b66	-0.19572219
107	0xbdba5db4	-0.09099904
108	0x3e2a0312	0.16602734
109	0x3d492d6a	0.049115576
110	0xbe3da3ac	-0.18519467
111	0x3e4e818a	0.20166603
112	0x3eb440ad	0.35205594
113	0x3df0ccb7	0.11757796
114	0xbe94ba1f	-0.2904825
115	0xbd011bc8	-0.031520635
116	0xbe33d7d8	-0.17562807
117	0x3eb0d83a	0.34539968
118	0xbd73f3ea	-0.059558786
119	0xbc8cbe1d	-0.017180497
120	0x3b35b2b1	0.0027724917
121	0xbe998a4d	-0.29988328
122	0x3ea6636a	0.32497722
123	0x3db924f0	0.090402484
124	0x3ec36e7d	0.38170233
125	0xbd106289	-0.03525022
126	0x3e01b038	0.12664878
127	0x3eae5b5e	0.34054083
128	0xbe11c255	-0.14234288
129	0x3eb0e85c	0.34552276
130	0x3ec8bbf7	0.39205906
131	0xbe65b80e	-0.22433493
132	0x3e48f153	0.19623308
133	0x3ddce724	0.10786274
134	0x3e4f5c9f	0.20250176
135	0x3e770585	0.241232
136	0xbe888106	-0.26660937
137	0x3e15337b	0.1457042
138	0xbf0c1dc3	-0.5473291
139	0xbe0a8ec4	-0.13531023
140	0x3a829f90	0.0009965766
141	0x3ec40cfe	0.38291162
142	0x3e59936f	0.21247648
143	0x3e49918f	0.19684432
144	0xbe9243a6	-0.28567237
145	0xbd8a0321	-0.06738878
146	0xbdfaeb43	-0.12251904
147	0xbd2076be	-0.03917574
148	0xbe65a94f	-0.22427867
149	0xbc3dd6af	-0.011586829
150	0xbe006ded	-0.12541933
151	0xbdf0009a	-0.11718865
152	0xbe8c2fa5	-0.273801
153	0xbe9f3601	-0.3109589
154	0x3e4d549f	0.20051812
155	0x3dfe6e10	0.124233365
156	0x3ea0c6a8	0.31401563
157	0x3ead7d8d	0.3388485
158	0xbbae9f46	-0.0053290455
159	0xbd6c0b48	-0.057627946
160	0xbe488c63	-0.19584803
161	0xbd837d4e	-0.06420384
162	0x3da2b1c8	0.07944065
163	0xbefa2fa6	-0.48864478
164	0x3d668a16	0.056284033
165	0xbeedc450	-0.46438837
166	0xbda299c6	-0.07939486
167	0xbeb8d09e	-0.36096662
168	0x3c81707c	0.015800707
169	0xbe865490	-0.2623639
170	0xbd9bc1fd	-0.0760536
171	0xbe778f82	-0.24175838
172	0xbf04494c	-0.5167434
173	0x3c4f20ed	0.012642127
174	0x3dcbca96	0.099507496
175	0xbe9314b2	-0.28726727
176	0xbe63f3e6	-0.22261009
177	0xbdc0999f	-0.09404301
178	0xbeeaf822	-0.45892435
179	0xbc9fdab6	-0.01951347
180	0x3df3e1a1	0.1190827
181	0xbece3b85	-0.40279785
182	0xbe069eaf	-0.1314647
183	0x3e485955	0.19565327
184	0x3e7822dc	0.24232048
185	0x3ea10aa3	0.31453428
186	0xbe0f0440	-0.13966465
187	0xbe369766	-0.17831191
188	0x3e323657	0.17403542
189	0xbee614f0	-0.4493785
190	0xbd2abe40	-0.041685343
191	0xbf05b2f7	-0.52226204
192	0xbe0d969a	-0.13826981
193	0xbe53de1a	-0.20690194
194	0x3da16091	0.07879747
195	0x3d880650	0.06641829
196	0x3d6d5dac	0.05795066
197	0xbb60be3b	-0.0034293074
198	0xbecb5997	-0.3971679
199	0xbe8e5a3b	-0.27803215
200	0xbf0b51ce	-0.544217
201	0xbe95cdce	-0.2925858
202	0xbe1178f7	-0.142063
203	0xbe195073	-0.14972095
204	0xbece1b60	-0.4025526
205	0x3e44a206	0.19202432
206	0xbdd7a833	-0.10530128
207	0x3e8bde3e	0.27317995
208	0x3e403fb4	0.18774301
209	0xbe210b74	-0.15727025
210	0xbe95e2ac	-0.292745
211	0xbea98bb1	-0.3311439
212	0x3de46860	0.111527205
213	0x3e36ca0d	0.17850514
214	0x3e52a4e0	0.20570707
215	0x3d942b3d	0.072348095
216	0x3cda3462	0.026636306
217	0x3e38feac	0.180659
218	0xbd3f7803	-0.04674531
219	0xbe9095c4	-0.28239262
220	0xbe789b3c	-0.24277967
221	0xbe0e9c8a	-0.13926902
222	0xbba63c26	-0.005073088
223	0x3d6f593d	0.058434714
224	0xbd215c71	-0.0393948
225	0xbe036524	-0.12831551
226	0xbd70f230	-0.058824718
227	0xbdff649f	-0.12470364
228	0xbe12f196	-0.1434997
229	0x3e7bf130	0.24603724
230	0xbca663df	-0.020311294
231	0x3d8fc097	0.070191555
232	0x3d368a37	0.044565406
233	0xbebba8bd	-0.36652175
234	0xbe8f0e7d	-0.2794074
235	0x3d1e3a3e	0.038629763
236	0xbe921190	-0.28529024
237	0xbcb096e8	-0.021556333
238	0xbe4db854	-0.20089847
239	0xbe1f95a3	-0.15584426
240	0xbe537200	-0.20648956
241	0xbdbd7c36	-0.09252207
242	0xbe48240f	-0.19545005
243	0xbdd09194	-0.10184017
244	0x3e1a2288	0.15052235
245	0xbed0a2b2	-0.40749127
246	0xbd1453e2	-0.03621281
247	0x3e20909b	0.15680163
248	0xbe6209f3	-0.22074108
249	0x3daf7ffb	0.08569332
250	0xbd6b6180	-0.05746603
251	0xbde75018	-0.112945735
252	0xbdff966c	-0.124798626
253	0x3e1729b6	0.14762005
254	0xbe81074e	-0.25200886
255	0x3e041451	0.12898375

cnn_layers_max.0.bias f4 [32]
0	0xbdfd2536	-0.12360613
1	0xbe020098	-0.12695539
2	0x3d4a839e	0.049441926
3	0x3dd0999f	0.10185551
4	0x3e26bca0	0.16282892
5	0x3e298e25	0.1655813
6	0xbdd601eb	-0.104495846
7	0xbd934a3e	-0.07191895
8	0xbe68c87c	-0.22732729
9	0xbcdf447f	-0.027254341
10	0xbd5ec433	-0.05438633
11	0x3e27d311	0.16389109
12	0xbd2f7b14	-0.042841986
13	0xbd58f90f	-0.052971896
14	0xbd941726	-0.07230978
15	0xbcbc4085	-0.022979984
16	0x3e453d1f	0.19261597
17	0xbd2e34d8	-0.042530864
18	0xbdfadd5c	-0.12249252
19	0xbdc6169f	-0.096722834
20	0xbcebc849	-0.028782027
21	0xbd8d16ff	-0.06889152
22	0xbcdbcae2	-0.02683014
23	0xbcc987ec	-0.024600945
24	0xbd59c1db	-0.05316339
25	0x3d5ff6ba	0.054678656
26	0x3e471c44	0.19444376
27	0x3d3ab34c	0.045581147
28	0xbe3bd89d	-0.1834435
29	0x3e150e97	0.14556347
30	0xbd7d1d5e	-0.061795585
31	0xbd867f87	-0.06567293

cnn_layers_max.1.weight f4 [32]
0	0x3f3a8477	0.72858375
1	0x3f70b4b4	0.9402573
2	0x3f0afc71	0.54291445
3	0x3f43a587	0.7642445
4	0x3f336293	0.7007229
5	0x3f445363	0.7668974
6	0x3f4870f0	0.7829733
7	0x3f8b156b	1.0865911
8	0x3f3233f8	0.6961055
9	0x3f04bf40	0.51854324
10	0x3f55420a	0.8330389
11	0x3f5aa9c5	0.854153
12	0x3f6f2aa2	0.9342443
13	0x3f807077	1.0034322
14	0x3f824f0f	1.0180377
15	0x3f84df18	1.0380583
16	0x3f46e436	0.7769197
17	0x3f5867d0	0.84533405
18	0x3f70b859	0.9403129
19	0x3f66575f	0.8997707
20	0x3f81983a	1.0124581
21	0x3f4b68a0	0.7945652
22	0x3f623c9d	0.8837374
23	0x3f855e03	1.0419315
24	0x3f6a1569	0.9143892
25	0x3f31e9f1	0.6949759
26	0x3f535cf7	0.8256373
27	0x3f0fc2e4	0.56156754
28	0x3f2e9adb	0.6820504
29	0x3f20178e	0.6253594
30	0x3f76a6b6	0.9634813
31	0x3f80bdbf	1.0057906

cnn_layers_max.1.bias f4 [32]
0	0xbe06ce28	-0.1316458
1	0xbe060d52	-0.13091019
2	0x3c37c40f	0.011216178
3	0xbcbd0366	-0.02307291
4	0x3de93982	0.11387922
5	0x3ddcfe3c	0.10790679
6	0xbd358be4	-0.044322863
7	0xbe02aee8	-0.12762034
8	0xbe3ac795	-0.18240197
9	0xbe0f63b2	-0.14002874
10	0xbe17d7b7	-0.14828382
11	0x3e0219fa	0.12705222
12	0xbe1a4665	-0.15065916
13	0xbe04551d	-0.12923093
14	0xbe0aeabe	-0.1356611
15	0xbdbd1135	-0.092317976
16	0x3e16f13d	0.14740463
17	0xbe25f1cc	-0.1620552
18	0xbd6a628d	-0.05722289
19	0xbdc06359	-0.09393949
20	0xbd44b866	-0.04802742
21	0xbe065a73	-0.13120441
22	0xbd96b232	-0.07358207
23	0xbd90dee8	-0.07073766
24	0xbdf740c0	-0.12072897
25	0x3d3ab3d8	0.04558167
26	0x3e07a43e	0.13246247
27	0x3abf267d	0.0014583614
28	0xbde04967	-0.109515004
29	0x3d817ce5	0.0632265
30	0xbe0875d8	-0.13326204
31	0xbe00d626	-0.12581691

cnn_layers_max.1.running_mean f4 [32]
0	0xbe9dc4a6	-0.30814093
1	0xbc54866a	-0.0129715
2	0xbeb7c01c	-0.35888755
3	0xbe2c2853	-0.16812257
4	0xbeb0f1f2	-0.3455959
5	0xbed9e98f	-0.42561004
6	0xbe74a2d9	-0.23890246
7	0x3ec31c38	0.38107467
8	0xbdcab9ac	-0.09898695
9	0xbd384842	-0.044990785
10	0x3e6fcc1b	0.23417704
11	0xbeebbf4e	-0.4604439
12	0x3e80b2ec	0.25136507
13	0x3e981023	0.2969981
14	0x3f0de254	0.55423474
15	0x3d08d8b0	0.033409774
16	0xbf14842c	-0.5801418
17	0x3e1305d1	0.14357688
18	0xbe75cbdd	-0.24003549
19	0xbec3d254	-0.38246405
20	0x3dbe93fc	0.093055695
21	0xbe43274f	-0.19057964
22	0xbee38167	-0.44434664
23	0x3dcff9ef	0.10155093
24	0x3d2e8e97	0.042616453
25	0xbe59fda4	-0.21288162
26	0xbf272600	-0.6529236
27	0xbe65e0d4	-0.22449046
28	0xbdca4974	-0.09877291
29	0xbebac55d	-0.364787
30	0x3e8d0393	0.2754179
31	0x3e71b691	0.236048

cnn_layers_max.1.running_var f4 [32]
0	0x3cf82115	0.030289212
1	0x3b22f621	0.0024865943
2	0x3d157b15	0.036494333
3	0x3c075d94	0.008262057
4	0x3d151906	0.036400817
5	0x3d554019	0.05206308
6	0x3c8db0d2	0.017296229
7	0x3d3247df	0.043525573
8	0x3bb9e206	0.005672696
9	0x3a7d95a6	0.00096734834
10	0x3c8d7560	0.017267883
11	0x3d7ce0ff	0.06173801
12	0x3ca82d40	0.02052939
13	0x3cd07160	0.025444686
14	0x3dbbc233	0.091679
15	0x3b099936	0.0020995862
16	0x3dc6e0f6	0.09710877
17	0x3be83a50	0.0070870295
18	0x3c9052c2	0.017617587
19	0x3d334f7b	0.04377697
20	0x3b63b21f	0.003474362
21	0x3c53cb44	0.01292688
22	0x3d68aafe	0.056803696
23	0x3b565574	0.0032704743
24	0x3a62e373	0.00086551084
25	0x3c54864a	0.01297147
26	0x3dfb3edd	0.122678496
27	0x3c765ce1	0.0150367925
28	0x3b659b5c	0.0035035228
29	0x3d207c74	0.039181188
30	0x3cd5b55d	0.026087457
31	0x3c932831	0.0179635

cnn_layers_avg.0.weight f4 [32, 32, 3, 3]
0	0x3c13c31d	0.009018687
1	0x3d2a0e0f	0.041517314
2	0x3ce7c294	0.028291024
3	0x3c2a7712	0.010404365
4	0xbc511b21	-0.012762816
5	0xba592b85	-0.0008284378
6	0x3d0b1fc7	0.033965852
7	0x3caee5bc	0.02134978
8	0x3b8692a0	0.0041068345
9	0x3dcceaec	0.10005745
10	0x3e051145	0.12994869
11	0x3d368e98	0.04456958
12	0x3cccccac	0.024999939
13	0x3cb38d86	0.02191807
14	0x3d8c3d05	0.06847576
15	0x3d17c529	0.03705326
16	0x3da27206	0.079319045
17	0x3cc68fb6	0.024238449
18	0x3bd2db2c	0.0064348187
19	0xbc314702	-0.010820152
20	0xbc580667	-0.01318512
21	0x3c85878e	0.01629999
22	0xbcb1e560	-0.02171582
23	0x3c6083bd	0.013703284
24	0x3ca68e4c	0.020331524
25	0x3c0cdbcc	0.0085973255
26	0xbcfd0e0e	-0.03089049
27	0x3d9224a8	0.07135898
28	0x3d73cf46	0.059523843
29	0x3cd98ac7	0.026555432
30	0x3c8970db	0.016777446
31	0x3d3d85ed	0.0462703
32	0xbbb1cdcb	-0.0054261438
33	0x3d999ea5	0.07500962
34	0x39d9f376	0.00041570858
35	0x3d817bba	0.06322427
36	0x3d720e1e	0.059095494
37	0x3c69d651	0.014272288
38	0x3d0dd9d4	0.034631565
39	0xbc20fc4f	-0.00982578
40	0xbb98086f	-0.0046396772
41	0xb95a863e	-0.00020840109
42	0x3c80d739	0.015727626
43	0x3918b52b	0.0001456334
44	0x3c0be3c7	0.008538193
45	0x3ca6f538	0.020380601
46	0xbd177b47	-0.0369828
47	0x3cd68d38	0.026190385
48	0x3c8eb43e	0.01741993
49	0xbcde52a5	-0.027139017
50	0x3b582c5d	0.0032985427
51	0x3cffe6e0	0.03123802
52	0x3ce656c1	0.02811754
53	0xbca19d34	-0.01972828
54	0x3d95c1dd	0.07312367
55	0x3dcd1d0b	0.10015305
56	0x3d9f8280	0.07788563
57	0x3d39eba2	0.045390733
58	0x3dcf9be0	0.10137153
59	0x3d5cf6ae	0.05394619
60	0x3d6e5310	0.058184683
61	0x3d05f81d	0.032707322
62	0x3d693418	0.056934446
63	0x3b97a802	0.0046281824
64	0xba0ba5d3	-0.0005327139
65	0x3c71fb6d	0.014769417
66	0xbd265d0f	-0.04061609
67	0x3c86f6ec	0.016475163
68	0xbcd2ed6d	-0.025747979
69	0xbd728943	-0.059212934
70	0xbc9e25d8	-0.019305155
71	0xbdc30556	-0.09522502
72	0x3d87dbf8	0.066337526
73	0x3ce06c32	0.027395342
74	0x3cc87a09	0.024472253
75	0x3ce8ca26	0.028416704
76	0xbbf599a6	-0.007495123
77	0x3d86177e	0.065474495
78	0x3d3e7788	0.046500713
79	0x3d809069	0.06277544
80	0x3c4e917a	0.0126079265
81	0x3ce1e3e2	0.027574483
82	0x3ccc8f96	0.02497081
83	0x3dbf401a	0.09338398
84	0x3db63925	0.08897618
85	0x3d2c51a2	0.04207004
86	0x3d36cb68	0.044627577
87	0x3dd757fa	0.10514827
88	0x3da36f6a	0.07980235
89	0x3d978725	0.07398824
90	0xbd081d3a	-0.033230998
91	0xbd95ec6e	-0.07320486
92	0xbdeb763f	-0.11497163
93	0x3c2107a1	0.009828479
94	0xbc2cf7d5	-0.010557135
95	0xbde8f3a4	-0.11374596
96	0x3cceee69	0.025260167
97	0xbd6a7490	-0.05724007
98	0xbdb020cc	-0.086000055
99	0x3c94f406	0.018182766
100	0xbc4d7c2a	-0.01254181
101	0xbc79cb57	-0.015246234
102	0xbccb0dae	-0.024786796
103	0xbd139c55	-0.03603776
104	0xbcf9c3c8	-0.030488864
105	0x3c9ac8ef	0.01889464
106	0x3c5d6af7	0.013514272
107	0x3bbfa478	0.0058484636
108	0x3c957020	0.018241942
109	0x3c6d771a	0.014493728
110	0x39d4083c	0.00040441926
111	0xbcca8f10	-0.02472642
112	0xbda049c5	-0.078265704
113	0x3ba172d5	0.004927019
114	0xbd1f97ce	-0.03896313
115	0x3c702a16	0.014658472
116	0xbdb38d39	-0.087671705
117	0xbdcdf2c7	-0.10056072
118	0xbd652503	-0.0559435
119	0xbd9ba96b	-0.07600673
120	0xbd6dfa84	-0.05810024
121	0xbd66ba5a	-0.056330062
122	0xbdc99b87	-0.098441176
123	0xbdc85ac3	-0.097829364
124	0xbd5d6082	-0.054047115
125	0xbcd36523	-0.025805062
126	0xbdac3aa3	-0.084096216
127	0xbd966dda	-0.07345171
128	0xbdab5cbd	-0.08367298
129	0xbd262400	-0.040561676
130	0xbd2feb3d	-0.04294895
131	0xbd310e73	-0.04322667
132	0xbde67270	-0.11252296
133	0xbd9afac7	-0.07567363
134	0xbdc8bce4	-0.09801653
135	0xbdc58958	-0.09645337
136	0xbdac1ec1	-0.08404303
137	0xbe00b7b6	-0.1257008
138	0xbdcb815d	-0.099367835
139	0xbd0d3eb2	-0.03448362
140	0xbd9ed487	-0.0775538
141	0xbdee75b1	-0.116435416
142	0xbcdc050c	-0.026857875
143	0xbd3576f3	-0.044302892
144	0x3c66c0cf	0.014084055
145	0xbc6acc33	-0.014330911
146	0xbd0d170e	-0.034445815
147	0xbc870174	-0.016480185
148	0x3c64c9c3	0.013964119
149	0xbd1e2fe5	-0.038619895
150	0x3d4606f8	0.04834649
151	0x3d1e5311	0.038653437
152	0x3b22ab2d	0.0024821267
153	0xbdf085cd	-0.117442705
154	0xbdea879c	-0.11451647
155	0xbde2891e	-0.11061309
156	0xbd3438d2	-0.0439995
157	0xbced27af	-0.028949587
158	0xbdfabd2e	-0.122431144
159	0xbde28691	-0.11060823
160	0xbdbac36b	-0.09119304
161	0xbdea4ed6	-0.11440818
162	0x3def8f15	0.116972126
163	0x3d4469c5	0.047952432
164	0x3d5a4eca	0.053297795
165	0x3d9b1cd5	0.07573859
166	0x3d2acdf1	0.041700307
167	0x3cdcb845	0.026943335
168	0x3cee10d3	0.029060757
169	0x3d000def	0.031263288
170	0x3d82868a	0.063733175
171	0x3da6adbd	0.08138607
172	0x3d467885	0.04845478
173	0x3d5ca8df	0.053871986
174	0xbaaaa661	-0.0013019555
175	0x3d99ef45	0.0751634
176	0x3c8d91a6	0.017281365
177	0x3b855015	0.0040683844
178	0x3b9d4e7a	0.004800615
179	0x3d44f426	0.0480844
180	0x3c9ad070	0.018898219
181	0xbd17fe42	-0.037107714
182	0x3c4c0c78	0.012454145
183	0xbd99b826	-0.07505827
184	0xbda75008	-0.081695616
185	0xbd30ce01	-0.04316521
186	0x3ca0614f	0.01957765
187	0x3b7c1223	0.0038462959
188	0xbd8ba3dc	-0.06818363
189	0x3bdc3e6d	0.006721309
190	0x3d8dd326	0.06925039
191	0x3c84c8b6	0.016208988
192	0xbb87392b	-0.004126688
193	0x3d27d4d6	0.04097446
194	0x3cfdb40b	0.03096964
195	0x3d62e937	0.055398192
196	0x3d87e9a9	0.06636364
197	0x3dba940d	0.0911027
198	0x3be8e8fa	0.007107851
199	0x3c17cfb8	0.009265833
200	0xbd1015d8	-0.03517708
201	0xbd010627	-0.031500008
202	0x3c12bb3e	0.008955775
203	0xbc95d336	-0.01828919
204	0xbc2f0163	-0.010681483
205	0xbc13a7ea	-0.009012202
206	0xbc92ca6e	-0.017918792
207	0xbd884a96	-0.06654851
208	0xbdc7f673	-0.09763803
209	0xbddec7f4	-0.10877982
210	0xbd21af45	-0.03947379
211	0xbcdec13f	-0.027191756
212	0xbdce1c2e	-0.100639686
213	0x3bb04b2a	0.005380054
214	0xbdfafc18	-0.12255114
215	0xbd48afc2	-0.04899574
216	0x3cb3a019	0.021926926
217	0xbd0b6a6d	-0.034037042
218	0xbbeb3944	-0.0071784575
219	0xbd00e1e8	-0.03146544
220	0xbcacf849	-0.021114485
221	0xbd82cd30	-0.06386793
222	0xbc5d8555	-0.013520558
223	0xbd83cdf9	-0.064357705
224	0xbb1a2571	-0.0023520852
225	0xbc1115bd	-0.0088552805
226	0x3d0239d5	0.031793434
227	0xbd17d1dc	-0.037065372
228	0xbc8ec972	-0.017430041
229	0xbcff75c6	-0.031184088
230	0xbcc138ba	-0.02358662
231	0x3a23fe67	0.00062558654
232	0xbc72ecfc	-0.014827009
233	0xbd00eb8f	-0.031474646
234	0xbcc27f0e	-0.023742225
235	0xbbf9d2f8	-0.0076240264
236	0xbc78990d	-0.015173209
237	0xbc27f4f4	-0.0102512725
238	0xbd360bde	-0.04444491
239	0xbc523985	-0.012831097
240	0x3cc6d573	0.024271702
241	0x3abb85be	0.0014306826
242	0xbc0cba11	-0.008589284
243	0x3d17fae3	0.0371045
244	0xbc349016	-0.011020681
245	0x3c8df07b	0.017326584
246	0xbd16923a	-0.036760546
247	0x3b4b4aaf	0.0031019857
248	0xbca0dffc	-0.019638054
249	0xbbfbd430	-0.007685207
250	0x3c33825d	0.010956374
251	0xbbf7c729	-0.0075615835
252	0x3cc6aaf2	0.024251435
253	0x3d6c9748	0.05776146
254	0xbbfef2ff	-0.0077804322
255	0xbc6ba78c	-0.014383208

cnn_layers_avg.0.bias f4 [32]
0	0xbdd7977f	-0.105269425
1	0xbd3f31cd	-0.046678353
2	0x3e704d56	0.23467001
3	0xbdac62dd	-0.08417294
4	0xbdf73ae5	-0.1207178
5	0xbd2dec5d	-0.04246174
6	0xbdaa4911	-0.083147176
7	0x3d04f595	0.032460768
8	0xbc053b50	-0.008131817
9	0xbd1831e4	-0.037156954
10	0x3bbf2983	0.005833806
11	0x3d2c6ae6	0.042094134
12	0x3d821a57	0.0635268
13	0x3c98fb48	0.018674508
14	0x3dec8361	0.11548496
15	0xbc992683	-0.018695122
16	0x3c7d1e58	0.015449129
17	0x3d163ac7	0.03667715
18	0xbe059c75	-0.13047965
19	0xbd1b420b	-0.03790478
20	0xbdde8e92	-0.10867037
21	0xbdc83256	-0.09775226
22	0xbdeab504	-0.11460307
23	0x3c4ba4ea	0.012429455
24	0x3db79e08	0.08965689
25	0x3ca4d7e4	0.020122476
26	0xbcd06902	-0.025440697
27	0x3d158c3e	0.0365107
28	0x3e32417d	0.17407794
29	0xbd8b58f5	-0.068040766
30	0x3cbb1559	0.022837328
31	0xbd8cbbdf	-0.06871771

cnn_layers_avg.1.weight f4 [32]
0	0x3f82c005	1.021485
1	0x3f36158f	0.71126646
2	0x3f8960dc	1.0732684
3	0x3f2bad1a	0.6706101
4	0x3f384e4e	0.71994483
5	0x3f571ebb	0.84031266
6	0x3f3c5ea2	0.735819
7	0x3f84d84c	1.0378509
8	0x3f3ee57c	0.74568915
9	0x3f43534b	0.7629897
10	0x3f8ba92e	1.0911005
11	0x3f8a3230	1.0796566
12	0x3f89cd6a	1.0765812
13	0x3f529c6e	0.8226994
14	0x3f9e9c49	1.2391444
15	0x3f43ae08	0.76437426
16	0x3f63301b	0.8874528
17	0x3f88b858	1.0681257
18	0x3f509981	0.8148423
19	0x3f37e6a1	0.71836287
20	0x3f5e41c5	0.86819106
21	0x3f342ae7	0.70377964
22	0x3f6a6c9e	0.91571987
23	0x3f7c223f	0.98489755
24	0x3f34f158	0.7068076
25	0x3f7f1e0b	0.99655217
26	0x3f5cd896	0.86267984
27	0x3f88e98a	1.069627
28	0x3f5e9363	0.86943644
29	0x3f35d2ef	0.71024984
30	0x3f887ae0	1.0662498
31	0x3f66f117	0.90211624

cnn_layers_avg.1.bias f4 [32]
0	0xbe21e0ed	-0.15808459
1	0xbe2f1014	-0.17095977
2	0x3e9159d1	0.28388837
3	0xbe51e6ec	-0.20498246
4	0xbe349097	-0.17633282
5	0xbd3a8ecb	-0.045546334
6	0xbe01b30b	-0.12665956
7	0x3b8b8d3a	0.004258779
8	0xbd5082df	-0.05090606
9	0xbe210740	-0.15725422
10	0x3c80de68	0.015731052
11	0xbdc0a6d1	-0.09406818
12	0xbbe0507d	-0.0068455325
13	0xbd9708fb	-0.0737476
14	0x3e3a33a1	0.18183757
15	0xbc99290e	-0.018696334
16	0xbd3b82d5	-0.045779068
17	0x3c336043	0.010948244
18	0xbe18cadd	-0.14921136
19	0xbda67e1b	-0.081295215
20	0xbe49b8a6	-0.19699344
21	0xbdc08283	-0.09399893
22	0xbe4d8ba4	-0.200728
23	0xbd9154a0	-0.07096219
24	0x3db1aa68	0.086750805
25	0x3d0a82fe	0.03381633
26	0xbd8389b6	-0.06422751
27	0xbca16a9b	-0.019704154
28	0x3e60e1c1	0.21961118
29	0xbde87232	-0.11349906
30	0xbc85ff00	-0.016356945
31	0xbe0f75d4	-0.14009792

cnn_layers_avg.1.running_mean f4 [32]
0	0x40d203da	6.56297
1	0xbfc3c852	-1.5295508
2	0xc0fa2d96	-7.8180647
3	0xc0d255ae	-6.572959
4	0xc1035eb5	-8.210622
5	0x40b77602	5.7331553
6	0x40b29abd	5.581389
7	0x40f59b23	7.6751876
8	0xc089f5b1	-4.3112416
9	0xbff5f690	-1.921587
10	0x40f6ef0b	7.71668
11	0x402a13d2	2.6574597
12	0x4047827f	3.1173398
13	0xc0c5757e	-6.1705923
14	0x40211f05	2.5175183
15	0x401cee91	2.452061
16	0x41094369	8.578958
17	0x410570d7	8.340049
18	0xc09a8fc2	-4.8300486
19	0x3ffbeb1e	1.9681127
20	0x40b73bf4	5.7260685
21	0xc0be95c3	-5.9557815
22	0x40c303ef	6.09423
23	0x40afd64f	5.4949107
24	0xc00223c3	-2.0334327
25	0xbe0af501	-0.13570024
26	0x410f0603	8.938968
27	0x410f127f	8.942016
28	0xc0c4e3da	-6.152814
29	0xc057b1f5	-3.3702366
30	0x40a982ae	5.297202
31	0xbf8fc1d8	-1.1231031

cnn_layers_avg.1.running_var f4 [32]
0	0x4121ad84	10.104862
1	0x410d5d45	8.835271
2	0x414d7943	12.842105
3	0x4223a3a2	40.909798
4	0x42268616	41.630943
5	0x41dd3255	27.649576
6	0x415a8781	13.658082
7	0x41b3a1dc	22.454033
8	0x41d205b5	26.252787
9	0x419d0567	19.627638
10	0x413063de	11.024382
11	0x40c98b28	6.298237
12	0x41627541	14.153626
13	0x42023d10	32.55963
14	0x4200bbc2	32.183357
15	0x419dc510	19.721222
16	0x41eeea05	29.864267
17	0x41fbc6b6	31.472027
18	0x425145de	52.31823
19	0x41931ac7	18.388075
20	0x41197206	9.590338
21	0x4127b95d	10.482755
22	0x410997eb	8.599589
23	0x4162910c	14.160412
24	0x41d7b4c4	26.963264
25	0x418a54b3	17.291357
26	0x41d97a38	27.184677
27	0x41db104f	27.382963
28	0x4103bf72	8.23424
29	0x411b995d	9.724942
30	0x42439b9a	48.901955
31	0x421f9c02	39.90235

cnn_layers_max_2.0.weight f4 [32, 32, 3, 3]
0	0xbd88534e	-0.06656514
1	0xbd453afe	-0.048151962
2	0xbdd2ac33	-0.10286751
3	0xbd12a587	-0.03580239
4	0xbd81cabc	-0.06337497
5	0xbd1d875c	-0.038459167
6	0xbd9c94f5	-0.07645599
7	0xbd84c2c0	-0.06482458
8	0xbcd96c89	-0.026541011
9	0xbd32c6f0	-0.043646753
10	0xbc0b7a9d	-0.00851312
11	0xbce42338	-0.027848825
12	0xbcacdc2b	-0.021101078
13	0xbc93039d	-0.017946059
14	0xbd3f9f74	-0.046782926
15	0xbc966d2f	-0.01836261
16	0xba2c062c	-0.0006562199
17	0x3bdc576e	0.0067242896
18	0xbcce1eb2	-0.025161121
19	0xbcbde714	-0.023181476
20	0xbd9b5644	-0.07584813
21	0xbd72b2a8	-0.05925241
22	0xbe095890	-0.1341269
23	0xbde71848	-0.11283928
24	0xbdb29109	-0.087190695
25	0xbe2c9b3f	-0.16856097
26	0xbe364a36	-0.17801747
27	0xbc8180ae	-0.01580843
28	0x3d22bb54	0.03972943
29	0xbd43aba2	-0.047771104
30	0xbd257ca6	-0.040402077
31	0xbcc7ef7b	-0.024406185
32	0x3c3c9981	0.011511208
33	0x3a25628e	0.0006308936
34	0xbd6100ee	-0.054932527
35	0xbd742a67	-0.05961075
36	0x3b6a8c73	0.003578928
37	0x3d2e433f	0.0425446
38	0xbc668203	-0.014069083
39	0x3d342b9e	0.04398691
40	0x3d195706	0.037436508
41	0xbc9ec4cb	-0.019380948
42	0x3d8261a6	0.06366281
43	0xbc95f37c	-0.018304579
44	0xbb9cda02	-0.0047867307
45	0xbd175c37	-0.036953177
46	0xbdaa8100	-0.08325386
47	0xbdb232fc	-0.08701131
48	0xbd14d77f	-0.036338326
49	0xbdab90f1	-0.08377255
50	0xbd8f8063	-0.0700691
51	0xbd624750	-0.05524379
52	0xbd6b6e79	-0.0574784
53	0xbdf8f9c8	-0.12157017
54	0xbd279812	-0.04091651
55	0xbd8bcfa1	-0.068267114
56	0x3a7ab793	0.0009564098
57	0xbda94197	-0.082644634
58	0xbdd719ea	-0.105029896
59	0xbce88eeb	-0.028388461
60	0x3d2512c4	0.0403011
61	0xbc7ef866	-0.0155621525
62	0xbd30126e	-0.042986326
63	0xbd40b33c	-0.04704593
64	0xbe0bc276	-0.136484
65	0xbd80e93b	-0.06294485
66	0xbd5323d3	-0.051547837
67	0xbdbb8510	-0.09156239
68	0xbdd84198	-0.10559386
69	0xbd18901d	-0.037246812
70	0xbd23fbe7	-0.040035155
71	0xbdfd8f5e	-0.12380861
72	0xbda4a650	-0.08039534
73	0xbd74d6f3	-0.059775304
74	0xbcaf9f24	-0.021438189
75	0x3c72f99d	0.01483002
76	0x3af0c5f3	0.001836954
77	0xbd65b20c	-0.056078
78	0xbc3b8e72	-0.011447536
79	0xbbb16c57	-0.0054145264
80	0xbcb9d2f3	-0.022683596
81	0xbb40c2d5	-0.0029413004
82	0x3d09d511	0.03365046
83	0x3d2a8d79	0.041638825
84	0xbd80b23d	-0.06283996
85	0xbd48f382	-0.049060352
86	0xbaf4c081	-0.0018673093
87	0x3d065ca2	0.032803185
88	0xbc263ca9	-0.010146298
89	0x3d27eeaf	0.04099911
90	0xbc5a54dc	-0.013325896
91	0xbd057c6f	-0.032589372
92	0xbcf21756	-0.029552143
93	0xbcda83d4	-0.026674189
94	0xbc0141ac	-0.007889193
95	0xb9eeaaa9	-0.0004552205
96	0x3c25e610	0.010125652
97	0xbd178313	-0.036990236
98	0xbd2ecd81	-0.042676453
99	0xbda2b80d	-0.07945261
100	0xbdcaec9a	-0.099084094
101	0xbd9e6ba0	-0.077353716
102	0xbdfa17c4	-0.12211564
103	0xbdaab1a8	-0.083346665
104	0xbe16ac75	-0.14714225
105	0xbd89650e	-0.06708728
106	0xbd4f99d6	-0.05068382
107	0xbdeacda5	-0.11465005
108	0xbe4072e7	-0.18793832
109	0xbe07e2ba	-0.13270083
110	0xbe1572b9	-0.14594544
111	0xbdd513b8	-0.10404152
112	0xbd9c7529	-0.07639534
113	0xbe02dd4b	-0.12779729
114	0xbd7cd8ac	-0.061730072
115	0xbe0384f6	-0.1284369
116	0xbdbc29e0	-0.091876745
117	0x3bb60d2c	0.0055557694
118	0xbd5662f5	-0.052340467
119	0xb93cee1a	-0.00018017777
120	0xbd2c3253	-0.04204018
121	0xbc240906	-0.010011917
122	0xbc833fb2	-0.016021583
123	0xbc37b313	-0.011212128
124	0xbdc11545	-0.09427885
125	0xbd2c50d9	-0.04206929
126	0xbdae2e25	-0.08504895
127	0xbe21835c	-0.15772766
128	0xbd9c148d	-0.07621107
129	0xbd7e86ed	-0.062140394
130	0xbda72321	-0.08160997
131	0xbdf12843	-0.117752574
132	0xbe05edb8	-0.13078964
133	0xbddd3b68	-0.108023465
134	0xbe0fb987	-0.14035617
135	0xba841077	-0.0010075708
136	0xbce82aa1	-0.02834064
137	0xbdd1a625	-0.10236768
138	0xbd176f1e	-0.036971204
139	0xbe0fdccd	-0.14049073
140	0xbdcca5cf	-0.09992563
141	0x3c920992	0.01782683
142	0xbe038e78	-0.12847316
143	0xbda521d2	-0.08063091
144	0xbddb9951	-0.10722602
145	0xbd999594	-0.07499233
146	0xbd38f3e2	-0.04515446
147	0xbd8570d9	-0.065156646
148	0xbd8c5dbe	-0.068538174
149	0xbd22eddd	-0.039777625
150	0xbcfd0e29	-0.030890541
151	0xbd538ecb	-0.05164985
152	0xbcb629a6	-0.022236656
153	0xbda36332	-0.079779044
154	0xbde0f34f	-0.109839074
155	0xbd9fa211	-0.077945836
156	0xbdada3a6	-0.08478479
157	0xbd9b7831	-0.07591284
158	0xbd60b5df	-0.054860946
159	0xbd4619cf	-0.048364457
160	0xbdac9c35	-0.084282316
161	0xbd8a78f0	-0.06761348
162	0x3d012e11	0.031538073
163	0x3b18705b	0.0023260328
164	0x3d350175	0.044190843
165	0xbcb2ad26	-0.02181108
166	0x3b7c2540	0.0038474351
167	0xbc9b9c1b	-0.018995335
168	0xbd0db9b6	-0.034600936
169	0x3c62047f	0.013795017
170	0xbc3baf9c	-0.011455443
171	0xbe131e19	-0.1436695
172	0xbac13c6a	-0.0014742736
173	0xbd449349	-0.047992025
174	0xbde22f8a	-0.110442236
175	0xbdf6faf4	-0.12059584
176	0xbde2b8d9	-0.11070413
177	0xbdc634a2	-0.09678008
178	0xbda02264	-0.078190595
179	0xbd102361	-0.03518999
180	0xbdd2f74f	-0.103010766
181	0xbdc7ea98	-0.09761542
182	0xbccb2309	-0.02479698
183	0xbdcae5b7	-0.09907096
184	0xbda9e1e0	-0.08295035
185	0xbcf718c3	-0.030163174
186	0xbcee0c8f	-0.029058723
187	0xbd72217b	-0.05911396
188	0xbbe3bd5e	-0.0069500646
189	0x3c0cf342	0.008602919
190	0x3c850b32	0.01624069
191	0xbd249a8c	-0.04018645
192	0xbb1ba243	-0.0023747839
193	0xbc8e3ba0	-0.017362416
194	0xba84c967	-0.0010130823
195	0xbc9f6e0a	-0.01946165
196	0x3b373bd7	0.0027959251
197	0xbda66bce	-0.08126031
198	0xbdc7ef91	-0.097624905
199	0xbd6bdcfb	-0.05758379
200	0xbd991a44	-0.07475713
201	0xbdc9a233	-0.0984539
202	0xbd44b9f8	-0.048028916
203	0xbb9bff90	-0.00476069
204	0xbb8bbec5	-0.004264685
205	0xbb6de172	-0.0036297706
206	0x3b16a932	0.0022989032
207	0xbdd93509	-0.10605819
208	0xbd86072c	-0.06544337
209	0xbd928a6d	-0.07155309
210	0xbdfee556	-0.12446086
211	0xbdfab0fd	-0.12240789
212	0xbde83f9b	-0.11340257
213	0xbe074d62	-0.13213113
214	0xbdd78959	-0.10524244
215	0xbdecd7e2	-0.11564614
216	0xbd7ed808	-0.062217742
217	0xbce3cf26	-0.027808737
218	0xbd82d46c	-0.063881725
219	0xbd74f3e6	-0.059802912
220	0xbdbf881d	-0.093521334
221	0xbd6e09d2	-0.058114834
222	0xbcd664a2	-0.026171032
223	0xbd83892a	-0.06422646
224	0x3a9bc3cb	0.0011883912
225	0xbd666a40	-0.05625367
226	0xbe02da80	-0.12778664
227	0xbdb22f52	-0.08700432
228	0xbd655380	-0.055987835
229	0xbdc851ff	-0.097812645
230	0xbe01faec	-0.12693375
231	0xbd558684	-0.052130237
232	0xbda79a43	-0.0818372
233	0xbd532af1	-0.051554624
234	0xbdba9020	-0.09109521
235	0xbdc1e288	-0.094670355
236	0xbd4db26a	-0.050218977
237	0xbca0bebe	-0.019622203
238	0xbdd3e42a	-0.10346253
239	0xbd103577	-0.035207238
240	0xbdb47979	-0.088122316
241	0xbdbfc8d0	-0.09364474
242	0xbdc564ba	-0.09638353
243	0xbd7cd553	-0.06172688
244	0xbddfeedd	-0.109342314
245	0xbdc5eebf	-0.09664678
246	0xbca87d46	-0.020567548
247	0xbd5444ee	-0.05182355
248	0xbd4dbe4f	-0.05023032
249	0xbdc17a45	-0.09447149
250	0xbd84cb8e	-0.064841375
251	0xbdc73fdb	-0.09728976
252	0x3db96b4f	0.090536706
253	0x3d50a19b	0.05093537
254	0x3d89328d	0.06699095
255	0x3d99834e	0.074957475

cnn_layers_max_2.0.bias f4 [32]
0	0xbddb24a9	-0.10700352
1	0xbe062956	-0.13101706
2	0xbdc38dc6	-0.095485255
3	0xbe3a2fec	-0.18182343
4	0xbdc15548	-0.09440094
5	0xbe1d95d7	-0.1538919
6	0xbdff14f0	-0.124551654
7	0xbdd95564	-0.1061199
8	0xbe211837	-0.15731893
9	0xbddfa33b	-0.109198056
10	0xbdbfc57a	-0.093638375
11	0xbe142713	-0.1446803
12	0xbde9e71d	-0.114210345
13	0xbdf38b17	-0.11891764
14	0xbd4ac568	-0.049504668
15	0xbdf8ad75	-0.12142459
16	0xbdefc285	-0.117070235
17	0xbe2a4eab	-0.16631572
18	0xbdc9ee30	-0.09859884
19	0xbdf892da	-0.12137385
20	0xbdb86b41	-0.09004832
21	0xbe49dd08	-0.19713223
22	0xbdc5016c	-0.09619412
23	0x3e0224f7	0.12709413
24	0xbd24a7af	-0.040198978
25	0xbdc2845f	-0.09497904
26	0xbdb313ca	-0.08744009
27	0xbdf680c9	-0.120362826
28	0xbde8b52d	-0.113626815
29	0xbd953590	-0.07285607
30	0xbdc4f140	-0.09616327
31	0xbe0dd02a	-0.1384894

cnn_layers_max_2.1.weight f4 [32]
0	0x3f3963e3	0.7241804
1	0x3f3e7d7f	0.7441024
2	0x3f4e3fa9	0.8056589
3	0x3f2d41a4	0.67678285
4	0x3f418bf4	0.75604177
5	0x3f352017	0.7075209
6	0x3f2ef41d	0.6834124
7	0x3f5235ba	0.8211323
8	0x3f1773b6	0.59160936
9	0x3f49fdbb	0.78902787
10	0x3f4777d5	0.77917224
11	0x3f2a663a	0.66562235
12	0x3f35c1b4	0.7099869
13	0x3f5330ba	0.82496226
14	0x3f546dd6	0.82980096
15	0x3f26ac91	0.65107065
16	0x3f453bd6	0.7704443
17	0x3f377b94	0.7167294
18	0x3f35ce35	0.7101777
19	0x3f392bbc	0.7233236
20	0x3f4f196a	0.80898154
21	0x3f14d221	0.5813313
22	0x3f3b0616	0.7305616
23	0x3f90a854	1.130137
24	0x3f3f079d	0.7462099
25	0x3f2ededa	0.68308794
26	0x3f4091ab	0.7522227
27	0x3f38180d	0.719117
28	0x3f1cf391	0.6130915
29	0x3f48cb29	0.78435
30	0x3f4b4649	0.7940412
31	0x3f485425	0.78253394

cnn_layers_max_2.1.bias f4 [32]
0	0xbe6c58c9	-0.23080744
1	0xbe3e3ecf	-0.18578647
2	0xbe3cc78e	-0.18435499
3	0xbe9e14f4	-0.3087536
4	0xbe636a2b	-0.22208469
5	0xbe88f7f5	-0.26751676
6	0xbe3a54f4	-0.1819647
7	0xbdf313b6	-0.11868994
8	0xbe98628c	-0.29762685
9	0xbe2eb48c	-0.1706106
10	0xbe51cfe6	-0.20489463
11	0xbe92ff34	-0.2871033
12	0xbe7c9f58	-0.2467016
13	0xbe797e61	-0.24364616
14	0xbe572a6d	-0.21012278
15	0xbe8f6347	-0.2800543
16	0xbe2dccd1	-0.16972663
17	0xbe6c4bd6	-0.23075804
18	0xbe719264	-0.23591
19	0xbe5c25ad	-0.21498747
20	0xbe11332f	-0.14179681
21	0xbeb80282	-0.35939413
22	0xbe4f3a9b	-0.202372
23	0xbd62553c	-0.055257067
24	0xbe2d4b4d	-0.16923256
25	0xbe8005da	-0.25004464
26	0xbe7c6e7e	-0.24651524
27	0xbe7125a6	-0.23549518
28	0xbe890b4b	-0.26766428
29	0xbe0dfaf7	-0.13865267
30	0xbe2231ad	-0.15839262
31	0xbe412182	-0.18860438

cnn_layers_max_2.1.running_mean f4 [32]
0	0xc00f6fed	-2.2412064
1	0xc06f620d	-3.7403595
2	0xc0566722	-3.3500447
3	0xc02cd926	-2.7007537
4	0xbffcca53	-1.9749244
5	0xbfb6f95e	-1.4294851
6	0xbf684b1c	-0.9073961
7	0xc053c3ca	-3.308825
8	0x3d32ed9a	0.043683626
9	0xc0808a8b	-4.016912
10	0xc0049d44	-2.0720987
11	0xbf77304d	-0.96558076
12	0xc0aa3f59	-5.320233
13	0xbee6c974	-0.45075572
14	0xc06a6611	-3.6624796
15	0xbff6dea3	-1.9286693
16	0xc01d8dc3	-2.4617774
17	0x3f9bae76	1.2162616
18	0xc045e78c	-3.0922575
19	0xc0ad57fd	-5.4169908
20	0xc0b0fe76	-5.531062
21	0x3faf2500	1.3683167
22	0xc0a06345	-5.012118
23	0xc037727a	-2.866362
24	0xc05d92c1	-3.4620821
25	0xc00a591a	-2.1616883
26	0x3f22b8bc	0.6356313
27	0xbe8b31c6	-0.27186412
28	0xc038e296	-2.8888297
29	0xc09ea668	-4.9578133
30	0xc09b4c12	-4.853036
31	0xc089ae14	-4.3025

cnn_layers_max_2.1.running_var f4 [32]
0	0x416f2c81	14.948365
1	0x410f5825	8.95902
2	0x4114ef9f	9.308501
3	0x41e3b5fd	28.463861
4	0x410340d2	8.203325
5	0x4185f4e3	16.744574
6	0x419e30f1	19.773897
7	0x40dae939	6.8409696
8	0x41d73701	26.901857
9	0x405f5d29	3.490061
10	0x4140cc61	12.049897
11	0x412eb510	10.919205
12	0x41715c40	15.085022
13	0x410316fa	8.1931095
14	0x411d99d4	9.850056
15	0x41880edf	17.007261
16	0x40f22264	7.566698
17	0x412d4db9	10.831475
18	0x421aceb9	38.701878
19	0x415a32b1	13.637376
20	0x418227c9	16.269426
21	0x4175a083	15.351687
22	0x41c550e8	24.664505
23	0x41b2ef88	22.366959
24	0x4150a5f9	13.040521
25	0x4109ad75	8.604848
26	0x4193f752	18.495762
27	0x4194ba34	18.59092
28	0x41bfa67d	23.956293
29	0x40fd4784	7.91498
30	0x41d68ef2	26.819798
31	0x4065ca31	3.5904658

linear_layers.0.weight f4 [2, 3200]
0	0xbcbfa7fb	-0.023395529
1	0xbce9bee1	-0.028533401
2	0xbb82fa7e	-0.003997146
3	0xbd14c9a9	-0.03632513
4	0xbd2e410c	-0.042542502
5	0xbd30ffa5	-0.04321255
6	0xbd7073b8	-0.058704108
7	0xbd575f53	-0.052581143
8	0xbd09fbf6	-0.033687554
9	0xbc2ac6ee	-0.010423405
10	0xbd0e5b37	-0.034754958
11	0xbca3b2e7	-0.019982768
12	0xbbb0cb1d	-0.0053953067
13	0xbce1d3a4	-0.027566738
14	0x3b82c8af	0.0039912085
15	0xbc91bdf7	-0.017790778
16	0xbc30a4c9	-0.010781475
17	0xbd07453f	-0.033025023
18	0xbd4e95ea	-0.050435938
19	0xbcfd9c06	-0.030958187
20	0xbc266cec	-0.010157805
21	0xbc83b64a	-0.016078133
22	0xbce25f1b	-0.02763324
23	0x3c462c14	0.01209547
24	0x3cdfbc66	0.027311515
25	0x3c0ced49	0.008601495
26	0x3c9342cc	0.017976187
27	0xbb19e471	-0.002348211
28	0xbcab9fad	-0.020950163
29	0xbd12d415	-0.03584679
30	0xbcd4945c	-0.02594965
31	0xbc136f85	-0.008998756
32	0x3bc42f68	0.0059870966
33	0x3cf8f3ca	0.030389685
34	0x3d10f438	0.035389155
35	0x3d0edc19	0.03487787
36	0x3d2a2d28	0.04154697
37	0x3b5d3d17	0.0033758336
38	0xbd631401	-0.055439
39	0xbca364bb	-0.019945493
40	0xbd128205	-0.035768528
41	0xbc220fad	-0.009891433
42	0x3c587339	0.013211065
43	0x3c056caf	0.008143588
44	0x3cb51b08	0.022107616
45	0x3d48ebbc	0.04905294
46	0x3cd260f8	0.025681004
47	0x3c0e7fba	0.008697445
48	0xbce4284d	-0.027851248
49	0xbd16c1b5	-0.036805827
50	0xbd01f9d4	-0.031732395
51	0xbc03063b	-0.007997091
52	0x3bd623db	0.006535036
53	0x3cd800ca	0.026367564
54	0x3c37943e	0.011204777
55	0x3d958ef8	0.0730266
56	0x3c481ced	0.012213928
57	0x3c748cbf	0.014926135
58	0xbb8c839e	-0.004288151
59	0xb9c8b53c	-0.00038282003
60	0xbbeb05bc	-0.0071723145
61	0xbc66b463	-0.0140810935
62	0x3c19c55e	0.009385435
63	0xbb15f9d3	-0.0022884503
64	0xbd13dc24	-0.036098614
65	0xbbfd5780	-0.007731378
66	0xbc87ff16	-0.016601127
67	0xbb4c18bd	-0.0031142675
68	0xbccf69fb	-0.02531909
69	0xbcb38c04	-0.02191735
70	0xba899a97	-0.0010498342
71	0xbcfc9ebb	-0.030837407
72	0xbcdf952a	-0.027292807
73	0xbdaa6cec	-0.083215564
74	0xbdd955e0	-0.106120825
75	0xbda0a164	-0.07843283
76	0xbde8441d	-0.113411166
77	0xbdbe535e	-0.09293245
78	0xbd4cf0c0	-0.050034285
79	0xbc430d9c	-0.0119051
80	0xbc8d5321	-0.017251553
81	0xbca9815e	-0.02069157
82	0xbd6baf49	-0.05754021
83	0xbdd8696b	-0.10566982
84	0xbdec287f	-0.115311615
85	0xbd444a97	-0.047922697
86	0xbdc83ccc	-0.09777221
87	0xbdad1ee3	-0.08453157
88	0xbd842b8d	-0.06453619
89	0xbd052682	-0.032507427
90	0xbbe3fc26	-0.0069575487
91	0xbd46d9bf	-0.048547503
92	0xbd58988b	-0.05287985
93	0xbd62dda5	-0.055387158
94	0x3c5f59aa	0.013632217
95	0x3da0b138	0.07846302
96	0xbcd47bfb	-0.025938025
97	0xbdce6ed2	-0.10079731
98	0xbd88c4d1	-0.06678165
99	0xbc5f5b27	-0.013632572
100	0x3c2b6d90	0.010463133
101	0x3b9ad47b	0.0047250367
102	0x3bbc1673	0.005739981
103	0x3c9a88ee	0.018864121
104	0x3c333d2b	0.010939877
105	0xbb04d044	-0.0020265738
106	0xbc989c74	-0.01862929
107	0x3c58422a	0.0131993685
108	0x3cb4235e	0.02198952
109	0x3caefd40	0.021360993
110	0xbb03c9de	-0.0020109336
111	0xbc6701b9	-0.014099532
112	0x3b910af8	0.0044263564
113	0x3c28e3c7	0.010308213
114	0x3d22fdec	0.03979294
115	0x3cc2281a	0.023700763
116	0x3cfbd122	0.03073937
117	0x3ca79622	0.020457331
118	0xbc49dd30	-0.012320802
119	0x3c6463b2	0.013939785
120	0xbb17920a	-0.0023127818
121	0x3c12c917	0.008959076
122	0x3a6697a3	0.00087963993
123	0x3d1aa6be	0.037756674
124	0x3d6f9ded	0.05850022
125	0x3d294b9b	0.04133187
126	0x3d0b97d0	0.034080327
127	0x3ca13034	0.019676305
128	0xbbeb509c	-0.0071812402
129	0xbbd1dfea	-0.0064048665
130	0xbb17799d	-0.0023113259
131	0x3b04e131	0.0020275826
132	0x3d092a21	0.033487443
133	0x3d3dcbfd	0.046337117
134	0x3d5c1c13	0.05373771
135	0x3d296448	0.0413554
136	0x3d1f43f1	0.038883153
137	0x3d12d2ce	0.03584557
138	0x3c98588d	0.018596912
139	0x3cd0f15b	0.025505712
140	0xbbb4d314	-0.0055183265
141	0x3c171e3c	0.009223517
142	0x3c8be49b	0.017076781
143	0x3d1f149a	0.038838007
144	0x3d4d23e7	0.050083067
145	0x3da07dd5	0.078365006
146	0x3ce4b310	0.027917415
147	0x3d221ff7	0.039581265
148	0x3ceb0862	0.02869052
149	0xbb6571fc	-0.0035010567
150	0x3c3c88cb	0.011507223
151	0x3d299c53	0.041408848
152	0x3d792e63	0.060835253
153	0x3d886acd	0.06660996
154	0x3d26099a	0.0405365
155	0x3d98e131	0.07464827
156	0x3d4700d4	0.048584774
157	0x3d0e8d45	0.034802694
158	0x3d19ec45	0.03757884
159	0x3c43ff6a	0.011962751
160	0x3cd7cfc1	0.026344182
161	0xbc422920	-0.011850625
162	0xbc4c72f1	-0.012478576
163	0x3b22126f	0.0024730226
164	0xbd1d00bf	-0.03833079
165	0x3b69a219	0.0035649596
166	0xbd6dff20	-0.058104634
167	0x3c7296e5	0.014806484
168	0x3bab9d7b	0.005237279
169	0xbbc570aa	-0.0060253935
170	0x3d2f409f	0.042786237
171	0xbb858dfb	-0.0040757633
172	0x399f6e73	0.00030409134
173	0xbd2a3684	-0.041555896
174	0xbd8099ec	-0.06279358
175	0xbd9ae681	-0.075634964
176	0xbda2d0d5	-0.07949988
177	0xbd280001	-0.04101563
178	0x3c62d3e2	0.013844462
179	0xba7ee77f	-0.00097238267
180	0x3d12594a	0.035729684
181	0xbbc43bf2	-0.0059885914
182	0xbc879dda	-0.016554762
183	0xbda9b794	-0.08286968
184	0xbd907b0f	-0.070547216
185	0xbc1d63f8	-0.009606354
186	0xbda8e99f	-0.08247685
187	0xbd7de834	-0.061989024
188	0xbcce28bf	-0.025165914
189	0x3cededf7	0.029044135
190	0x3bf721fc	0.007541893
191	0xbc451260	-0.012028307
192	0xbbf59074	-0.007494027
193	0xbd2923b1	-0.041293804
194	0x3dc10542	0.09424831
195	0x3e09b4d6	0.1344789
196	0x3d3b3fea	0.04571525
197	0x3c523097	0.0128289675
198	0xbb86b9f0	-0.004111521
199	0x3b8af936	0.004241134
200	0x3c839230	0.016060919
201	0x3b924548	0.0044638254
202	0x3d06ae7f	0.032881256
203	0x3b8f08de	0.0043650707
204	0xbca6366b	-0.02028962
205	0xbb0708ca	-0.0020604604
206	0xbc0e8385	-0.008698349
207	0xbc34e744	-0.011041466
208	0x3ce64b78	0.028112158
209	0x3d1bd7d3	0.038047623
210	0xbbb5b016	-0.0055446727
211	0x3cc60ab3	0.024175024
212	0x3c8338b3	0.016018247
213	0xbc4dc969	-0.012560227
214	0x3af94892	0.001901882
215	0x3c82fdb9	0.015990125
216	0x3ca97663	0.020686334
217	0x3c3d1afe	0.01154208
218	0x3cc2e441	0.02379048
219	0x3cb6eb5b	0.022329023
220	0x3d3686ba	0.04456208
221	0xbbfd2cdf	-0.0077262963
222	0x3a9181a6	0.001110126
223	0x3cd136ea	0.02553888
224	0x3d55324f	0.05204993
225	0x3c75c8ce	0.015001489
226	0x3d1a2880	0.03763628
227	0x3c845862	0.016155425
228	0x3d17d7f1	0.037071172
229	0x3d0260ba	0.031830527
230	0x3cdc6ae1	0.026906433
231	0x3c021eff	0.00794196
232	0x3d1a4cf2	0.037671037
233	0x3d16aec1	0.036787752
234	0x3d717f38	0.058959216
235	0x3cfc9003	0.030830389
236	0x3d02e9cf	0.03196126
237	0x3d22f671	0.039785806
238	0x3cb29339	0.021798717
239	0x3d0e2770	0.03470558
240	0x3cdf9768	0.027293876
241	0x3d0e71cc	0.034776494
242	0x3d2b6a0d	0.041849185
243	0x3cd34148	0.025787964
244	0x3d515ebd	0.05111574
245	0x3d4bc89f	0.049751874
246	0x3c851e35	0.016249755
247	0x3c37b3b0	0.011212274
248	0x3d1902b3	0.03735609
249	0x3b9a2ba9	0.0047049117
250	0x3ba130ae	0.004919133
251	0x3d1e7e39	0.038694594
252	0x3d336b1e	0.043803327
253	0x3d089191	0.033341948
254	0x3d893050	0.06698668
255	0x3d84af9c	0.06478807

linear_layers.0.bias f4 [2]
0	0xbe127e19	-0.14305915
1	0x3e094329	0.13404526
