model/model_archive/mask.pt (torch, 315390 bytes, 20 tensors)

cnn_layers_max.0.weight f4 [32, 1, 3, 3]
00000000: 4cab 57be a705 48be 536b 9dbd b988 03be
00000010: d468 6cbe d71d 29be 1572 193e 2535 f83d
00000020: 9a61 d43d 4dc4 c4be 2b09 2f3e 728b cabe
00000030: e1cc a0be 8944 8a3c 79d6 e5bd e016 babd
00000040: 2713 913e f141 00be 9f2d 14be 33f5 c13d
00000050: bd9b 8c3e 28cf 763e b030 69be 883a d1be
00000060: 2e8b 61be fd60 5a3e 5660 343d 7cf2 a23e
00000070: 31f9 32be c1be a2bd 6e42 82bd bba8 5cbe
00000080: fe6b c9bc 33ef 453e 326f 9c3e 1dc8 20be
00000090: 4a7c ccbb f790 4ebe 56e4 88be 5842 2dbd
000000a0: 8916 9abe cdf5 a8bb 4292 903e 75c4 f9bd
000000b0: ddcc 99be 14f1 b53d 8134 2c3e 5275 803d
000000c0: 9ee4 b5bd 5aa2 eabe d566 613d 30c1 843e
000000d0: 30c6 433e e8c9 93be dccf 82be db14 9b3e
000000e0: 085a 3a3e 8db9 823e edd2 e7bb 2353 833e
000000f0: d7b0 893d a5ee 32be 6aa8 babe c397 1b3e
00000100: dcd0 a1be 79de fa3d 5f23 2b3e 96da 53be
00000110: 005c d7be b4ba aabe 89f2 2e3e 9bd0 623e
00000120: 9e1c 17be 1819 893d 924a fa3d 8a01 8bbc
00000130: 9481 b0be 39b7 8abe 4bce 063e 6a72 6f3c
00000140: f91e 203e f86b a53e 136e 05be 79b6 c03d
00000150: 669e 98be b3b8 81be 47e2 243e 8d0c a33e
00000160: 258c 0e3e fbcf a3bd c490 843e de74 093e
00000170: 1b19 a33d 9331 29be ea88 53be 4ad6 9abe
00000180: 5067 f7bd 35b6 e13d 5b6f a9be 72ac 393e
00000190: 9ca3 7bbd a6f3 7ebc 05bc 80be 8218 9c3d
000001a0: f60a 30be f116 70be d2c1 4d3d 0bdf 243e
000001b0: 427b 83bd 2e7c 643e 0386 9fbe 353d 823c
000001c0: f3f4 e13d ac2b 063d ac8d 41bd 51b0 a5bb
000001d0: 2458 3abe d7fd ff3d 29fa dabe 3dc2 7bbe
000001e0: 1d03 3e3d a6a3 1e3e 90dd bb3d fde4 ee3d
000001f0: 714c 1f3e 5d82 47be 8bb4 233e 8145 843e
00000200: 6a75 dc3d d1dd 1abe be07 8d3d 669d 123e
00000210: 8e71 043e 04c6 abbe f3ef 58bd 67e3 063e
00000220: 8984 96be 94a6 853d a658 2dbd 6c50 56be
00000230: 470b e0be 3881 71bd bb35 6d3d 4362 113e
00000240: 2b60 8e3e b130 9cbe 19a2 9f3d f612 66bd
00000250: 723e bebd d664 9d3c 0bf3 773e 1e6e d33d
00000260: 8db2 543c b083 c2be a9f2 52be 3696 7a3e
00000270: 76f1 99be 4df2 76bd ab79 01be 3353 273e
00000280: e6d9 613e 5edd 0e3e 5c82 973c 0c29 c13d
00000290: b9fe 6c3e f98d 84bc 3126 543e 387f 93be
000002a0: bdfb 27be cdf1 9fbe 5996 21be 2485 8c3d
000002b0: bf13 4ebe daa0 033e 1709 fcbd b6e7 92bd
000002c0: bfb9 213d 1196 61be d28b 13bd ad2f bebd
000002d0: b7f9 7bbd 4dc9 52bd a999 0c3e 019b 69be
000002e0: d30f 70be db4d 0cbe b2e3 bf3d 38b7 aebe
000002f0: ef60 e4be df54 8b3e 0c15 dbbd 477d 38bc
00000300: 2d0d 8cbe 83de aebd c062 0abd 3a76 bdbe
00000310: 4adc 07bc b841 eebd 4fd5 e8bd a3f2 8ebe
00000320: 011b 72be f62f 203e 9168 7bbe 6839 5abc
00000330: ca11 3b3d 44f6 9e3d 28df 39be 722a 3dbe
00000340: 9533 e63d c890 033e 5798 3f3e dbeb d6be
00000350: eab6 99bd d6a2 063e 9ded 0bbe 51a1 57be
00000360: 96ee 61be d64f c43d bad0 3dbe 7fa7 393e
00000370: 60fb 833e 1eca 3bbe 2f11 30be f837 953e
00000380: 85f3 60bd 0007 19be 6f38 023e 9298 703e
00000390: fe13 bebd 1ebf 46be fb3f 9fbe 116b 8fbe
000003a0: e623 a5be 44b2 3ebe 0732 e1bd f6d6 283e
000003b0: d8e9 913e 951c 1c3e 2150 31bd a3c9 743e
000003c0: 00f1 503e a914 8abe 316a 73be 8e64 913d
000003d0: db86 433e cf8c 07be e070 c1bd 85e1 2f3e
000003e0: fd18 113e 7ba3 893e ab01 a13d f63d bebe
000003f0: 872d 4f3d f2fc 863e 4863 8fbe 3965 393e
-0.21061438 -0.19533406 -0.07686486 -0.12845124 -0.23086864 -0.16515289 0.14984925 0.121195115
0.103701785 -0.38431016 0.17093341 -0.39559513 -0.3140631 0.016878383 -0.11222548 -0.09086394
0.28334925 -0.12525155 -0.14470528 0.09470596 0.2746257 0.24102461 -0.22772479 -0.40864968
-0.22025749 0.2132606 0.044037186 0.31825626 -0.17477871 -0.0794654 -0.06360327 -0.2154874
-0.024587628 0.19329529 0.30553585 -0.15701337 -0.0062404023 -0.20172487 -0.26736706 -0.0422996
-0.30095318 -0.005156255 0.28236586 -0.12195674 -0.3003911 0.08883873 0.16816904 0.06272377
-0.08881496 -0.4582699 0.05502971 0.2592864 0.19118571 -0.2886498 -0.2554921 0.3028935
0.18198407 0.2553219 -0.007074705 0.25649366 0.06723183 -0.17473848 -0.36456615 0.15194611
-0.3160466 0.122494645 0.16712712 -0.20688853 -0.42062378 -0.33345568 0.17084707 0.22149889
-0.1475701 0.066942394 0.122212544 -0.016968507 -0.3447386 -0.27092913 0.13164632 0.014614681
0.15636815 0.32308936 -0.13030271 0.09409804 -0.29808348 -0.25336227 0.16101943 0.31845513
0.13920648 -0.079986535 0.25891697 0.13423488 0.07963773 -0.16522817 -0.20657697 -0.30241615
-0.12080252 0.11021081 -0.3309277 0.18132189 -0.061435327 -0.01556102 -0.25143448 0.07621862
-0.17191681 -0.23446251 0.05023367 0.16100709 -0.06419994 0.22312996 -0.3115693 0.015898326
0.110330485 0.032756492 -0.04725425 -0.005056419 -0.18197685 0.12499588 -0.42768982 -0.24585815
0.046389688 0.15492114 0.09173119 0.1166477 0.15556504 -0.19483323 0.1598684 0.25834277
0.107645825 -0.15123679 0.06886242 0.14317855 0.12933943 -0.3354951 -0.05296321 0.13172685
-0.2939799 0.06525913 -0.04232087 -0.20929116 -0.43758604 -0.058961123 0.05791257 0.1419764
0.27807745 -0.305059 0.077945895 -0.056170426 -0.09289254 0.019213121 0.24213807 0.103237376
0.012982023 -0.37991095 -0.2060038 0.24471363 -0.30067033 -0.06028967 -0.12644069 0.16340332
0.22055778 0.13951632 0.018494777 0.09431657 0.23144044 -0.01618098 0.20717694 -0.28807998
-0.16404624 -0.31239167 -0.1578001 0.06861332 -0.2012472 0.12854329 -0.12306421 -0.071731016
0.039483782 -0.22029902 -0.036022015 -0.09286437 -0.061517444 -0.051461507 0.13730492 -0.22813036
-0.23443536 -0.13701575 0.09369601 -0.3412416 -0.44605204 0.2721319 -0.10697374 -0.011260337
-0.27353802 -0.085385345 -0.03378558 -0.37004262 -0.008292267 -0.116336286 -0.113688104 -0.27919492
-0.23643114 0.15643296 -0.24551608 -0.013319351 0.04567126 0.07761815 -0.18151534 -0.18473223
0.11240307 0.12848198 0.18710457 -0.41976818 -0.07505591 0.13148054 -0.13664861 -0.21057631
-0.2206367 0.0958554 -0.18536654 0.18130301 0.2577772 -0.1833882 -0.17194055 0.29144263
-0.05491974 -0.14944077 0.1271684 0.23495701 -0.09281157 -0.19408843 -0.311035 -0.28011373
-0.3225395 -0.1862269 -0.1099587 0.16488251 0.2849872 0.15245278 -0.043289308 0.23905043
0.20404434 -0.26968887 -0.23770978 0.070992574 0.19094412 -0.13237308 -0.09445357 0.17175873
0.14169689 0.26882538 0.07861646 -0.37156647 0.050580528 0.26364857 -0.28005433 0.1810502

cnn_layers_max.0.bias f4 [32]
00000000: 6280 753d 4ec0 35bd 2bbc 2d3d 4695 823c
00000010: f0ec 46bd c3a4 a6bc e45d 2b3c 8f54 4ebc
00000020: bde7 b43d 8749 933b e69f 9cbd b9f4 873d
00000030: 7ff4 94bd 3e63 8d3d 09b9 763c 5320 263d
00000040: 2475 c03c f62c 44bd 83ea 3cbd 69fa c23d
00000050: 5205 a9bd 7d37 b9bb 8c47 823d 22e6 e63c
00000060: 9ab8 30bd 33f7 6abd 6d1a 233d 1da1 743d
00000070: e1d6 9dbc 8713 fd3c 6841 493c c13f 3b3d
0.05993689 -0.04437285 0.04241578 0.01594032 -0.048565805 -0.020342236 0.010459397 -0.0125934025
0.08833263 0.004494849 -0.07647686 0.06638474 -0.072731964 0.069036946 0.015058764 0.04055817
0.023493357 -0.04789444 -0.046122085 0.09520418 -0.08252968 -0.0056523667 0.06361303 0.028185908
-0.0431448 -0.057364654 0.039820123 0.059723962 -0.019267501 0.0308931 0.0122836605 0.045715097

cnn_layers_max.1.weight f4 [32]
00000000: aa3e 613f 5793 643f 1ea7 8d3f 59a1 5c3f
00000010: 5fc3 653f b7e0 7d3f ec54 5a3f b325 9a3f
00000020: cb0b 863f b48f 8b3f f193 863f a2e0 793f
00000030: ba61 6a3f 6632 843f fdae 693f 509e 733f
00000040: f87d 673f 65e6 8e3f 7eab 833f 6c9d 663f
00000050: 7f1a 653f 1e21 653f d3e7 673f f807 6a3f
00000060: 4c52 6a3f 98a3 5e3f 6dca 743f 657e 493f
00000070: a98f 4c3f b37f 753f a934 6d3f fa23 783f
0.8798624 0.8928732 1.1066625 0.86183697 0.8975124 0.9917101 0.8528583 1.2042755
1.0472349 1.090323 1.0513898 0.9760839 0.9155537 1.032788 0.91282636 0.9516344
0.9042659 1.1164061 1.028671 0.90083957 0.89493555 0.8950366 0.9058811 0.9141841
0.91531825 0.86968374 0.9562138 0.7870849 0.7990671 0.9589798 0.9265848 0.96929896

cnn_layers_max.1.bias f4 [32]
00000000: a69a aebc 772e dfbd f045 063a 066d dfbc
00000010: aac2 7ebd 0aa7 c33b abc0 c7bd bdbf ae3c
00000020: 8a31 91bc 4893 d63d 74a1 16bd 1373 d1bc
00000030: b655 45be f518 c53b 9f70 95bc 95a3 00bd
00000040: 39da 34bc c940 fe3c 3de4 d4bd 30a0 34bd
00000050: 62e7 8dbd 5aa2 5bbd 19eb 6ebc 8d75 71bd
00000060: 3460 40bd 283b 61bd 3185 4f3c 5f61 58bd
00000070: d5f2 9fbd 5833 ea3b 627c 0cbd d45e 0c3d
-0.021313976 -0.10897534 0.0005122116 -0.027273666 -0.062197365 0.0059708403 -0.097535454 0.021331662
-0.017723817 0.104773104 -0.036775067 -0.025567567 -0.19270977 0.006014938 -0.018242178 -0.031406004
-0.011038356 0.031036751 -0.103950955 -0.04409808 -0.069288984 -0.053621627 -0.014582419 -0.058949996
-0.046966746 -0.054988056 0.012666033 -0.052827235 -0.078099884 0.007147234 -0.03429831 0.034270123

cnn_layers_max.1.running_mean f4 [32]
00000000: f257 11bf 5154 fabd b43c 31be d00b 613d
00000010: 1b74 f9bd 2617 c53d 79fb 8dbd f55c 843c
00000020: 1b6d 80be 0f7c 333e 4c67 5a3c e68c acbe
00000030: 287e 483e bf19 9ebe 2f78 5c3e 9299 7cbd
00000040: 1062 183e 88ea d93d 1f87 453d ffed c9be
00000050: 340a adbd 7113 4fbe 8b76 42bf 7c87 6d3c
00000060: ef34 203e 2253 21be b55b 293e 5669 263e
00000070: 35a8 b13e 056c 7e3e d4ff 11bf 1fb1 95be
-0.5677482 -0.12223113 -0.17308313 0.054942906 -0.121803485 0.09623556 -0.0693273 0.016157607
-0.2508324 0.17527793 0.013330292 -0.33701247 0.19579375 -0.30879018 0.21530221 -0.061669894
0.14881158 0.106404364 0.048224565 -0.3943939 -0.08449212 -0.2022226 -0.7596213 0.014497634
0.15645193 -0.15754369 0.1653889 0.1625112 0.34698644 0.24845894 -0.5703099 -0.29236695

cnn_layers_max.1.running_var f4 [32]
00000000: a98d dc3d 966a 2c3c 84b3 7f3c a13f 143c
00000010: 4bee 2f3c d982 343c 66cd 1e3c 44c4 ea3b
00000020: 2a1b de3c 48dc 773c f38e ff3b b696 2f3d
00000030: 437f 953c 34fc fc3c f04b b53c ce4a 2e3c
00000040: bb27 6b3c 744e 243c 5524 143c 64be 6a3d
00000050: 7f21 4f3c 127b aa3c ea26 383e 6c47 0a3c
00000060: 89bd 703c 0791 613c 6c2f 8d3c 1795 893c
00000070: b14a 2b3d 5e23 e13c 24c8 d63d e0b0 083d
0.10769207 0.010523459 0.015606765 0.009048373 0.010737966 0.011017525 0.0096925255 0.00716451
0.027112562 0.015128203 0.0077990233 0.04286834 0.01824916 0.030881979 0.022130936 0.010637952
0.014352734 0.01002847 0.009041865 0.057310477 0.012642263 0.020810638 0.17983595 0.00843988
0.014693626 0.013767487 0.017234527 0.016794724 0.04181928 0.027482685 0.104873925 0.033371806

cnn_layers_avg.0.weight f4 [32, 32, 3, 3]
00000000: ff5d c8bd af39 10be acfb 29be ccbc 1fbe
00000010: b879 01be 654d a4bd 122b cabd 0d54 e9bd
00000020: 9b2e 54bd 57e0 a9bd e229 c6bd 691c d6bd
00000030: 0d24 f7bd d594 4cbd ded0 8dbd b009 37bd
00000040: 7182 16bd 136f 85bd 048d 8ebe a340 52be
00000050: f2f3 86be 4946 40be 2308 89be b749 4fbe
00000060: 1670 99be 4020 61be 6e49 95be 0bed 33be
00000070: 1d41 2bbe 69ea 10be a744 1ebe 0a8a d3bd
00000080: 6ab1 72be 636e 22be 3a84 2bbe 48e5 5cbe
00000090: a88a cdbd 5e02 1ebe 71a8 00be f524 eabd
000000a0: d68b d8bd 3cab 4bbd 5b9e d9bc 6fa5 cdbc
000000b0: b33e 9ebd c6b8 b8bd 1c0e 33be 9191 c8bd
000000c0: 79c0 ffbd 4ca4 36be 2191 40be 1b5c 52be
000000d0: 20c4 3fbe 1574 40be 7223 02be 81e5 0bbe
000000e0: 5795 1fbe 5a44 bdbd 8e19 d3bd 4d3a a0bd
000000f0: fc47 c3bd cc97 f8bd 4957 21be 7e65 62be
00000100: dba4 24be 139f 54be bd3f 6cbe d222 24be
00000110: 637a 6dbe 107d 39be 4252 46be e932 5ebe
00000120: 0e69 67be 7669 25be 9ead 7ebe 8594 58be
00000130: d0ca 39be 24ca 67be f693 72be 0f7c 83be
00000140: 359c 70be 80d7 6bbe fae7 25be c6c6 5abe
00000150: 4693 f5bd 6406 16be f2ee 07be 6c09 46be
00000160: 5561 42be 6ba8 17be 970f ebbd 905a 06be
00000170: 0599 dfbc f478 babc 817d bbbd 8e9a 64bd
00000180: 9e29 a13c 6955 7cbd cc41 84bd d224 1abe
00000190: 3abd 0bbe 0a48 21be 2be6 fdbd ef61 e0bd
000001a0: 7435 13be 58d5 20be d5c5 3fbe 09ec 40be
000001b0: 8c2b 95bd 4675 0cbe b249 10bd 55d8 0ebe
000001c0: 5b74 2cbe 172c afbd 6723 05be f927 bebd
000001d0: 2d81 31be 449b 50be 7c49 24be 179c 3ebe
000001e0: 89df 20be 2827 86be 931b 5fbe 9ff4 18be
000001f0: 3aed 3fbe 66da 69be b136 ecbd b72d 25be
00000200: 8ceb 4cbe ab02 37be e621 02be 0c7a 04be
00000210: 0f49 1abe 2734 6bbe f957 11be 795f bbbd
00000220: 42c9 d5bd 5c54 bfbd f98c cabd 05a6 1fbe
00000230: 2517 3fbe b195 17be 9342 02be ba01 25be
00000240: cc52 32be 89c7 2ebe 6b37 03be 552e 31be
00000250: c554 38be 5b68 30be c082 0dbe 8fc3 14be
00000260: 1e0d 56be e2bd 9bbd cc51 e8bd c62c f1bd
00000270: 81b4 26be cf0f b9bd 25c8 03be 20eb 28be
00000280: e33e 36be 00ab bcbd 767f e4bd d469 2dbe
00000290: 1700 4dbe b94b 26be d9c9 48be c518 14be
000002a0: 402d 05be 63ec 51be e56e 5cbe f8dc 1cbe
000002b0: f448 f3bd 0a0d 1abe 7569 06be e4bb 61be
000002c0: 1d6b 2abe bea2 45be 38de 3ebe 0bb4 41be
000002d0: 6cb5 d2bd 4126 c0bd 3389 82bd eca9 91bd
000002e0: 3fb0 abbd d4eb 30bd 3a97 6dbd ed07 04bd
000002f0: 8e41 e3bc cbc3 d7bd bddc dabd 6fcc d7bd
00000300: 74d6 e2bd 59b5 cfbd d29a eabc 85ce 07be
00000310: 89c1 fbbd 018e 40bd b00e adbd f60c 4ebe
00000320: 4265 dbbd b215 b7bd e4a6 8ebd 9728 2dbe
00000330: 9f24 02be c6ce 7dbd 1d97 f9bd 51a7 bebd
00000340: 34cd 44bd 6c5b 58bd a7e6 20bc 2283 2ebd
00000350: a012 b1bd 26b2 7abd ec09 afbd 2461 08bd
00000360: 2018 2bbc aae2 0ebe 590e cfbd 520d d2bd
00000370: bed6 e5bd f097 32be 9f5a 80bd 6d0c b5bd
00000380: 25c6 1abe d62a 9abd 7de2 3ebd 873e 14be
00000390: f4a4 89bd 263d 18bc cf12 8abd c672 a5bd
000003a0: c03a c4bc a7f5 f9bd 0740 37be d14e 2ebe
000003b0: 7656 14be 3037 1abe a26e 35be a113 5dbe
000003c0: 285a 13be 81c1 1fbe 40d4 54be 537b c9bd
000003d0: d576 ecbd f783 49be a9ae eabd 6109 3ebe
000003e0: 0bea 04be fe22 37be 4316 11be 5773 79be
000003f0: 5cd5 9b3c 4fef d3bc 4976 2bbd 701b 9c3b
-0.09783553 -0.14084505 -0.16599911 -0.15599364 -0.12644088 -0.08022574 -0.09871496 -0.113929845
-0.05180226 -0.082947426 -0.09675957 -0.104546376 -0.12067423 -0.049946625 -0.06924604 -0.044686973
-0.036745492 -0.06515326 -0.2784196 -0.2053247 -0.2635799 -0.18776812 -0.2676402 -0.20242964
-0.29968327 -0.21984959 -0.29157585 -0.17570893 -0.16724057 -0.1415192 -0.15455876 -0.10329063
-0.2370049 -0.15862422 -0.16749659 -0.21571839 -0.10036212 -0.1543059 -0.12564255 -0.1143283
-0.105735466 -0.04972385 -0.026564768 -0.025103299 -0.07726803 -0.09019618 -0.17485851 -0.097933896
-0.12487883 -0.17836112 -0.18805362 -0.20542948 -0.1872716 -0.18794282 -0.12708834 -0.13661768
-0.15584312 -0.09241553 -0.103076085 -0.0782362 -0.09535214 -0.12138328 -0.15755953 -0.22109029
-0.16078512 -0.20763807 -0.23071189 -0.16028908 -0.23191218 -0.18114114 -0.19367316 -0.21699108
-0.22598669 -0.16153511 -0.24870917 -0.21150406 -0.18143773 -0.22635704 -0.23689255 -0.25680587
-0.23497088 -0.23031425 -0.16201773 -0.21364889 -0.11990981 -0.14650875 -0.13274744 -0.19339532
-0.18982442 -0.1481034 -0.11477583 -0.13120484 -0.027294645 -0.022762753 -0.09154797 -0.055811457
0.019673165 -0.06160489 -0.06457862 -0.15053108 -0.13646403 -0.15750137 -0.12397417 -0.10956179
-0.1437586 -0.15706384 -0.1872781 -0.1884004 -0.072836965 -0.13716611 -0.03522653 -0.13949712
-0.16841261 -0.08553331 -0.13001786 -0.09284968 -0.17334433 -0.20371729 -0.16043657 -0.18614231
-0.15710272 -0.2620175 -0.21787862 -0.14937066 -0.18742839 -0.22837219 -0.11533869 -0.1613072
-0.20011729 -0.17872111 -0.12708244 -0.12937182 -0.15066932 -0.22969113 -0.14193715 -0.09149069
-0.104387775 -0.09342262 -0.0989017 -0.15590675 -0.18661173 -0.14803196 -0.12720709 -0.1611394
-0.17414397 -0.17068304 -0.12814109 -0.1730283 -0.18001087 -0.17227308 -0.13819408 -0.14527725
-0.20903441 -0.07604577 -0.113437265 -0.11776118 -0.16279794 -0.090362184 -0.12869318 -0.16495943
-0.17797427 -0.09212303 -0.11157124 -0.16934901 -0.20019566 -0.16239823 -0.19608249 -0.14462574
-0.13005543 -0.2050033 -0.21526678 -0.15318668 -0.11879149 -0.15044037 -0.13126166 -0.22044331
-0.16642423 -0.19300362 -0.18639457 -0.18916337 -0.1028851 -0.09382296 -0.06373825 -0.07112488
-0.08383226 -0.043193653 -0.05800555 -0.03223412 -0.02774122 -0.105353914 -0.10686634 -0.105370395
-0.1107606 -0.10142011 -0.028638277 -0.13262375 -0.12292773 -0.047010425 -0.08450067 -0.20122132
-0.10712673 -0.08939685 -0.069654256 -0.16910015 -0.12709282 -0.061964773 -0.12187026 -0.09309257
-0.04804726 -0.05282156 -0.009820617 -0.042605527 -0.086461306 -0.06120505 -0.08546814 -0.033295766
-0.010442764 -0.13953653 -0.101101585 -0.10256447 -0.112225994 -0.17440772 -0.062672846 -0.08840261
-0.15114649 -0.075277016 -0.046602715 -0.14476977 -0.067209154 -0.009291923 -0.06741869 -0.08078532
-0.023953795 -0.122050576 -0.17895518 -0.17022254 -0.14486107 -0.15060115 -0.17717984 -0.21589519
-0.1438986 -0.1560116 -0.20784092 -0.09837975 -0.11546103 -0.19679247 -0.11459095 -0.18558265
-0.12979905 -0.17884442 -0.14168648 -0.24360405 0.019022636 -0.025870947 -0.041860852 0.004764013

cnn_layers_avg.0.bias f4 [32]
00000000: 1c42 33be 0e22 6c3c 14c1 b63c 3ae7 a0bd
00000010: ffbc 8939 a1c2 1c3d 88c3 45be 3012 08bd
00000020: de83 18bd 25bd 33bc 6857 93bd 742b 3fbe
00000030: e624 4cbe 5d05 20be 12f0 c0bc 094b 6d3c
00000040: b6f9 ff3b cf74 d5bd 4594 563d 4fbe d73b
00000050: e4e0 96ba 5b78 0abe 03f7 48bd 085c 3abd
00000060: 774d 12be 0c41 c03b 4003 4abd 4c24 213c
00000070: 35a9 5f3d f24f 9fbd ecce 80bd 47b6 f4bd
-0.17505687 0.014412416 0.022308864 -0.07856603 0.0002627149 0.03827155 -0.1931287 -0.03322047
-0.037235133 -0.010970389 -0.07194406 -0.1866892 -0.1993595 -0.15627046 -0.023551974 0.014483222
0.0078117503 -0.1042267 0.052387495 0.006583966 -0.0011511114 -0.13522474 -0.049063694 -0.045497924
-0.14287363 0.005867129 -0.049319506 0.009835314 0.054604728 -0.0777892 -0.06289467 -0.11948829

cnn_layers_avg.1.weight f4 [32]
00000000: a645 4a3f b89d 6b3f 9ef9 7f3f 7f35 873f
00000010: 496e 6b3f e934 793f 4157 4d3f 50ac 7c3f
00000020: e9ce 5b3f a03c 843f 7235 723f e605 523f
00000030: c531 3a3f 69be 3e3f e435 813f 10cd 6d3f
00000040: 42cf 7a3f 0d34 683f 573f 673f af00 853f
00000050: 3399 7a3f 9604 553f a1ba 7d3f 4a3d 5c3f
00000060: f03c 5a3f e57c 6e3f 48ad 613f 03cd 7a3f
00000070: f633 5f3f 3864 683f 8714 653f b02e 533f
0.79012525 0.92037535 0.9999026 1.0563201 0.91965157 0.9734636 0.80211264 0.9870043
0.85862595 1.0331001 0.946128 0.8204025 0.7273219 0.7450929 1.0094571 0.92891026
0.979725 0.90704423 0.90331024 1.0390834 0.97890013 0.8321012 0.991129 0.8603102
0.85249233 0.93159324 0.8815503 0.97969073 0.8718866 0.9077792 0.8948445 0.82493114

cnn_layers_avg.1.bias f4 [32]
00000000: b21b 4fbe 7500 32bd 0654 563c 76a2 35bc
00000010: 570f 25bd 1216 81bd a08a 8cbe 4d8e f3bd
00000020: 6281 14be 4850 45bd 862c 34bd f862 28be
00000030: 6fb6 5ebe 9329 6fbe 7a78 f63c d3c3 42bd
00000040: 1aa4 6b3d 8219 8dbd c330 6bbd f5ad 5e3d
00000050: 14a2 f93c 6d92 41be 3db3 6cbd ba6c e9bd
00000060: 75a9 b8bd ec40 9ebd 72d5 bcbd b41f c1bc
00000070: 0140 c8bc e700 36bd 963a 2fbe c444 51be
-0.20225409 -0.043457467 0.013081556 -0.011086097 -0.040297832 -0.06303038 -0.27449512 -0.11892376
-0.1450248 -0.048172265 -0.043987773 -0.16444004 -0.2174928 -0.23355703 0.030086745 -0.047550034
0.057529546 -0.06889631 -0.05741955 0.054365117 0.030472793 -0.18903513 -0.057788122 -0.11397691
-0.09016696 -0.077272266 -0.09220399 -0.023574688 -0.024444582 -0.044434454 -0.17112193 -0.20436388

cnn_layers_avg.1.running_mean f4 [32]
00000000: fc9e e1c0 2dab 9c40 f22b bbc0 d212 2e40
00000010: f44c 9540 653b 9540 0b1f 0ac1 ad00 f0bf
00000020: c785 e6c0 5d24 c640 ea1c 243f 1cb9 d1c0
00000030: b8d4 03c1 9f7f 03c1 63d7 8f40 00da 90c0
00000040: b25b f53f e8b1 86bf d6ec f4c0 d84b 9940
00000050: 41a2 8240 ce54 cbc0 1799 b740 4c1c 07c1
00000060: 5ec6 f7c0 4d46 bcc0 1719 98c0 be51 b0c0
00000070: fdc2 9ec0 4b5e 2fc0 18bd c140 91b2 97c0
-7.0506573 4.8958955 -5.8491144 2.7198987 4.6656437 4.6635003 -8.632579 -1.8750206
-7.2038302 6.191939 0.6410662 -6.5538464 -8.239433 -8.2186575 4.4950423 -4.5266113
1.9168608 -1.0523043 -7.6539106 4.7905083 4.0823064 -6.354102 5.7374377 -8.444408
-7.7429647 -5.8835816 -4.7530627 -5.5099783 -4.9613023 -2.7401302 6.0543327 -4.7405477

cnn_layers_avg.1.running_var f4 [32]
00000000: bfce 9941 a62e dc41 2d37 cb41 bd88 1241
00000010: 05e2 f041 fddf d340 2c73 9441 4d2f 3141
00000020: a144 6041 8244 8841 4172 b141 64c8 b541
00000030: 2156 9c41 3138 7e41 923e 6041 f0f6 8741
00000040: a265 2342 fb26 1b42 ca39 d641 2577 5a41
00000050: aac5 f941 36a1 3e41 b592 8141 21b9 8f41
00000060: 803e 7e42 e84d 1241 72c9 9241 2cb2 da41
00000070: d742 e140 72bf 0e42 c4e4 7141 e874 0341
19.22595 27.522778 25.401941 9.158383 30.110361 6.6210923 18.556236 11.074048
14.016755 17.033451 22.180788 22.722847 19.542055 15.888719 14.015276 16.995575
40.84925 38.788067 26.778217 13.654088 31.221516 11.914358 16.196634 17.965395
63.561035 9.14402 18.348362 27.336998 7.039409 35.68696 15.118351 8.216042

cnn_layers_max_2.0.weight f4 [32, 32, 3, 3]
00000000: 5835 c6bd a31b ccbd fbc1 303c fbe4 a13b
00000010: 2282 5cbd 6df8 80bd e823 4abd 24f9 aabd
00000020: 8b0c 9dbc c1fc 043d 4d2f 033d e10b 28bc
00000030: 2640 1dbd 46d1 24bd fee0 793c cb9a 0d3d
00000040: 2fea 28bd 8e1b 52bd 7768 073e 664a 863c
00000050: 19d0 1e3d 9215 3e3d eafe 963b e9e9 313d
00000060: 7bf0 0f3e 44ad 1a3e 6c0d 0c3d 43bb 033e
00000070: 2cbc 983d 086c 573d b225 093e 3be3 933d
00000080: 5762 da3c 448e b33d 37ac 793c fbdf a43d
00000090: b779 8b3d aedf 48bc b3ad 2fbd d390 7a3b
000000a0: 15dc 59bd bee7 1b3d c557 e23c 5f46 23bd
000000b0: 2c88 f63c aabd 7abc 5c6a e4bd 619e dfbd
000000c0: 4b46 cbbd 2ff3 b6bd eb46 14bd 4070 1bbc
000000d0: 7245 4dbd 7ed2 a4bd 5d3e 07bd 9aac 1fbd
000000e0: 0907 ffbc be67 2a3d 0ecc 093c 1b0b 293a
000000f0: 37a7 70bc 1c66 b2bc 333b c33c 4bf4 323d
00000100: b38f 733d 572d b13c f953 8f3d 0b36 d53d
00000110: 5800 b83d d030 ab3d 9d67 9f3d 50d9 bb3d
00000120: e11f b2bc c007 a3bd 9df4 14bd cd8d 69bd
00000130: fe91 7fbd b9fa 82bd 013c 86bd fe13 7abb
00000140: ab4a 17bd 5e4a 453d 99d3 a33b 2b31 87bc
00000150: ac69 c23d 4383 623d bed4 22bd 8805 9e3d
00000160: f843 803d 7dff 873d acbe 19bd e2c4 7b3d
00000170: 4bda 6d3d e06a 423d b567 813c 5506 ba3d
00000180: 33e4 463d e820 553d 64fa b33d 4e9d ad3b
00000190: 3cee 89bd 6f62 dfb9 4727 70bc 2048 2b3c
000001a0: 0e27 6abd 5ea9 34bd 1907 413d 02cf 273d
000001b0: 5857 44bc 54af 56bd 9659 febc 172c 603c
000001c0: 7e0d 1b3d 6ceb a1bc c321 38bd 3a27 b9bc
000001d0: 8703 d1bc 25b8 493c 0dbe 08bd c448 26bc
000001e0: 02eb 64bd 7ed5 27bd b4d3 4d3d 0f1d 233d
000001f0: 27d8 c13c 39f3 413d ad77 15bc dea0 d3bd
00000200: 6449 b1bd 15d5 3ebc 2fff 8ebd a5c2 f8ba
00000210: 3fc2 c1bb a6a4 8cbd c27a a8bc 8f5d 903b
00000220: 5ba4 053d fb9e 12bb 1a5b 89ba 5c8e 0cbd
00000230: f3ac c4bb 52c8 783c 9ae5 1ebd 4ffd d4b9
00000240: dcc1 263d c521 92bc ef59 ff3b a512 043d
00000250: 2c75 21bd 64d7 e0bc db08 483d 0466 2ebd
00000260: 0cdd 253d 25de dbbc 3138 b73d f7eb 5f3d
00000270: 7a84 833c f2dd a93d 2d13 833d 8e09 b63d
00000280: 8316 a13d 1790 fc3a c4e1 e93c e495 033e
00000290: 0c05 1c3d 8ae8 c43d 87d5 d53d 9dec cd3d
000002a0: 3cf0 ca3d 7589 bc3d acae 7f3d 0e46 8e3d
000002b0: 6660 07bb b4bb 9ebd 62b7 5d3d 7ecc 84bd
000002c0: 3fea 463b ab13 3b3d d273 443d 3061 80bc
000002d0: 6821 35bc 539f 7f3d 911b e6bb 07dc 0e3d
000002e0: 910f 3b3d 1ce3 b0bc 696f 853c 0abb 70bd
000002f0: 89b4 9a3d dc28 27bd a6d9 1d3d 0d32 893d
00000300: e809 c83b 642a 253d 02c8 633d f449 8e3c
00000310: 1c11 03bc ed64 463d 8fc0 2e3d 9bb4 b33c
00000320: 372d b3bc ac7a 0d3d de74 0a3c 1478 9a3d
00000330: 2632 733d 25cd 083d 089e 903c b4cf 733d
00000340: 3614 7b3d 4681 ae3d 524b e4bc 8ef3 d73d
00000350: 37c4 e03c 1cc5 843d 2e84 083c f29a 873d
00000360: 8be2 c33b 60f6 a83d 185c 673d 693f 2d3c
00000370: 2e78 0d3d 4a7d fe3c 12b3 9b3d 423a 3d3d
00000380: 6b32 803d 5e7a 48bc 7f4d c63c 7f50 dfbc
00000390: c86b 9b3d 0aa1 533d 3f75 7ebc fc6a dc3b
000003a0: ceeb 403c 7836 9d3d 47d2 693d bed5 f03c
000003b0: 9037 833d 74ff 693d ebe5 473c 1f78 cb3d
000003c0: cdb9 e73a 9b52 493c de08 493c 517d 003d
000003d0: 0932 ac3d 7f0c 593c d050 e43d 82e9 4d3d
000003e0: 6b40 de3c 4be6 a73d ec4e 863d 601b 5f3d
000003f0: 1488 1ebc 9acb 02bd 25b3 2abd 8c9d 6f3d
-0.09678143 -0.09966209 0.010788436 0.0049406267 -0.05383504 -0.062973835 -0.04935065 -0.08348301
-0.01917102 0.032467607 0.03202753 -0.010256738 -0.038391255 -0.04023864 0.015251396 0.03457145
-0.04123896 -0.05129581 0.13223444 0.016392898 0.038772676 0.04640729 0.004608025 0.043435965
0.1405658 0.15105158 0.034192488 0.12864403 0.07457766 0.05259326 0.13393286 0.07221075
0.02665822 0.087673694 0.015238813 0.080505334 0.06810325 -0.012260361 -0.04289026 0.0038233295
-0.053188402 0.038062803 0.027629742 -0.039862033 0.030094229 -0.0153040085 -0.11153099 -0.1091888
-0.09925517 -0.08933102 -0.036200445 -0.009487212 -0.050115056 -0.08047961 -0.03301846 -0.038982965
-0.031131284 0.041602843 0.008410467 0.0006448493 -0.014688305 -0.021777205 0.02383194 0.043690007
0.059463214 0.021628065 0.069984384 0.104106985 0.089844406 0.083589196 0.077834345 0.091723084
-0.021743717 -0.079604626 -0.036366094 -0.057019997 -0.06239509 -0.06395478 -0.065544136 -0.003815889
-0.036936443 0.048166625 0.0049995896 -0.016502937 0.094928116 0.055300962 -0.039753668 0.07715899
0.06262964 0.066405274 -0.037535354 0.06146706 0.05806951 0.047465205 0.015796522 0.09083239
0.04855747 0.052033335 0.087879926 0.005298293 -0.06734893 -0.00042607213 -0.014657802 0.010454208
-0.05716615 -0.044106834 0.04712591 0.040968902 -0.011983715 -0.0524133 -0.031048577 0.013682387
0.037854664 -0.019765578 -0.044954073 -0.022601712 -0.025514377 0.01231197 -0.03338437 -0.010149185
-0.055888183 -0.040975086 0.050250724 0.039822634 0.02366264 0.047351096 -0.009122771 -0.10333417
-0.08656576 -0.011647482 -0.06982266 -0.0018978907 -0.0059130485 -0.06867342 -0.020566348 0.0044056843
0.032627445 -0.0022372592 -0.0010479421 -0.034315452 -0.0060020625 0.015184479 -0.038793184 -0.0004062452
0.040712222 -0.017838368 0.0077927033 0.032244343 -0.039418384 -0.027446456 0.04883657 -0.04257776
0.04049401 -0.026839325 0.089462645 0.054668393 0.01605438 0.08294286 0.06400142 0.08888541
0.07865622 0.0019269016 0.028550036 0.12850147 0.03809075 0.09614666 0.10441118 0.10054896
0.09909102 0.09205905 0.06242244 0.069469556 -0.0020656823 -0.07750645 0.054129966 -0.06484316
0.0030352024 0.045673054 0.047962017 -0.015671343 -0.011055328 0.062407803 -0.007022329 0.034877803
0.045669142 -0.02159267 0.016288476 -0.058772124 0.075539656 -0.04081045 0.038537644 0.066989996
0.0061046965 0.04032363 0.055610664 0.017369248 -0.007999685 0.048436094 0.042664107 0.021936705
-0.021872146 0.034540817 0.008450715 0.07542434 0.059373997 0.033398766 0.01765348 0.059524253
0.06129857 0.08520751 -0.027867947 0.10544501 0.027437313 0.06482908 0.008332295 0.0662135
0.0059779338 0.08250117 0.05648431 0.0105742 0.03453844 0.031065602 0.07602514 0.046198137
0.062596165 -0.012236206 0.024206875 -0.027260063 0.07588917 0.05166725 -0.015530883 0.0067266207
0.01177497 0.07676405 0.0570853 0.029398795 0.06407082 0.057128385 0.012200813 0.09935021
0.0017679274 0.012287761 0.0122701805 0.03136951 0.08407981 0.013247608 0.11148226 0.05027152
0.027130326 0.08198222 0.06558022 0.054469466 -0.009675998 -0.03193245 -0.04167475 0.058499858

cnn_layers_max_2.0.bias f4 [32]
00000000: a2ad b5bc d317 adbd 2935 edbd bec4 c3bc
00000010: 3682 77bd c5d2 6cbd 4990 81bd 4658 e8bc
00000020: df0f a6bd 313c eebc e125 1abd 42fc 9a3a
00000030: 9e2e 84bd b5c6 d0bc 4da8 cbbc 7fbd 99bd
00000040: e31b 93bd ea91 97bd 6337 bbbc 44b4 cebc
00000050: 628c 0dbd 5f9f f0bc 4a08 03be a8f4 8dbc
00000060: b993 c0bd 71df b0bd 0999 94bd be7b a43c
00000070: dc77 01be 579a b1bd 4a93 c8bc d9cc 3fbc
-0.022177521 -0.0845181 -0.11582405 -0.023897525 -0.060426913 -0.057818193 -0.06326348 -0.028362405
-0.08108496 -0.029081436 -0.03763378 0.0011824446 -0.06454204 -0.025485376 -0.024860526 -0.07506847
-0.07183053 -0.07400878 -0.022853559 -0.025232442 -0.034557708 -0.029372869 -0.12796131 -0.017328575
-0.09403176 -0.08636368 -0.07255752 0.020078536 -0.12643379 -0.08672016 -0.024484295 -0.011706554

cnn_layers_max_2.1.weight f4 [32]
00000000: cf4a 473f 86c9 563f 6c91 523f 53c4 5a3f
00000010: 7e6f 563f 4244 613f 2039 5a3f 2073 423f
00000020: b553 5b3f 9b7a 533f d452 5d3f c4ef 653f
00000030: f57a 543f 8eb6 513f c359 3c3f 6780 473f
00000040: 520c 5e3f 332e 433f fa66 503f 77e8 4d3f
00000050: f213 683f 14f4 573f 41f5 523f b6ce 713f
00000060: 4b03 603f ebca 4e3f b539 5d3f 1f24 5d3f
00000070: 373e 5b3f fce9 553f 6dd5 413f bf22 5b3f
0.77848524 0.8390125 0.82253146 0.85455817 0.83763874 0.8799478 0.85243416 0.75956917
0.856746 0.82608956 0.8645451 0.8981898 0.8300012 0.8191918 0.73574466 0.779303
0.8673755 0.7624237 0.8140713 0.8043284 0.90655434 0.8435681 0.8240548 0.9445604
0.87505025 0.8077838 0.8641618 0.8638324 0.8564181 0.83560157 0.75716287 0.85599893

cnn_layers_max_2.1.bias f4 [32]
00000000: 7815 17be 1bfc 23be e30c 48be e5c4 08be
00000010: ff95 2ebe f79b 1dbe f159 12be 47c4 10be
00000020: cb72 fdbd 97ec 20be 6b8f 12be c70e d1bd
00000030: 5c3e 23be 81f7 26be a67d 1fbe b085 2abe
00000040: 0f74 febd b92a 4abe a744 15be f832 29be
00000050: f865 bbbd 2efd 14be 0487 1bbe f97b 81bd
00000060: 4fe9 efbd acb6 2fbe 87e7 04be 709e a4bd
00000070: f928 23be e0af 0abe c6e9 25be 54bd e5bd
-0.14754283 -0.1601414 -0.19536166 -0.1335636 -0.17049406 -0.15391527 -0.14292122 -0.14137374
-0.12375411 -0.15715252 -0.14312522 -0.10207897 -0.15941757 -0.16305353 -0.15575275 -0.1665256
-0.1242448 -0.1974286 -0.1457697 -0.1652335 -0.09150308 -0.14549705 -0.15188223 -0.06322474
-0.11714422 -0.17159528 -0.12978946 -0.08038032 -0.15933599 -0.13543653 -0.16202459 -0.11217752

cnn_layers_max_2.1.running_mean f4 [32]
00000000: bcb6 8040 1af1 07c0 2001 23c0 b9fb 413e
00000010: c2dc 14c0 538f 2a40 f6b1 eabf da4e 653f
00000020: 74be d53f 2b6e e53f fe05 72c0 c901 44c0
00000030: ab31 07bf eab2 8d40 d3ae a93f 4262 303f
00000040: 5f8b 01c0 a832 ec3f 09c0 ba3e c53a f13f
00000050: 6551 293f d242 7c40 552c 9b40 2485 a03f
00000060: c3b2 86c0 5502 04c0 d338 02c0 75f7 0f40
00000070: f3df d7bf 50e6 a03f c573 313f 0cea 763f
4.0223064 -2.1240907 -2.5469437 0.18943681 -2.325974 2.6649978 -1.8335559 0.8957344
1.6698747 1.7924246 -3.7816157 -3.062609 -0.5281016 4.42809 1.3256477 0.6889993
-2.0241315 1.8452959 0.36474636 1.884606 0.66139823 3.9415784 4.8491616 1.2540631
-4.2093215 -2.0626423 -2.0347183 2.2494786 -1.6865219 1.2570286 0.69317275 0.9645088

cnn_layers_max_2.1.running_var f4 [32]
00000000: 24d7 1041 3666 bd41 12cd 8441 5177 e641
00000010: 3995 2341 6050 6f41 a59e bc41 489e a341
00000020: d091 1741 7989 9b41 6d88 e841 e5b4 0142
00000030: 9f4e 1d41 cacf d040 7758 b241 d46e a541
00000040: 4535 7f41 13ac 9341 9587 0142 4d6d f041
00000050: 8056 a141 8576 8d41 e66a c340 cbcb d741
00000060: c229 8e40 9d5f 4441 2c15 7e41 55cc f941
00000070: 2cfe 3d41 dfb4 ad41 90b1 d541 a99c a341
9.052525 23.674908 16.600132 28.80826 10.223931 14.957123 23.577463 20.452286
9.473099 19.442125 29.066614 32.426655 9.831695 6.525365 22.293196 20.679115
15.950505 18.45902 32.382404 30.05337 20.167236 17.68287 6.106799 26.974508
4.4425974 12.273343 15.880169 31.224771 11.874554 21.713316 26.7117 20.451494

linear_layers.0.weight f4 [2, 28800]
00000000: c52e fe3c 03a5 2b3d 153d 7d3d b6e8 103d
00000010: d3c1 923c e76d f13c 83cc 2fbc be4a 1cbc
00000020: 60d9 033c 11b7 443c fcb6 bfbb a36d ecbc
00000030: 52df 713c 7f5e 083d e012 663c 61bc 7cbc
00000040: 744f acbc 0041 25bb f8f9 8ebb 22f4 1b3d
00000050: ac86 443d 6c7d 263c c8c7 ea3c 8f2f 223d
00000060: 6050 c33c a080 e73c 7d7e f43c 91d7 b03c
00000070: 613c c93a ca14 17bd 2505 d43c ddcc 623c
00000080: 4133 c13c a279 a33c 8c06 bd3c ba7e 7b3c
00000090: e77b 1c3d b345 3b3c 8874 1d3d 18b8 a23c
000000a0: b54c b43c e3a0 9c3c dd24 733c f75b c93c
000000b0: 6c60 82bc 22ad 6bbc 0c72 a4bb ee97 04bc
000000c0: e331 5cbc ffd2 ce3c 1742 263d cffa 1f3d
000000d0: 4b77 063d 3e19 ee3c c7e3 ae3c 485a ec3c
000000e0: d59f a93c bab8 083d dbb9 6d3c 889f fabc
000000f0: dd11 2d3d 7dfc 443d e415 473d 86b0 a53c
00000100: 9979 da3c 20a4 2c3d c68a 8f3c a9f6 663c
00000110: e2fa 273d ab07 e23c a511 873c 5b77 6dbc
00000120: 1ad8 7e3c b1e6 993c 0825 203c 03b1 0b3c
00000130: 72ae 213c 0d72 22bc 07be c0bc e204 4e3c
00000140: e932 153d a4e0 da3c 06a3 6f3d 619a 043d
00000150: e8ee ed3c 52cb 0f3d 74bc d83c 5172 053d
00000160: 9408 d83c 27ee 6ebc bd02 393d a54d 503d
00000170: 90bc a53c 2b3f f73b 9511 e93b 31a3 213d
00000180: 6c16 2f3c 5d7a 003d 7e49 813c 0caf 6e3c
00000190: 91cf 5dbb 8310 713b a7a6 253c c3b9 cc3a
000001a0: 063c b0bb f342 acba 7bc0 293b c4fe 7d3c
000001b0: a30e 843c bb80 323d 8f2b 663d 8576 883d
000001c0: 35fb 363d 6164 9d3c c12d a53c 847c fd3c
000001d0: e845 133d 0b15 e43c ea0e 913c 1ad8 c8bc
000001e0: f348 353d ce88 9d3c 1fee 103d 663e 4b3c
000001f0: 559e aa3c 0bd1 163d c02a 233d 2aa4 c83c
00000200: 5125 88bc d251 50bc 7065 9a3c 4ebb 2d3c
00000210: 742c 053d ec26 d33c 15b5 003d c67e d13c
00000220: 4147 e03c 87b8 9b3c 85c5 f63c 6bf5 303d
00000230: 19eb 623d a1e5 763d f77b 5d3d c12f e83c
00000240: c504 913c 7db3 813c 7da9 953c cfb4 1a3c
00000250: 05a3 903c 3fcf 51bc eb77 833d ae56 ee3c
00000260: 60db d83c 5afe e83c 12c9 5d3d 47ea 403d
00000270: 5c20 3f3d 1c3f e73c 2d48 fbba 7a48 ee3c
00000280: b236 283d cfca a8bc b4d8 f0bb 42ee ea3b
00000290: b7bb 953c a831 1a3d 8442 d93c 1a1b cc3c
000002a0: ccd0 1f3c 1b99 4e3d 7039 1b3d 047e 613d
000002b0: 8dee 0f3d 1d72 523d a2e8 103d b283 fb3c
000002c0: 2aa0 9e3c 0612 d93c 9ee0 1d3d 8ef9 8a3c
000002d0: e281 603d 7813 783d 9b85 793d f070 883d
000002e0: 697e 6a3d 2fd8 113d a996 193d d5b4 013d
000002f0: a17e 813c a004 a33c 32d9 8d3c be5a 80b8
00000300: a0a1 dabb 6d50 043b 2318 cb3c 3e7e a53c
00000310: c89e a23c 34cc 123d 44f4 ec3c a8d3 2d3d
00000320: 6c35 6a3d 0e6e 3f3d 58ba 443d a966 523d
00000330: 725a 8d3d b03f 443d 9f4e 1e3d 41a6 ec3c
00000340: a2d5 393d c79e 563d af88 1e3d d38d f93c
00000350: f370 523d 2b4b 703d c857 103d b941 eb3c
00000360: e129 043d 7416 eb3c cb0e b03c aa50 c7bb
00000370: c375 64bc f800 4039 968c 9d3b 8cb0 b83a
00000380: f8ab 8fbc d161 8dbc f4de 98bc 5513 953c
00000390: d4aa f73b dbf3 b63c a74a 453d f463 223d
000003a0: 8ab8 793d 75fe 513d 6d84 3e3d 6137 3f3d
000003b0: 675e dc3c 34de b13c fdc8 053d fea1 7c3d
000003c0: 7ef3 87bb 5562 8c3c 489e 4d3d 62ce 1f3d
000003d0: ded3 113d fe7d 0b3d 4b39 d23c f50d 073d
000003e0: 6a4a f03c 0550 60bc b023 a93b 1d02 e13c
000003f0: 2b24 adbc 0287 da3b 06e7 663b 737e 243b
0.03102816 0.041905414 0.06182583 0.03537818 0.017914688 0.02947135 -0.010729912 -0.009539304
0.008047432 0.012006537 -0.005850671 -0.028860873 0.014762716 0.033293243 0.014042586 -0.015425772
-0.02103398 -0.0025215745 -0.0043632947 0.03807462 0.047979996 0.010161739 0.028659716 0.039596137
0.023842037 0.028259575 0.02984547 0.021587165 0.0015353077 -0.03688506 0.02588136 0.0138427885
0.02358401 0.01995546 0.02307441 0.015350038 0.0382041 0.011430192 0.03844121 0.019863173
0.022009233 0.019119686 0.014840332 0.024579985 -0.015915118 -0.01438454 -0.0050184783 -0.0080928635
-0.013439628 0.025247095 0.040590372 0.03905755 0.03282861 0.02906477 0.021348847 0.028851643
0.020706097 0.033379294 0.014509643 -0.030593649 0.042253364 0.048092354 0.04860486 0.020225774
0.02666931 0.04214871 0.017522227 0.014096894 0.041010745 0.027591547 0.016487906 -0.014493789
0.015554452 0.01878676 0.009774454 0.00852609 0.009868251 -0.009914887 -0.023528112 0.012574406
0.036425505 0.026718445 0.05850508 0.03237379 0.029044583 0.03510601 0.026457049 0.032579724
0.026371278 -0.014583147 0.045168627 0.050855298 0.020231515 0.007545372 0.0071126916 0.039462272
0.010686498 0.031366695 0.015782114 0.014568102 -0.0033845643 0.0036783523 0.010110534 0.0015619326
-0.005378249 -0.0013142511 0.002590208 0.015502635 0.01612026 0.0435798 0.056193884 0.06663231
0.044673163 0.019212903 0.020163419 0.030943163 0.03595534 0.027842065 0.017707307 -0.024517108
0.044259023 0.019230273 0.03538334 0.012405014 0.020827452 0.036820453 0.03983569 0.024492342
-0.016619356 -0.01271482 0.018847197 0.010603739 0.032513097 0.025775395 0.031422693 0.025573146
0.027377727 0.019008888 0.030123482 0.0432028 0.055399988 0.060277585 0.0540733 0.028343083
0.01770247 0.015832657 0.018269295 0.009442522 0.017655859 -0.012805759 0.06419357 0.029094066
0.026471794 0.028441597 0.054146834 0.047098424 0.04666172 0.028228335 -0.001917129 0.029087294
0.041067787 -0.02060452 -0.007350052 0.007169516 0.018277986 0.037645012 0.026520975 0.024915267
0.009754371 0.05043898 0.037896574 0.05505182 0.03513961 0.05137836 0.035378106 0.030702446
0.019363482 0.026497852 0.03854429 0.0169647 0.054811366 0.06056544 0.06091843 0.06662166
0.05724946 0.03560656 0.037497196 0.031666595 0.015807452 0.019899666 0.01731548 -6.120418e-05
-0.006672099 0.002018954 0.024791783 0.020201799 0.019851103 0.035839275 0.028925069 0.04243818
0.057179853 0.046735816 0.048029274 0.051367436 0.06902017 0.0479123 0.038649198 0.02888787
0.04536975 0.052397516 0.03870457 0.030463135 0.051377248 0.058665436 0.035239965 0.028717862
0.0322665 0.02869723 0.021491429 -0.006082614 -0.013944092 0.00018310908 0.004808019 0.0014090701
-0.017538056 -0.017258557 -0.018661 0.018197695 0.007558206 0.022333076 0.048166897 0.039646104
0.060967006 0.05126806 0.04651301 0.046683673 0.026900483 0.0217124 0.03266238 0.061677925
-0.0041488996 0.017136732 0.050199777 0.03901518 0.035602443 0.034055702 0.025662085 0.032972295
0.029332358 -0.013690953 0.005161725 0.027466828 -0.02113541 0.006668926 0.0035232916 0.0025099784

linear_layers.0.bias f4 [2]
00000000: a914 6abd b9e7 5a3d
-0.05714861 0.053443644
