model/model_archive/mask_translation.pt (torch, 315390 bytes, 20 tensors)

cnn_layers_max.0.weight f4 [32, 1, 3, 3]
00000000: 47d2 dd3d 4623 26be 9131 93bc cb6b fdbd
00000010: 3f48 a8be c829 86be bc2c c0be 7e59 e0be
00000020: 6b8f 5c3e e5ba 063f 1cf4 9ebd d4ae f5bd
00000030: 3176 a93e a941 893e a25e bd3d 96f6 20bc
00000040: c47d 863e 0119 743d 489d a93e 3c1f fbbc
00000050: 4ca3 d6bd 6c9d 973e 8e7c 883d 0d91 923e
00000060: a3b7 1abd 4efa db3e 6713 ad3e 029a 203d
00000070: 563e 183d f63e 1b3d 096e bf3e e0fb 53bd
00000080: 0fff ab3e 22d0 a2be 8848 5a3e c108 08be
00000090: ffb3 b9be 44e5 bcbe aefd 1f3b b8a9 acbe
000000a0: dd4b 13be 3e29 933e 5fd9 b5bd 91d7 ecbe
000000b0: ecbb cbbe 489c d53e 18dd b83e c544 01bd
000000c0: e1f9 a9be f32a 1a3e 9cc9 41bd 2c8b 2dbc
000000d0: a569 9ebe 5948 41be bc47 b03e 09f5 e03d
000000e0: 4c32 ca3e 3add aabd a4b2 ae3e 0352 65be
000000f0: 2b36 603e f833 bb3e 50ee cb3e b01c 8d3d
00000100: f09f 9a3d 2b8d 72be eb1c 65be c074 ed3d
00000110: 940c ca3e 67b4 1b3d c619 b73e 5e78 843e
00000120: 9105 afbe d75c 803e 9349 4abd dd94 c83d
00000130: a4d2 ed3d dc38 eabc dc0d 37be fe38 51bd
00000140: 1c13 b03e c4de df3d 5ff0 b9be cfa1 84be
00000150: 2a04 81ba 2a80 dbbe 2141 803e ae2f 05be
00000160: a433 163e 293d f9bd 1590 7c3d f5d0 fd3e
00000170: 03b1 883e 53bb a23e efff 80bd 9772 11bd
00000180: d3b8 bd3e ad44 9a3c e65a 933e 80ce 2e3c
00000190: 7860 0cbd ba0c fc3d ea52 93bc bfb5 d1bd
000001a0: 26df e63e 1049 c5bd 3b5b 9c3d 106e 4b3c
000001b0: 7332 c3bd 6451 60be 6de6 143e 6f9a 233e
000001c0: 1d58 a5be 174d 92be eedd 05be 44f4 703e
000001d0: 5d41 813e 86fc 24be c814 ddbe f01f 123e
000001e0: 6c22 c5be 0ca4 3a3c 310b 28be fcb1 fabc
000001f0: ec3b f3bc 6881 2dbd 7a36 49be 369e 96bd
00000200: 0d4e a93e 8888 94be 9c9c d33e 2574 973e
00000210: 7de7 a73e 7998 3abd 0262 313e cec5 703e
00000220: 8626 ddbd 31e0 9c3e fbbe 003f 07d9 33be
00000230: a896 a63d c00c 12be d3d7 063d 99e2 233e
00000240: 7f72 253e a364 79bc be25 8f3e 10ee b33d
00000250: f5b9 2dbc fc0c 9a3e 8b26 793e 51e9 5a3b
00000260: 0db0 0abe a8b1 85bd 4bd2 34be a917 eb3d
00000270: 01e0 8a3e df11 dabd 80ae a6be c36d 91be
00000280: 99dc b3bd e683 203e 97a2 943d f53f d63e
00000290: febb 043e 6d3d f4bd 671d 2c3e 4908 863e
000002a0: cdd5 e13e 885f 27be 4729 c8bd 38c4 95be
000002b0: e25a 3cbe 04bf 1e3e 2cbb 1cbe 5a24 e2bc
000002c0: 4262 bc3d 2d65 f83e 9e6f b93d c049 883e
000002d0: 5df8 263e 9815 b2be ed31 35bd 572d a33c
000002e0: 1ebb 3fbe 9e9d 1ebe fd5e 3dbe df22 493e
000002f0: 6534 df3d 686e dc3e bb58 f83d ed44 34bd
00000300: 7623 3b3e 9277 35bd d769 4bbe fbb8 993e
00000310: 6f0c cf3e 9460 f2bc 6f5e f9bd e4ed 97be
00000320: 1b8c 0c3e aa0c dbbd 1c77 34be e168 913e
00000330: fc6c 4f3e 46c1 6dbe c01e 0bbc 12e2 d43e
00000340: f2b2 e03d bb43 7ebd 36d5 a03e f0c2 11bd
00000350: 04f9 713e e155 a63e 6f6f 64be 2348 1a3e
00000360: eab2 1cbe 9c4d 263e 5b56 093c e958 993d
00000370: 786a a1be a0f6 cebe 9a07 09be ec03 8dbe
00000380: 3558 a8be a58d 403e 4002 ce3e a067 5a3d
00000390: 747f ebbd a0e5 463e cb89 d0bc bb23 14bf
000003a0: 1347 76bc a67f a4be dc1c c4be c694 84be
000003b0: 3981 2ebe a063 5f3d efcb 25bb a1f9 8ebe
000003c0: 30ed 7fbb 43ff 8abd e9d3 a5be 10e6 2dbe
000003d0: 465e 50bd 77a4 bebe 5359 b6bd 1d27 173e
000003e0: f39c 2b3d 068c c4bd 16b3 0ebe 24ae 483e
000003f0: 9cf7 ef3e 27d0 933e e451 b23e 9832 29bd
0.10831123 -0.16224393 -0.017967971 -0.123740755 -0.3286762 -0.26203752 -0.3753413 -0.43818277
0.21539085 0.5262893 -0.07761404 -0.119962364 0.33097985 0.26807907 0.092465654 -0.009824416
0.26267827 0.059594158 0.3312781 -0.030654542 -0.10480365 0.2961229 0.06664382 0.2862629
-0.037772786 0.42964405 0.33803865 0.039209373 0.037168823 0.03790184 0.37388638 -0.05175388
0.33593032 -0.31799418 0.21316731 -0.1328459 -0.3627014 -0.36893666 0.002441268 -0.33723235
-0.14384408 0.28742403 -0.08879351 -0.46258214 -0.3979181 0.41720796 0.3610618 -0.031559724
-0.33198455 0.15055446 -0.04731141 -0.010592263 -0.30939975 -0.18875255 0.3442973 0.10984237
0.39491498 -0.08342977 0.34120667 -0.22394566 0.21895663 0.36563087 0.39830256 0.06890237
0.07550037 -0.23686664 -0.22374313 0.11594534 0.3946272 0.038013842 0.3576185 0.25873083
-0.34183934 0.2507083 -0.049386572 0.097940184 0.11612442 -0.028591566 -0.1787638 -0.051079743
0.3438958 0.10931161 -0.363162 -0.259047 -0.000984316 -0.4287122 0.2504969 -0.1300647
0.14668137 -0.121698685 0.061660845 0.49573484 0.2669755 0.31783542 -0.062988155 -0.035509672
0.37055072 0.018831575 0.28780288 0.010669351 -0.034271687 0.12307115 -0.017983872 -0.102397434
0.45092124 -0.09633076 0.07634588 0.012416378 -0.09531107 -0.21906048 0.14541025 0.1597688
-0.32293788 -0.2857444 -0.1307294 0.2353068 0.2524518 -0.16111955 -0.43179917 0.14269996
-0.38502824 0.011391651 -0.16410519 -0.030602448 -0.029691659 -0.04235974 -0.19649687 -0.07354395
0.3306736 -0.29010415 0.4133042 0.295808 0.327938 -0.045555566 0.17322543 0.23512957
-0.107983634 0.30639794 0.50291413 -0.17563258 0.08134204 -0.14262676 0.03292067 0.16004409
0.16156958 -0.015221748 0.27958483 0.08785641 -0.010603418 0.3008803 0.24331109 0.0033403228
-0.1354372 -0.06528026 -0.17658345 0.11479122 0.27124026 -0.1064794 -0.32555008 -0.28404054
-0.0878231 0.15675315 0.07257574 0.4184567 0.12962338 -0.119257785 0.16808091 0.26178196
0.4410843 -0.16345036 -0.09773498 -0.29251266 -0.18394044 0.15502554 -0.15305775 -0.027605224
0.09198429 0.4851469 0.090544924 0.26618767 0.1630568 -0.347821 -0.044237066 0.01991908
-0.18723723 -0.15489814 -0.18493266 0.19642209 0.10898665 0.43052983 0.12126299 -0.044011045
0.18275246 -0.044303484 -0.19864593 0.3002394 0.40439174 -0.029587068 -0.12176215 -0.29673684
0.13725321 -0.10695775 -0.17623562 0.2840033 0.20256418 -0.23218259 -0.008491218 0.41578728
0.10971631 -0.06207631 0.31412667 -0.035586298 0.23630148 0.32487395 -0.22308134 0.1506658
-0.15302625 0.16240543 0.008382405 0.074876614 -0.31526542 -0.40422535 -0.13381806 -0.27542055
-0.32879797 0.18804033 0.40236092 0.05332148 -0.11498919 0.19423532 -0.02545633 -0.5786702
-0.015031594 -0.32128638 -0.38303268 -0.25894755 -0.17041482 0.05453837 -0.0025298556 -0.27924827
-0.0039051287 -0.067869686 -0.32388237 -0.16982293 -0.050871156 -0.37234852 -0.08903756 0.14761014
0.041897725 -0.0959702 -0.13935503 0.1959768 0.46868598 0.28869745 0.34828103 -0.041308016

cnn_layers_max.0.bias f4 [32]
00000000: 1071 363d ed1d 85bd 1cb3 af3c 79d3 8b3d
00000010: 1107 a33d ea28 393c bfd7 4a3e 5218 3e3b
00000020: 0554 953c edf0 2a3e dbab dabc fd24 5abd
00000030: 168c 843d 33ec 133d 0762 323d 101d 013d
00000040: 2473 803d 68d8 11bd cfc2 8f3c 4f5d 9ebc
00000050: bec5 413e 238e a03d 9470 1d3e 7455 8b3d
00000060: e047 a7bc f3ae 603d 9aba 963d 6704 073e
00000070: eff4 f73c b28d 803d 5b5e 0d3e 061b 193e
0.04454142 -0.064998485 0.02144771 0.068274446 0.07960332 0.011301259 0.19808863 0.0029006195
0.01822854 0.16693468 -0.026693275 -0.05325793 0.06472032 0.03611393 0.043550517 0.031521857
0.06271961 -0.03560677 0.017548947 -0.019331602 0.18923089 0.078396104 0.15374976 0.06803408
-0.020420015 0.054854345 0.0735981 0.13185273 0.03026816 0.06277026 0.13805525 0.14951715

cnn_layers_max.1.weight f4 [32]
00000000: 00c8 4d3f c4a4 213f 508c 1b3f 5d48 993f
00000010: 13a7 893f c916 ad3f dd9b 833f 4db7 8c3f
00000020: 18aa 953f 2483 5f3f 7aad 683f 53bc 303f
00000030: 9056 693f 1f1a 7b3f b500 8e3f f985 883f
00000040: 30de 8f3f a0f2 af3f 1843 693f 72b5 593f
00000050: 9fe9 503f f4b3 893f 21bf 643f 36a0 8d3f
00000060: fe35 223f f4e1 933f 6d11 313f 96f3 423f
00000070: 2800 973f 1976 9a3f cc0d 503f fcb5 553f
0.803833 0.6314204 0.60760975 1.1975209 1.0754112 1.3522578 1.0281941 1.0993439
1.1692533 0.8730948 0.90889704 0.6903736 0.9114771 0.9808673 1.1093966 1.0665885
1.1239681 1.3745918 0.91118 0.8504249 0.8160648 1.0758042 0.8935414 1.1064517
0.63363636 1.155333 0.69167215 0.7615293 1.1796923 1.206729 0.8127105 0.8348081

cnn_layers_max.1.bias f4 [32]
00000000: 1e86 e4bd 93fe 70be cae4 73be c72e 83bd
00000010: 8896 4a3e f480 7b3a bd78 acbe 0d9c bebd
00000020: 0383 fdbc 0266 f5bd 2e5f 14be 56c9 45be
00000030: 24ab 83bd ed7b a03d 70e5 66bd 2dd6 673a
00000040: 4747 dabc 58a2 603e 91bf 33be 87be abbe
00000050: 4052 bfbd bf45 9b3c 1c9b 27be cd79 33bd
00000060: 0a78 87be 270d c23d cfdb 24be 7a30 3cbe
00000070: ed48 86bd 619b 25bd 419a 9ebe 6564 26be
-0.11158393 -0.23534612 -0.23817745 -0.064054064 0.19783986 0.00095941056 -0.33685866 -0.09307108
-0.03094626 -0.11982347 -0.14489433 -0.19315085 -0.06429127 0.07836137 -0.056371152 0.00088438654
-0.026645316 0.21936929 -0.17553546 -0.33543798 -0.0934186 0.018954156 -0.16367763 -0.04381733
-0.2645877 0.09475165 -0.16099475 -0.18377867 -0.06556878 -0.040431384 -0.3097706 -0.16249235

cnn_layers_max.1.running_mean f4 [32]
00000000: 1ba6 e9be 2fd6 e13e e914 1c3f 287c 823e
00000010: 4b2d 1cbf de8e a73d de70 543f 547c ac3e
00000020: b03f 253e 9ffc d8bd 0b98 183f 6e58 b13e
00000030: c984 f03d 1b7a b0be 481f c53e aecf d73e
00000040: 9668 bc3e 0ae4 39be d577 d63e 1e20 4c3e
00000050: b647 643d b249 f13e 3ad5 493d 909e fb3e
00000060: c860 01bf f99b 833d ced9 e1be c39c a1bd
00000070: 98d3 f23e 9512 ca3e 0706 6a3f eea0 e4bd
-0.4563454 0.44108722 0.60969406 0.2548535 -0.6100661 0.08181547 0.8298472 0.33688605
0.16137576 -0.10595059 0.59607 0.3463778 0.11744077 -0.3446816 0.38500428 0.42150635
0.36798543 -0.18153396 0.418883 0.19934127 0.05573245 0.47126538 0.049275614 0.4914441
-0.505383 0.06426234 -0.44111484 -0.07891228 0.47427058 0.39467302 0.91415447 -0.111635074

cnn_layers_max.1.running_var f4 [32]
00000000: a306 243e 0e8c 323e b328 6a3e bc0b cd3c
00000010: 3ebe a23e 7207 c23b 1bde 8e3e e339 963d
00000020: 7971 153c ae5b 593d 0af0 793e 983d bb3d
00000030: 477c 843b 1315 db3d 425d a23d a4f4 b93d
00000040: 0621 883d c47d 923c dfb5 de3d 1d84 9b3c
00000050: 13ff 483c 5f0d d83d 9976 1f3c d1c1 ff3d
00000060: f887 1f3e 36da 933a a546 303e 7dc8 e13c
00000070: ed62 0c3e 8425 9b3d d5d5 db3e 4030 433d
0.16018157 0.17436239 0.22867088 0.02503001 0.31785768 0.0059212977 0.27903828 0.0733526
0.009121292 0.05306595 0.24407974 0.091426075 0.0040431353 0.10697379 0.07927944 0.090798646
0.06646924 0.017882235 0.10874533 0.018983895 0.012267846 0.10549425 0.009732866 0.124881394
0.15579212 0.0011280242 0.17214449 0.02756142 0.13709612 0.07575515 0.42936578 0.047653437

cnn_layers_avg.0.weight f4 [32, 32, 3, 3]
00000000: f381 aebe 2f9d 92be b3fd 89be 886e acbe
00000010: 5b32 a4be 7cdb a1be 57ae a3be bf45 a2be
00000020: f7cf 96be b1e9 8bbe 1ecb 49be 4ce8 46be
00000030: cc3e 94be f648 6fbe 526c 5bbe 2e53 71be
00000040: a8b2 4bbe cd5f 84be cabb 08be 060a 2ebe
00000050: 9e46 67be 6ae5 5ebe 5129 87be 9032 58be
00000060: 7e1d 62be ad58 3abe 3bde 5fbe 0fa6 163e
00000070: aa43 2f3e bdb4 553e 8eeb a53d 9b85 193d
00000080: 8de6 f03d d2b9 f43c adf3 ac39 c52e c43c
00000090: a8be a1bd 26ed 99bd 8ef1 25bd a384 96bc
000000a0: 4b6b 403c b785 59bd d989 d43b 1d15 95bd
000000b0: 1c04 68bd 038e f43d 1684 9e3d 4cb7 a23d
000000c0: 038d f53d cc77 d93d 9654 2c3e 4680 e83d
000000d0: 6e89 773d a3c4 263d 4277 793e 36ff b33e
000000e0: 1923 a93e fe09 a53e 8e15 2f3e 3ff0 9a3e
000000f0: 93ac 923e d00d 953e 7a93 b13e 61cc fc3c
00000100: 584b 5d3d 9c6b b73d 7e86 a33d 12e4 713d
00000110: 3559 133d 1388 fd3d a73e d13d b7b5 1c3e
00000120: 82b3 b53d c60d 963d 9a63 1a3e 884e 043e
00000130: 01e7 ba3d 407e 4b3e 3722 c03d 5d0a ed3d
00000140: 1db9 f73d b50e 50be d66e 88be 100a 88be
00000150: b497 8fbe fe59 bbbe a4cb a1be f831 65be
00000160: 0b6a 5cbe e205 88be 6345 973d e2a7 4d3d
00000170: f1aa 473d de0a 573c 175b 303d f93c e43c
00000180: 292e ce3c 4cff d13d 51b9 ce3d 6c1a 91be
00000190: cd70 97be 0cfa 6dbe 3b7b 86be 27ef 76be
000001a0: cedd 8cbe 16db 88be c6d5 61be 2f5d 97be
000001b0: cb85 593d 5098 c73d 1fa5 c53d b0e8 4e3d
000001c0: 4e04 a13d 191c a43d f5e5 883d ccbb a63d
000001d0: 105f 073e 5c55 553d ad35 af3d 935e 2f3c
000001e0: 5c3d 9b3d 20ab 773d 548a d33d f763 4f3d
000001f0: c774 213d 0a7f af3d ce15 263e 34ed 2d3e
00000200: bdca e33d 3c5b 813d 7489 b63d 1873 3e3e
00000210: 5018 163e 0a06 e73d f8b8 373e 3f7e 9b3e
00000220: 6ae1 8c3e 7c4a 6c3e 8395 843e 738b a93e
00000230: 4f51 633e bd70 933e 94f0 8d3e 7ba7 983e
00000240: 401f 5c3d 69fa e83d 346e 0c3e 5284 1e3e
00000250: 230e 1f3e 07b8 0a3e 5307 e03d b99f c0bc
00000260: 833b c13c ae3f 023e 9c24 963d a706 d13d
00000270: 7dee 4f3e 81ea fe3d 4a5e 3d3e 0f80 353e
00000280: e52d a83d f357 193e e023 303d 1197 93ba
00000290: a271 963d 37e7 573d 4d17 ac3d 55e1 c13d
000002a0: cb76 b23d 8328 213d cf25 253d 215a 56bd
000002b0: e877 9fbd 5410 9ebd f6e5 eabd 7034 f3bd
000002c0: d48f 8bbc 7d4c f6bd 96c3 61bd fb1e 02bd
000002d0: 2b84 31be 02c8 1cbe c686 20be 0697 47be
000002e0: 2288 83be 6a99 7bbe 32ac 80be 06cb 61be
000002f0: 8fb0 47be 2a1e f23d c2fb 4d3d dde7 623c
00000300: c304 ea3d 9ebd 4a3d 1998 383d 658d b53d
00000310: 34c1 213e 069d 5ebc 2f2d 4bbe 168c 8abe
00000320: 0daf 44be 526a 65be e4e5 a7be 5e75 43be
00000330: 6f0a 0ebe ce2b 3dbe 44cc 5cbe 6477 fe3d
00000340: 01ac 0b3e 622f 333e f2b1 003e c7a4 1b3e
00000350: a853 0c3e decb 263e e494 263e 5010 233d
00000360: 9cca 6ebe bc1f 80be 3414 87be f3d9 94be
00000370: 5523 87be 12f6 a7be 0cc3 72be 78e3 94be
00000380: 8115 9fbe 896d 483d 9e98 af3d 78a0 18bb
00000390: 69eb b53d 176e 993d e7d9 ca3d 009a 043e
000003a0: d0fc fd3c 1e77 573c d106 b8be 59fe 84be
000003b0: d267 9ebe e19f afbe 14c3 a1be b313 a1be
000003c0: 1fe6 98be b1d4 a4be 6349 a5be 6add 33be
000003d0: 6373 8abd 8221 d6bd 9bc6 76be 26bd 11be
000003e0: 1b81 0bbe 003f 92be bbf5 73be 1277 7bbe
000003f0: dd0a f53d f3fd f43d 7455 2a3e 64ef 443e
-0.34083518 -0.28635547 -0.2695137 -0.3367808 -0.32069668 -0.31612766 -0.31968948 -0.31693837
-0.2945554 -0.2732673 -0.1970639 -0.19424552 -0.2895416 -0.23367676 -0.2142804 -0.23566887
-0.1989237 -0.2585434 -0.13352886 -0.16996011 -0.22585532 -0.21767202 -0.2639871 -0.21113038
-0.22081563 -0.1819789 -0.21862118 0.14711784 0.17115656 0.20869727 0.08101569 0.03748093
0.11762724 0.029873762 0.0003298795 0.023948083 -0.07897693 -0.075159356 -0.040513568 -0.018373793
0.011744331 -0.053106036 0.0064861593 -0.07279418 -0.056644544 0.11941149 0.07740037 0.07945117
0.119897865 0.106185526 0.16829142 0.11352591 0.060433798 0.04071487 0.243619 0.35155648
0.3303459 0.32234186 0.17098066 0.30261418 0.2864729 0.291121 0.34682828 0.030859174
0.05402693 0.08956072 0.07984637 0.059055395 0.035973746 0.1237947 0.10217028 0.15303694
0.08872129 0.07326846 0.15077057 0.12920582 0.09126092 0.1987238 0.09381526 0.11574242
0.120958544 -0.2031811 -0.2664706 -0.26570177 -0.28045428 -0.36592096 -0.31600678 -0.22382343
-0.21524827 -0.26566988 0.07386281 0.050208934 0.048747007 0.0131251495 0.04305562 0.027861105
0.025168495 0.10253772 0.1009394 -0.2834047 -0.29578248 -0.23239917 -0.26265892 -0.24114667
-0.27512974 -0.2672965 -0.22054204 -0.2956328 0.05310611 0.09745848 0.09650635 0.050514877
0.07862149 0.08013172 0.06684486 0.08141288 0.13219857 0.05208336 0.0855516 0.010703701
0.07580063 0.060465932 0.10329118 0.050632443 0.03941801 0.08569153 0.16219255 0.16985017
0.11122654 0.0631623 0.08912936 0.18598592 0.14657712 0.11280449 0.17941654 0.30369756
0.27515727 0.23075289 0.25895318 0.33114204 0.22198986 0.2879695 0.2772261 0.29815277
0.05374074 0.11375887 0.13713914 0.15480164 0.15532736 0.13546763 0.10938897 -0.023513662
0.023587948 0.12719604 0.073312014 0.10206347 0.2030582 0.12447072 0.18493 0.17724632
0.08211879 0.14974956 0.043002963 -0.0011260231 0.073458925 0.052710738 0.08402882 0.09466807
0.08714064 0.039345276 0.04031926 -0.052332047 -0.07786542 -0.07717958 -0.11469643 -0.11875236
-0.017036356 -0.12026308 -0.055118166 -0.031767827 -0.17335574 -0.15310672 -0.15676412 -0.19491205
-0.256898 -0.24570242 -0.25131375 -0.22050104 -0.19500946 0.118221596 0.050288923 0.013849226
0.114266895 0.04949724 0.045066927 0.088648595 0.15796357 -0.013587242 -0.19841455 -0.27060002
-0.19207402 -0.22403839 -0.3279258 -0.19087741 -0.13871168 -0.18473741 -0.21562296 0.12425116
0.13639833 0.17498544 0.12567881 0.15199576 0.13703787 0.16288707 0.16267735 0.03981048
-0.23319477 -0.2502421 -0.263826 -0.29072532 -0.26394144 -0.32804924 -0.23707217 -0.29079795
-0.31071094 0.048932586 0.08574031 -0.0023289006 0.088827915 0.07491701 0.09904843 0.12949371
0.03100434 0.013150958 -0.359427 -0.25975302 -0.30938584 -0.34301665 -0.31594145 -0.31460342
-0.29863068 -0.3219352 -0.32282552 -0.17564932 -0.067602895 -0.1045561 -0.240992 -0.1423231
-0.13623469 -0.2856369 -0.23824207 -0.2455714 0.11964963 0.119624995 0.1663416 0.19231945

cnn_layers_avg.0.bias f4 [32]
00000000: 3f6e 69bd 70f0 c43d 3d24 3abe 9766 ce3c
00000010: d9ec 98bd 65e3 e4bd bed4 f2bd 53ed 3d3d
00000020: 7ae4 0dbc 5e0e 56bd 8c7d 2ebd bb55 12be
00000030: fd0c 3fbd d908 37bd 11a2 373d 9bb1 1e3c
00000040: d53d 773b 3a81 bcbd b4ee 6abd ff4b bd3b
00000050: eb68 ad3d b024 4ebc 839a 8abd 4fe8 8cbc
00000060: 0af0 0f3d 2f09 01bd 3af5 3a3e 61a3 4ebb
00000070: b5f8 1d3c 4914 d4bc bb21 c9bd c788 e13d
-0.056989904 0.09616172 -0.18177886 0.025195403 -0.0746705 -0.111761846 -0.118569836 0.046368908
-0.00866043 -0.052259795 -0.0426002 -0.14290516 -0.046643246 -0.044686172 0.044832293 0.009685899
0.0037726064 -0.092043355 -0.05735655 0.0057768817 0.08467277 -0.012581989 -0.06767752 -0.017200617
0.03514103 -0.0315029 0.18257609 -0.0031530487 0.009641816 -0.025888579 -0.09820887 0.11012416

cnn_layers_avg.1.weight f4 [32]
00000000: 388d 523f 58c0 653f 627b 423f 5d64 863f
00000010: 1e3d 413f 9be9 713f 9165 3a3f df63 9e3f
00000020: 525f 8b3f 564b 6c3f 45c0 233f 2140 373f
00000030: 54a4 5c3f b37a 6c3f 4a6d 853f 1010 5a3f
00000040: 7d8e 803f e2b5 5f3f 9947 953f 31e3 823f
00000050: a89c 833f b59b 8a3f 8cab 553f 1b5c 853f
00000060: fae0 873f 3a73 7a3f 220a a93f 6306 853f
00000070: ef60 803f 93ab 323f 97c6 5c3f d46b 963f
0.8224673 0.8974662 0.7596952 1.0499378 0.7548388 0.9449708 0.7281123 1.2374228
1.0888464 0.92302454 0.63965255 0.7158223 0.86188245 0.92374724 1.0423977 0.8518076
1.0043484 0.87386906 1.1662475 1.0225583 1.0282183 1.0828768 0.83464885 1.0418733
1.0615532 0.9783207 1.3206217 1.0392574 1.0029582 0.6979305 0.86240524 1.1751657

cnn_layers_avg.1.bias f4 [32]
00000000: 01cc 68be 552c 87be c6f9 27be 76f0 68be
00000010: 0948 8dbe c396 43be 407c 71be 76e2 91be
00000020: 467e 88be cce4 b6bc 9ba3 96be a194 87be
00000030: 37da d1be e0bd 04bf 6cff 9bbe 8c98 753d
00000040: f456 85be 79fd e5bc a42c c0be 2385 a6be
00000050: 5150 95bd c764 5bbe f087 ccbe 0ea5 cbbe
00000060: 39b8 16be e113 bbbd d992 a0be b604 1dbe
00000070: 8262 24bd 81e6 87be e456 d5bd 7515 99be
-0.22734071 -0.2640101 -0.16403875 -0.22747979 -0.2759402 -0.1910048 -0.23582554 -0.28493088
-0.2665884 -0.022325896 -0.29421696 -0.26480582 -0.40986797 -0.51852226 -0.3046831 0.059959933
-0.26042902 -0.028074967 -0.37534058 -0.3252345 -0.0729071 -0.21425162 -0.39947462 -0.39774364
-0.14718713 -0.09134651 -0.31362036 -0.15333828 -0.040133007 -0.26543048 -0.10416964 -0.29899183

cnn_layers_avg.1.running_mean f4 [32]
00000000: 4057 843f 9f24 5e41 c56a 19c1 fb74 7d40
00000010: 71cc 30c1 51e1 3041 4978 66c0 0b21 1541
00000020: 2070 2141 442d 05c1 fe69 b5c0 2b4b 6140
00000030: d1c2 3641 6471 2241 c0b3 0e41 9463 3fc0
00000040: f4ba 1041 c50d fbc0 19de 3d41 e1b9 2241
00000050: cfa1 1b41 87be 2841 403b 4041 46ff 1941
00000060: 6af7 7141 a07d d540 a279 5e41 616e 4640
00000070: 6480 0441 48f7 02c1 a5b9 77c1 eb83 b941
1.0339127 13.883941 -9.588567 3.960265 -11.049912 11.055009 -3.6010916 9.320567
10.089874 -8.323551 -5.6691885 3.520213 11.422563 10.152683 8.918884 -2.9904528
9.045643 -7.845431 11.866723 10.170381 9.727004 10.546515 12.014465 9.624823
15.122904 6.671585 13.9046955 3.100487 8.281345 -8.185371 -15.482823 23.189413

cnn_layers_avg.1.running_var f4 [32]
00000000: 556a b642 fb98 b342 a0e0 ad42 e6b5 1241
00000010: f094 2742 fdd9 9742 843f ac40 0b75 0e42
00000020: 6b8a 4d42 729e 6842 20d1 6842 7f0a c042
00000030: baaa a342 1bd7 c242 e818 b641 941c 6841
00000040: 7e72 6742 cc73 b342 51ea a242 8636 7642
00000050: 13f4 f041 c272 8242 6e62 af42 ee34 fc41
00000060: d199 e042 b348 2e42 1931 7f42 04e3 2841
00000070: add1 8c42 abca 8a41 bdf6 1c43 6a5c 8443
91.20768 89.79879 86.93872 9.169409 41.895447 75.92576 5.3827534 35.6143
51.385174 58.15473 58.204224 96.0205 81.83345 97.42013 22.762161 14.506977
57.86181 89.726166 81.45765 61.553246 30.119177 65.22414 87.692245 31.525845
112.30042 43.570995 63.797947 10.555424 70.40952 17.348959 156.96382 264.722

cnn_layers_max_2.0.weight f4 [32, 32, 3, 3]
00000000: 7739 53bc f42e 40bb dd06 f2bb 96e8 a2bd
00000010: d12c 85bd 8347 0cbd ca4a e7bc 4470 f8bc
00000020: 3da2 8abd a4d3 02be 9256 f0bc 404e afbd
00000030: 87b6 21bd e6b6 66bd 5155 cfbd 8a2c d3bd
00000040: e686 dcbc b1ab 06bd 7589 4bbe 119f 57be
00000050: 4d79 6dbe f9ef fdbd 1f58 32be 81c4 3ebe
00000060: 1291 69bd 56e4 27be 3694 c5bd 8946 a3bd
00000070: 569e 38bd 0032 21bd e119 e6bd 8ab6 aebd
00000080: 0d5b a3bc 5d96 e0bc 25b8 adbd 6a00 36bc
00000090: 7c9d 63bd e8a6 7fbd 525b 26be b0a0 07be
000000a0: 2d6c f6bd 5ac3 78bd aea7 c7bd e3ad 5ebd
000000b0: b55f 3cbd 9072 cc3c 43db 31bd e754 efbb
000000c0: 8bac d5bb 6a18 1bbd 89e6 33bd f688 ecbc
000000d0: 862b 06bd f847 043c 9401 afbd aa92 57bd
000000e0: fb5e 88bd d513 2fbd b674 83bd 67b2 8abd
000000f0: 90e0 abbd 31a8 fcbc 1c85 96bc 4c04 ecbc
00000100: 96e8 a0bd 3822 d4bc 1d5d babd abd4 eebd
00000110: 5f03 53bd 7aa8 b9bd 21cd 50bd 7067 90bd
00000120: 84a6 a4bd b91f 4fbd 1c70 d9bd 1137 9bbc
00000130: 6293 89bd e38f e2bd 5914 86bd b4d0 c8bd
00000140: cfeb 70bd 9e4b 00bd 24b2 fdbd a299 3bbd
00000150: 53b8 adbd 5b5e fdbd f053 debc 779d ccbd
00000160: 3f60 d4bc 74ba 20bc be2b b8bd 21fd aa3c
00000170: bcd7 2fbc 7996 77bd 1326 033b ac21 d73c
00000180: ea04 9dbd 4352 e5bc 530c b43a 93a2 29be
00000190: a4e2 6cbe deb5 56be b956 32be 77b0 60be
000001a0: 15eb 45be a575 b0bd 7032 dfbd abfa 19be
000001b0: 8544 78bd 3f5b e7bd 7aa6 86bd d380 0cbe
000001c0: fd6c bebd 8692 c5bd 4630 f5bc 9aeb 49bc
000001d0: 8454 acbc fd0d 1ebe f669 c7bd 54b4 1dbe
000001e0: 6bd2 0ebe 069f 85bd 34f0 cebd 5583 d4bd
000001f0: 6faf 4abd 8243 8bbc 2d7b 18bc 8440 99bd
00000200: 4e67 8d3a 280b 45bd 9d84 c1bd 9b76 22bc
00000210: 15f2 76bd 96e1 7dbd 73b2 bb3b 1099 73bd
00000220: 29f2 a9bd 71c1 a8bd bad8 40bd fa7b f6bc
00000230: 3fe2 99bc 1fea 1abd c76f 97bd 0030 86bd
00000240: 99af 67bd 9a32 bfbd 05b1 19be f79c 5bbd
00000250: 5661 6abd 5763 4abd ebb9 10be 8c1d 07be
00000260: 92f2 07be 1df6 00be edf7 c2bd 8e2b 40be
00000270: fd5f e4bd 2482 19be 9663 55be 9ae2 fdbd
00000280: 94d2 d6bd 75e1 ebbd df5b 8dbd 451c 97bd
00000290: 6577 97bd a157 afbd d295 a5bd d902 0abd
000002a0: b839 fabc d390 25bd 0f26 9fbd c108 cbbd
000002b0: 47d1 c0bd 6386 9fbd 926e debd bebe d5bd
000002c0: d86e e5bc 39cf c5bd 07f4 25bd 6d72 9ebc
000002d0: d25e 683d 3877 d93c 00fa b1bb d759 e83c
000002e0: e4ba 34bd d91c cd3c cdc9 1f3d ac50 a83b
000002f0: 1f34 20ba ee83 f7bd 9ecd 19be c4be 96bd
00000300: 9f04 85bd 0e1f 9dbd 0b15 dfbc 70c1 5bbd
00000310: 6051 8dbd 925b b9bd 93f2 2cbd 6bcf 0bbd
00000320: e5af c2bd c54f 92bd c9e6 52bd 5739 abbd
00000330: b083 57bc 480d 65bc 91c3 1fbd e42c 14bd
00000340: 33cf c1bd 5e79 01be 486c 72bd cc38 c7bd
00000350: 0f3a f0bd 4f9f eabd 6906 b7bd caa1 96bd
00000360: fa0a 0abe bc4f 7bbd 3d13 9ebd 0a94 9cbd
00000370: d28c cdbd c71e 5cbd f03c f0bd eb00 adbd
00000380: b95b b2bd 921e cfbc cc64 6b3c 8485 febb
00000390: 35a9 673d b70b 9b3c 8ca8 0a3b 8379 333c
000003a0: 04cd b53d 4b38 ac3d 0bf5 8cbd ebc1 f0bb
000003b0: e8a9 40bd 8ccb adbd b14a 6ebd dff4 b2bd
000003c0: e677 c5bd c710 16bd bb80 d9bd 5584 bdbd
000003d0: 7315 95bd 5178 e1bd bbd8 62bc 2259 cebd
000003e0: 074d c4bd 14f8 91bd d896 d5bd 4740 96bd
000003f0: 0332 2a3d f380 c03c a3bb 213d 914f a53d
-0.012892119 -0.0029324861 -0.007386072 -0.079545185 -0.06502689 -0.034247886 -0.028233904 -0.03032697
-0.06769226 -0.12776047 -0.029338155 -0.08559847 -0.039480712 -0.05632677 -0.10123695 -0.103112295
-0.026919793 -0.03287858 -0.19876654 -0.21056773 -0.23190804 -0.12399287 -0.17416428 -0.18629648
-0.057023115 -0.16395697 -0.096474096 -0.07972438 -0.045072876 -0.039354324 -0.11235405 -0.0853091
-0.019940877 -0.027415449 -0.084823884 -0.011108497 -0.05557011 -0.062415034 -0.16245773 -0.13244891
-0.12032352 -0.060733177 -0.09748779 -0.05436505 -0.04598971 0.024956971 -0.043421995 -0.0073038223
-0.006520813 -0.03786508 -0.043921027 -0.028873902 -0.03275635 0.008073799 -0.08545223 -0.052630104
-0.06658741 -0.042743523 -0.06418745 -0.06772309 -0.08392441 -0.030841919 -0.018374018 -0.028810643
-0.07856862 -0.025895223 -0.09099791 -0.11661657 -0.051516887 -0.090653375 -0.050976876 -0.07050979
-0.08039573 -0.050567362 -0.10617086 -0.018947156 -0.06717564 -0.110626005 -0.0654685 -0.09805432
-0.058818635 -0.031322114 -0.12387493 -0.045800813 -0.08482423 -0.123715125 -0.027139634 -0.099909715
-0.0259248 -0.009810079 -0.08992718 0.020872654 -0.010732587 -0.060446236 0.0020011708 0.026261173
-0.07666953 -0.027993327 0.0013736583 -0.16565923 -0.23133332 -0.20967814 -0.17415895 -0.21942316
-0.19327958 -0.08616189 -0.10898292 -0.15037028 -0.06061222 -0.11296701 -0.06574722 -0.13721018
-0.092981316 -0.09647088 -0.029930245 -0.012324238 -0.021036394 -0.15435024 -0.09737007 -0.15400821
-0.13947456 -0.06524472 -0.10104409 -0.10376612 -0.049483713 -0.016999964 -0.009306711 -0.074830085
0.0010788233 -0.048106343 -0.09449122 -0.009915973 -0.06028946 -0.061982714 0.00572806 -0.059472144
-0.082981415 -0.08240021 -0.047081687 -0.030088414 -0.01878464 -0.03782093 -0.07394367 -0.06552124
-0.056563947 -0.09335823 -0.15008934 -0.05361649 -0.057221733 -0.049411144 -0.14133422 -0.13194865
-0.13276127 -0.12593885 -0.09519944 -0.18766615 -0.11151121 -0.14991051 -0.2083877 -0.123967364
-0.10489383 -0.11517612 -0.06902289 -0.07378439 -0.073958196 -0.08561636 -0.080852166 -0.033694122
-0.0305451 -0.04042132 -0.07770931 -0.09913779 -0.094149165 -0.07789304 -0.10860933 -0.10436772
-0.028006956 -0.09658665 -0.040515926 -0.019341672 0.056731053 0.026546106 -0.0054314137 0.028363151
-0.044123545 0.02503817 0.03901081 0.00513657 -0.0006111282 -0.120857105 -0.15019843 -0.073606044
-0.06495022 -0.07671939 -0.027231714 -0.053651273 -0.06900287 -0.09050669 -0.042223524 -0.034133356
-0.095062055 -0.07144121 -0.051489625 -0.08360546 -0.013153955 -0.013980217 -0.039004866 -0.036175624
-0.09463348 -0.12643954 -0.059185296 -0.0972763 -0.11729824 -0.11456167 -0.089367695 -0.073550776
-0.1348075 -0.061355338 -0.07718513 -0.07645424 -0.10036625 -0.05374029 -0.11730373 -0.08447441
-0.08708901 -0.025283132 0.014367294 -0.007767381 0.056557853 0.018926485 0.002115759 0.010954264
0.08876994 0.084091745 -0.06882676 -0.0073473356 -0.047037035 -0.08486089 -0.0581767 -0.08738112
-0.096420094 -0.036637094 -0.106202565 -0.09253756 -0.07279482 -0.11009277 -0.013845618 -0.100755945
-0.09585004 -0.07127395 -0.10429162 -0.07336479 0.0415516 0.023498988 0.039485585 0.08071817

cnn_layers_max_2.0.bias f4 [32]
00000000: ad85 a5bc b0f9 3cbd 1d2a 99bd 5c81 4bbd
00000010: 3ed6 15bd 6556 68bd ea4d 41bd 0a6e 9bbd
00000020: 2a24 8ebd da3a 75bd a122 a8bd 7a35 6cbd
00000030: 6ba6 d1bd a94a 7dbd bcfa 68bd b90c e4bd
00000040: 5eb6 09bd 67c7 e6bb 2482 2fbd e2ff 9cbd
00000050: e331 acbd f03e 9fbc 7d72 efbd 8e85 f7bd
00000060: 4e90 dfbd 74f5 51bd 212f 27bd cfd7 9abd
00000070: 37e8 6dbd 74c8 b23c 8ff9 b33c daa4 a3bd
-0.020205343 -0.046136558 -0.074787356 -0.049683914 -0.03658127 -0.056723017 -0.047193445 -0.07589348
-0.069404915 -0.05987058 -0.0820973 -0.057668187 -0.1023682 -0.06183878 -0.056879744 -0.11135239
-0.033621185 -0.0070428136 -0.04284872 -0.07665993 -0.08407953 -0.01943919 -0.11691759 -0.120860204
-0.10916196 -0.051259473 -0.04081643 -0.075606935 -0.058082785 0.0218241 0.021969585 -0.07990427

cnn_layers_max_2.1.weight f4 [32]
00000000: 0c9c 2b3f 80c9 113f 361a 133f 0e4e 323f
00000010: 7793 293f 53dd 2d3f 36ee 103f 5eaf 223f
00000020: 6931 143f 94bc 0f3f e18a 0f3f 0d4e 283f
00000030: 72b5 113f d017 0d3f 5f1e 253f b46e df3e
00000040: 9881 173f f81d 213f 7d1d 143f a7c6 1c3f
00000050: 5484 233f cc81 393f 302f 303f c793 0f3f
00000060: 614f 1a3f bad6 1c3f d05e 1f3f bb92 233f
00000070: 4b66 263f cb03 453f 9909 363f 31d1 243f
0.67034984 0.5694809 0.5746187 0.6965035 0.6624064 0.6791584 0.5661348 0.6354884
0.57887894 0.5614712 0.5607129 0.65744096 0.5691749 0.5511446 0.6449947 0.43639147
0.5918212 0.62936354 0.57857496 0.6124062 0.6387379 0.7246368 0.68822 0.56084865
0.6027737 0.61265147 0.6225405 0.6389577 0.64999837 0.7695891 0.71108395 0.643817

cnn_layers_max_2.1.bias f4 [32]
00000000: 447c bfbe 1184 f0be f6ba 03bf 7111 b9be
00000010: b30d afbe b8b1 b9be 7cd0 eabe cb45 f4be
00000020: dc39 dbbe 3d4b e2be ce27 f6be 3842 e7be
00000030: 22c0 eebe cf15 eabe b993 d7be 0401 c3be
00000040: b5de dfbe fd4b b2be 0c43 c2be cc79 f3be
00000050: 2d45 ddbe 7661 9cbe 25df 9fbe 5b10 f6be
00000060: 5b4c f1be 94ca ddbe 329a d9be 82e5 d4be
00000070: cfc1 bebe d30f 46be f71f 9dbe 8cab dfbe
-0.37399495 -0.4697576 -0.51457155 -0.3614612 -0.3419014 -0.362684 -0.45862186 -0.47709498
-0.4281758 -0.44198027 -0.48077244 -0.45167708 -0.4663096 -0.45719764 -0.4210489 -0.38086712
-0.437246 -0.348236 -0.37941778 -0.4755386 -0.4321684 -0.30543107 -0.31224933 -0.48059353
-0.47128567 -0.43318617 -0.42500454 -0.4158135 -0.3725724 -0.19341974 -0.3068845 -0.43685567

cnn_layers_max_2.1.running_mean f4 [32]
00000000: 62dd a3c0 df3e 7dc0 e980 86c0 5d27 d5c0
00000010: 66ef 83c0 71c7 ddc0 f0bb 9ec0 c5a5 aac0
00000020: d725 b0c0 45b2 aac0 fa6d bdc0 770e 8fc0
00000030: ac87 5ac0 5492 c1c0 e9d3 c9c0 42c8 3740
00000040: 45f9 3dc0 a05f a7c0 c5dc a7c0 453d 77c0
00000050: a931 88c0 0efd 9dc0 2876 4dc0 9230 66c0
00000060: 8d1e 48c0 8f8b aec0 bd6e d2c0 ac60 96c0
00000070: c4bd ddc0 fa02 10c1 529e cac0 8d56 bac0
-5.1207743 -3.9569623 -4.203236 -6.661055 -4.1229734 -6.930596 -4.9604416 -5.3327355
-5.504619 -5.3342614 -5.919675 -4.4705157 -3.4145308 -6.0491123 -6.307118 2.8715978
-2.9683392 -5.230423 -5.2456994 -3.8631146 -4.256062 -4.9371405 -3.2103367 -3.5967145
-3.1268647 -5.454536 -6.576018 -4.699301 -6.9294147 -9.000727 -6.331826 -5.8230653

cnn_layers_max_2.1.running_var f4 [32]
00000000: ebd9 1842 5b98 1042 518f 0e42 9632 9c42
00000010: 157c 3542 e603 a742 4538 3842 08ee 4042
00000020: 0d97 5542 8aef 2942 cd94 8042 4eb1 5f42
00000030: 1289 d841 be33 b742 d5f0 b242 e756 7c42
00000040: 1f46 a741 537a 8042 de62 5442 d299 3042
00000050: fb69 6f42 81dc 4a42 d0a3 1d42 04ee 1642
00000060: 2aa8 e341 3e77 4b42 295a 7442 60ed 9342
00000070: 30e1 ec42 0dd5 0a43 4369 a742 8fa2 9142
38.21281 36.148785 35.639957 78.0988 45.371174 83.507614 46.05495 48.232452
53.39751 42.483925 64.29063 55.92315 27.066929 91.60106 89.470375 63.084866
20.909239 64.238914 53.09655 44.150215 59.853497 50.715336 39.409973 37.732437
28.457111 50.866447 61.088047 73.96362 118.43982 138.83223 83.70559 72.8175

linear_layers.0.weight f4 [2, 28800]
00000000: 6174 143d 7775 013d 91f9 e13c a98e 813c
00000010: 9b97 47bc 2b92 34ba 0292 2c3c 50cc 023c
00000020: c82d b93c f610 043d 3e67 093d 2293 623d
00000030: d290 ed3c a3fb ec3c 9095 d13c 7ac5 a33c
00000040: 687a 933c fdd4 0e3c f58e c03b 419c 513c
00000050: 86dc df3c 8448 763c bd7f 903c 21d6 c13c
00000060: 1aeb e83c ba33 b43c ba37 0f3c 5d91 c03c
00000070: fe9e cf3c 8ed3 083d e3d4 003d 8c7c e03c
00000080: 51af 213d 7f25 723c 0df4 feba 4e70 9f3c
00000090: e982 cb3c df6a 75b9 e7f1 e5bb 12e8 c33c
000000a0: c721 833c fb91 233d b625 6c3c 975a 8e3c
000000b0: 4669 ef3c def4 2c3b 0e68 8e3c 5809 c13c
000000c0: 451a e43c 094c b83c 8b74 0f3d e7f2 063d
000000d0: 5d5c f53c 1bee 283d 20d9 ec3c 0634 fa3c
000000e0: 82f2 f73b c956 093d afde f53c c601 de3c
000000f0: a030 833c 86b4 963c d696 1a3d e72f a83c
00000100: c806 6f3c 989a 063d c666 e53c 60ff dcbb
00000110: c1cd 35bc e109 e13b 9693 6f3c 344c c93c
00000120: e9c3 a53b eaf6 8bb9 c68e 363c f2f2 543c
00000130: 9ed3 573c de76 5c3c c49f 643c 9690 603c
00000140: 37a6 073d cf45 c83c fd17 ad3c af40 c43c
00000150: 59a8 413d c01a fe3c bf78 b43b 9e9d d13c
00000160: 462e 183d f9d7 d63c 4c26 703c 650e 033c
00000170: 02be 6e3c 9475 863c d56c 043b aa47 ad3b
00000180: 700c a2bb 0c12 82bc f575 88bc de06 16bc
00000190: da02 ed3b ba0d 153c 3bea e7bb 7358 9bbc
000001a0: 0798 10bc d035 40bc 134d 1dbc 8322 cb3a
000001b0: 5678 3c3b 4983 373b 7e12 373c d9a7 59bb
000001c0: cd26 8cbb cbfa 543b 757c dd3c bb33 8e3c
000001d0: 0427 fd3a bfe6 be3c 3d7b 013d b17a 043d
000001e0: bd0f 093d e895 c03c 4485 043d 91e5 0c3d
000001f0: c4b5 103d 7f65 a23c 87b3 a4bb 9e09 32bc
00000200: 6ca4 89bc 0894 29bc 05fb 1c3c 5710 003b
00000210: 431a 283c 1d72 efb9 cd55 ea3b bb2a 483b
00000220: 75af 933c dc0c 463d 6586 ef3c 482e 103d
00000230: b47d 8f3c c511 c6bb 8cc7 95bb 1b4a 3aba
00000240: 0fb9 833c a4ce 043c 8e7c 54bc 862b c73c
00000250: 0137 013d f884 1f3d b7bf 0c3d 1100 b63c
00000260: 784a ff3c a9ae f23c 4c55 ea3c e206 98bc
00000270: 3e42 a8bc 22d2 4abc 52bf 83bc c6db 603b
00000280: 1b42 c83c 136a 143c eaf9 163c de0e bb3c
00000290: b74e 913c 9a12 7e3b c4d1 bf3c f9b6 2a3d
000002a0: 4a5d 963c c32c 3d3c 48ad 8b3c fcfe 953c
000002b0: 7fad 103c e35e a0bc 6215 253b 5945 193c
000002c0: 8a95 5abc dddf b93c d9bc 113d d75a 0a3d
000002d0: f546 9f3c 84e9 973c 088c d83c 6bfa 9c3c
000002e0: e9bc 55bb 211b 83bc 560e d6bc 42d1 513b
000002f0: 0b97 9a3c c1eb df3c 389a 033d 7c3c 4c3c
00000300: 5116 993c 3b39 093d 54a7 b83c 02c1 c23c
00000310: 0bd2 9c3c 6f42 1a3d a320 dd3c abb5 8e3b
00000320: 2b23 613c 8dd9 bb3c f852 bb3c def4 6a3c
00000330: 2b55 453c 4543 cbba 9ff0 ddbb d5e1 c63c
00000340: d0ce d43c 4f19 893c ec8e 5a3c a013 5f3c
00000350: de87 ce3c 110f 17bc 143a 81bc ae6e 6abc
00000360: 3708 a8bc fed3 c4bc 5bb2 533c 6011 343d
00000370: 1a60 a83c f035 383c cc4a cd3b 504a b53b
00000380: 85bd 163d a817 da3b c043 c9bb eaa2 973c
00000390: 8bb3 db3c a8ac a13c cbbb 433c ddad f03c
000003a0: 6f33 fb3c eba1 1c3c d25c acbc 233b b8bc
000003b0: f563 6fbc 4d3e 063d fa38 ac3c 0ed0 863c
000003c0: e043 2a3c fba6 113c 00a2 1b3c d45e 03bc
000003d0: 2a74 a9bc 15d7 76bc 309c 69bc 4538 0cbd
000003e0: fadb a3bc a38a 5a3b e636 4bbb cf8a d33c
000003f0: 2dd6 ee3c c397 5e3c 1fda 793c 0716 043c
0.0362438 0.031606164 0.027584823 0.015815096 -0.012182142 -0.0006888236 0.010532858 0.007983282
0.022604838 0.032242738 0.033545725 0.055316098 0.02899972 0.028928583 0.025584012 0.019991625
0.018002704 0.008717773 0.005876417 0.0127936015 0.027326833 0.0150319375 0.017639035 0.023661675
0.028432418 0.021997321 0.008741314 0.023506815 0.025344368 0.03340488 0.031453025 0.027403139
0.039473835 0.014779448 -0.0019451395 0.01946273 0.024842696 -0.00023404833 -0.0070173624 0.02391437
0.016007317 0.03993414 0.014413288 0.017377181 0.029225003 0.002639107 0.017383602 0.023564026
0.027844558 0.022497194 0.035023253 0.032946493 0.029951269 0.0412427 0.028912127 0.030542385
0.007566751 0.03353003 0.03001341 0.027100455 0.016014397 0.018396627 0.037741505 0.020530654
0.014589019 0.032862276 0.028003108 -0.0067443103 -0.011096419 0.0068676327 0.01462259 0.02457247
0.0050587547 -0.0002669611 0.011142438 0.012997376 0.013173012 0.0134560745 0.013954107 0.013706347
0.0331175 0.02444735 0.021129603 0.023956625 0.04727969 0.031018615 0.005507558 0.025587853
0.037153505 0.02622603 0.014657568 0.007999037 0.014571669 0.016413487 0.002020647 0.005288084
-0.0049453303 -0.015877746 -0.016657809 -0.009156911 0.007233006 0.009097511 -0.007077483 -0.018963074
-0.008825309 -0.01173158 -0.009600895 0.0015497956 0.002875825 0.0028001836 0.0111738425 -0.0033211617
-0.0042770864 0.0032498117 0.027036885 0.017358651 0.0019313996 0.023303388 0.03161167 0.03234357
0.033462275 0.02350898 0.032353655 0.03439862 0.035329595 0.019823788 -0.005026284 -0.010866551
-0.016802035 -0.010350235 0.009581332 0.001954099 0.0102601675 -0.00045670653 0.0071513415 0.0030543047
0.018028 0.048352107 0.029238889 0.035200387 0.017515995 -0.0060445988 -0.004570907 -0.00071063795
0.016079454 0.008105908 -0.012969149 0.024312746 0.031546596 0.03894517 0.03436252 0.022216829
0.03116344 0.0296243 0.028605126 -0.01855797 -0.0205394 -0.012379201 -0.01608244 0.0034310683
0.024445584 0.009058493 0.009214858 0.022834238 0.01773773 0.0038768412 0.023415454 0.041678403
0.01835503 0.011546317 0.0170504 0.018310063 0.008830427 -0.019576496 0.0025189747 0.009354913
-0.013341317 0.022689754 0.03558049 0.033778038 0.019443015 0.018543966 0.02643396 0.019162377
-0.003261382 -0.016004147 -0.026129883 0.0032015597 0.018870851 0.027334096 0.032129496 0.0124655925
0.0186874 0.033501845 0.022540726 0.023773674 0.019143125 0.037661012 0.026993101 0.0043551526
0.013741295 0.022930885 0.022866711 0.014340607 0.012044231 -0.0015507719 -0.006773069 0.024277607
0.025977522 0.0167357 0.013339739 0.013615519 0.02521127 -0.009219901 -0.015774764 -0.014308615
-0.02051173 -0.024026867 0.012920941 0.043961883 0.020553637 0.011243328 0.00626502 0.0055325404
0.036801834 0.006655652 -0.0061421096 0.0185103 0.026819011 0.01973565 0.011946629 0.02937978
0.030664174 0.009560089 -0.021040354 -0.022489136 -0.014611234 0.03277426 0.021023262 0.01645663
0.010392159 0.008889909 0.009499073 -0.008018214 -0.020685274 -0.015065928 -0.014258429 -0.03423335
-0.020002354 0.0033346794 -0.0031008064 0.025823025 0.029154861 0.0135859875 0.015249758 0.008061892

linear_layers.0.bias f4 [2]
00000000: be98 223e 3fea 24be
0.15878579 -0.16104983
