model/model_archive/mouth.pt (torch, 315390 bytes, 20 tensors)

cnn_layers_max.0.weight f4 [32, 1, 3, 3]
0	0xbeb2dc12	-0.34933525
1	0x3e2a492b	0.16629474
2	0x3c047d3c	0.008086499
3	0xbe330397	-0.17481838
4	0xbe8b89ed	-0.27253667
5	0xbe35267c	-0.17690462
6	0x3da89cf8	0.082330644
7	0x3dedc652	0.11610092
8	0x3e7462c6	0.23865804
9	0xbe91cccc	-0.2847656
10	0xbc8d053e	-0.017214414
11	0x3ce9017d	0.028443092
12	0xbe891468	-0.2677338
13	0xbe890031	-0.2675796
14	0xbe5a1550	-0.21297193
15	0x3bd99f18	0.00664128
16	0xbd9f2ee7	-0.07772618
17	0xbdd934f3	-0.106058024
18	0xbd63cb25	-0.055613656
19	0x3e3fbbf3	0.1872404
20	0xbe8e4dfa	-0.27793866
21	0xbe13df33	-0.14440612
22	0xbd8c86cb	-0.06861647
23	0xbda03b05	-0.07823757
24	0xbe4372a2	-0.19086698
25	0xbe50c879	-0.20388974
26	0xbde61a46	-0.1123548
27	0xbe878c2b	-0.26474127
28	0xbe377cb0	-0.17918658
29	0xbe1de9e1	-0.15421249
30	0xbe96095d	-0.2930402
31	0xbe561df5	-0.20909865
32	0xbe4c1e55	-0.19933446
33	0xbe5dc073	-0.21655445
34	0xbdc8067f	-0.09766864
35	0x3e3b70c3	0.18304734
36	0x3d082d34	0.033246234
37	0x3e5e8f68	0.21734393
38	0x3dbcf7cf	0.09226953
39	0xbe8c7821	-0.274354
40	0xbe428542	-0.18996146
41	0xbe34936d	-0.17634363
42	0xbe89de6d	-0.2692751
43	0x3e8244e0	0.25443172
44	0x3d8c322a	0.068455055
45	0x3e25cfa5	0.16192491
46	0xbdbb5139	-0.09146351
47	0x3dcb01ac	0.09912428
48	0xbe53c2b4	-0.20679742
49	0xbe7551f9	-0.23957051
50	0x3d49f4e6	0.04930582
51	0x3e34d592	0.17659596
52	0x3e087328	0.13325179
53	0xbe2e1ff1	-0.17004372
54	0x3d83fcc6	0.06444697
55	0xbe1d2a18	-0.15348089
56	0xbe8624d6	-0.2619998
57	0x3d5b3502	0.05351735
58	0x3e867e84	0.262684
59	0x3e897a63	0.26851186
60	0xbea8934d	-0.32924882
61	0x3e82123a	0.2540453
62	0xbecf5cf0	-0.40500593
63	0xbea0ed61	-0.31431106
64	0x3e37c494	0.17946082
65	0x3df4555b	0.11930343
66	0x3e541793	0.20712118
67	0x3de167cd	0.110061266
68	0x3e8199ac	0.25312555
69	0xbe88fbd1	-0.2675462
70	0xbd2d05c4	-0.042241827
71	0x3d967938	0.073473394
72	0xbee677b6	-0.45013207
73	0xbe8e7a32	-0.27827603
74	0xbd13537d	-0.035968293
75	0xbe5034d6	-0.20332655
76	0xbe033e8e	-0.12816831
77	0x3de17954	0.1100947
78	0xbea876e4	-0.32903206
79	0x3e0fefa9	0.14056267
80	0xbc87782b	-0.016536793
81	0x3c9268b3	0.01787219
82	0xbe90d809	-0.28289822
83	0x3da8a8ee	0.08235346
84	0xbd647e22	-0.055784352
85	0x3e6abef5	0.22924407
86	0xbe9988d9	-0.2998722
87	0x3dfdbf64	0.123900205
88	0x3e80840d	0.25100747
89	0x3e613fae	0.21996948
90	0x3dc70e10	0.09719479
91	0x3e33f3bd	0.17573448
92	0xbc41a454	-0.011818964
93	0xbe084de3	-0.13310961
94	0x3dfbfd6b	0.12304195
95	0x3e9b11a4	0.30286896
96	0x3e3c0b3b	0.18363659
97	0xbe2dbf3a	-0.16967478
98	0x3d2dc19e	0.042420976
99	0xbe9a9743	-0.3019353
100	0xbca7b402	-0.020471577
101	0x3e2e0d56	0.16997275
102	0xbe83a7ef	-0.2571406
103	0xbe742b41	-0.23844625
104	0x3d2f29b7	0.04276439
105	0xbe906750	-0.2820382
106	0x3d4d9b6d	0.050197054
107	0x3dd2b39d	0.10288165
108	0xbe3c6dd7	-0.18401276
109	0x3bcd00e3	0.006256209
110	0xbd8286df	-0.06373381
111	0xbe656e65	-0.22405393
112	0xbe0dcff5	-0.1384886
113	0xbe59a265	-0.21253355
114	0x3e7c72ff	0.24653243
115	0xbdc080fb	-0.09399601
116	0xbe6713bb	-0.2256612
117	0x3e445682	0.19173625
118	0xbd9d28a6	-0.07673769
119	0xbde7b2f8	-0.113134325
120	0xbde16c6e	-0.110070094
121	0x3e37d08b	0.17950647
122	0xbe42b591	-0.19014575
123	0x3df485a7	0.11939555
124	0xbdc8205a	-0.097717956
125	0x3e8411dd	0.2579488
126	0x3e14560f	0.14485954
127	0xbdf086ba	-0.11744447
128	0x3e24c99a	0.1609253
129	0x3e1bfb3b	0.15232556
130	0x3dd7d7c2	0.105391994
131	0x3c1a3883	0.0094128875
132	0xbec74567	-0.38920137
133	0x3d17b948	0.037041932
134	0xbed1dcb2	-0.4098869
135	0x3e65d17d	0.22443195
136	0x3bda8259	0.0066683707
137	0x3e997481	0.29971698
138	0x3d4e2a01	0.050333027
139	0x3d092c29	0.03348938
140	0xbeb789f3	-0.35847434
141	0xbe962b5a	-0.2932995
142	0x3e9411f8	0.2891996
143	0x3d008c77	0.031383958
144	0xbdcdb52b	-0.10044321
145	0xbd589632	-0.052877612
146	0x3e561754	0.20907336
147	0xbe4405a8	-0.19142783
148	0xbe6d0b18	-0.23148763
149	0xbe0d379a	-0.13790742
150	0x3dc4090b	0.09572037
151	0x3e964760	0.2935133
152	0x3e3a0caf	0.18168901
153	0x3e054af6	0.13016877
154	0x3ea5da33	0.32393035
155	0xbd0b79b1	-0.0340516
156	0x3e8ee1cc	0.27906644
157	0x3d94343c	0.072365254
158	0xbd91fa73	-0.071278475
159	0xbe62b1a6	-0.2213808
160	0x3e07ecfd	0.13273998
161	0xbe16cee3	-0.14727359
162	0x3e1ac9eb	0.15116088
163	0xbc866091	-0.016403468
164	0xbcadba66	-0.021207046
165	0xbebe2713	-0.37139186
166	0x3dd246a5	0.102673806
167	0xbea40f66	-0.32042998
168	0x3e4fc540	0.20290089
169	0x3e491be1	0.19639541
170	0x3d866334	0.0656189
171	0x3e342491	0.17592074
172	0x3dea65ba	0.11445184
173	0xbdff8664	-0.12476805
174	0xbbe5878a	-0.007004683
175	0xbd89ceea	-0.06728919
176	0xbeb18b45	-0.34676567
177	0x3e36b13b	0.17841046
178	0x3e3bd084	0.18341261
179	0x3d94f721	0.072736986
180	0xbe62603b	-0.22107022
181	0xbe926c80	-0.28598404
182	0xbe200560	-0.1562705
183	0x3ddafb67	0.106924824
184	0xbda1f587	-0.07908159
185	0xbe389348	-0.18024933
186	0xbe30ba8b	-0.1725866
187	0x3dcf58d3	0.10124364
188	0xbab42ee1	-0.0013746881
189	0x3cb65070	0.022255152
190	0xbe954a80	-0.291584
191	0xbdec3a84	-0.115345985
192	0xbe6625b5	-0.22475322
193	0x3e8a2728	0.26983
194	0x3e636a02	0.22208408
195	0x3e1451b5	0.14484294
196	0x3e8881b8	0.26661468
197	0xbe3cdf87	-0.18444644
198	0xbe524b1f	-0.20536469
199	0x3e169e36	0.1470879
200	0xbe77cf07	-0.24200068
201	0xbe901098	-0.2813766
202	0x3e92f297	0.28700706
203	0x3dde75ad	0.108622886
204	0x3dc3c624	0.09559277
205	0x3e9d3515	0.3070456
206	0x3d3d8d30	0.046277225
207	0xbea46f77	-0.3211629
208	0xbd19782a	-0.037468113
209	0xbecc36a7	-0.39885446
210	0x3d57153d	0.05251049
211	0x3da7912e	0.08181988
212	0x3c309e20	0.010779887
213	0x3e899354	0.26870215
214	0x3e96a052	0.2941919
215	0x3d2b4984	0.041818157
216	0xbe14f4ea	-0.14546552
217	0x3cc25c3c	0.023725621
218	0xbe4d363e	-0.20040223
219	0xbdc29644	-0.09501317
220	0xbe4b4754	-0.19851428
221	0x3e5a89a1	0.21341564
222	0x3d225599	0.039632414
223	0x3e3de7c7	0.18545447
224	0xbe8e9c73	-0.27853736
225	0xbe87f61f	-0.26554963
226	0xbe5eaa51	-0.21744658
227	0x3e4d1cd2	0.20030525
228	0xbe9dc152	-0.30811554
229	0x3e29a673	0.16567402
230	0xbe6d539a	-0.23176423
231	0xbea666c6	-0.32500285
232	0x3df0a5e2	0.1175039
233	0xbde9ebff	-0.11421966
234	0x3e922436	0.28543252
235	0x3e31d792	0.1736739
236	0xbe31a361	-0.1734748
237	0xbe609e91	-0.21935488
238	0xbe96d137	-0.29456493
239	0x3c097560	0.008389801
240	0xbe9f44b2	-0.31107098
241	0xbe6b8dff	-0.23003386
242	0xbe2871bd	-0.16449638
243	0xbe244756	-0.16042838
244	0x3ecdc1b9	0.4018686
245	0x3dd8d747	0.10587936
246	0x3ea90cd9	0.33017614
247	0xbe9bb4ce	-0.3041138
248	0x3dd9af4e	0.1062914
249	0x3e5d01a4	0.21582657
250	0x3dbdb32a	0.092626885
251	0xbd8c8ba2	-0.0686257
252	0xbddfd0aa	-0.109284714
253	0x3cf80afb	0.030278673
254	0xbe109789	-0.14120306
255	0xbd8360f9	-0.064149804

cnn_layers_max.0.bias f4 [32]
0	0x3c54628b	0.012962948
1	0xbc963ef1	-0.01834056
2	0xbd019dad	-0.031644512
3	0xbd0e693f	-0.03476834
4	0xbc935d2b	-0.017988762
5	0x3ce59393	0.02802447
6	0x3d98e7f0	0.074661136
7	0x3bd76803	0.0065736785
8	0xbd0b7d37	-0.03405496
9	0x3c66d8e2	0.014089795
10	0x3cbaad9c	0.022787862
11	0xbc3f0725	-0.011659418
12	0xbd020e38	-0.03175184
13	0x3d4c25ad	0.049840618
14	0xbccd4e65	-0.025061795
15	0xbc46d943	-0.01213676
16	0x3c922cbd	0.017843598
17	0x3c8aad3f	0.016928313
18	0x3b8b759c	0.0042559635
19	0x3d0d8f30	0.034560382
20	0xbce99f32	-0.028518293
21	0x3b941731	0.004519366
22	0x3c204f3a	0.009784514
23	0x3cbfec26	0.023428034
24	0x3cc72183	0.024307972
25	0xbcfbd988	-0.030743375
26	0xbd1fc425	-0.039005417
27	0xbb2800e2	-0.0025635292
28	0xbd2d85fd	-0.04236411
29	0x3cf992b0	0.030465454
30	0xbd15540b	-0.036457103
31	0xbcc7c15b	-0.024384191

cnn_layers_max.1.weight f4 [32]
0	0x3f87f175	1.0620562
1	0x3f762798	0.96154165
2	0x3f6aca40	0.9171486
3	0x3f6f5bc4	0.934994
4	0x3f8ba231	1.0908872
5	0x3f8249e4	1.01788
6	0x3f871c23	1.0555462
7	0x3f6a0fac	0.91430163
8	0x3f6f606a	0.9350649
9	0x3f86d42c	1.05335
10	0x3f722372	0.94585335
11	0x3f767b44	0.9628184
12	0x3f767e9a	0.9628693
13	0x3f7c86f1	0.98643404
14	0x3f7e97b6	0.9945024
15	0x3f7a246d	0.9771183
16	0x3f8737c7	1.0563897
17	0x3f676e7d	0.90402967
18	0x3f78fee9	0.9726396
19	0x3f897b84	1.0740819
20	0x3f76bc84	0.963814
21	0x3f95d28d	1.170488
22	0x3f68ae9b	0.90891427
23	0x3f8b65ba	1.089042
24	0x3f6b98e4	0.9203017
25	0x3f712572	0.9419776
26	0x3f6e58ac	0.9310405
27	0x3f74b187	0.95583385
28	0x3f6f6b80	0.93523407
29	0x3f761385	0.96123534
30	0x3f613d5f	0.8798427
31	0x3f784fce	0.9699677

cnn_layers_max.1.bias f4 [32]
0	0xbdb129e9	-0.08650572
1	0xbcfd40d1	-0.030914696
2	0xbddccb36	-0.10780947
3	0xbd8c7262	-0.06857754
4	0xbd504d4b	-0.050854962
5	0xbdb5caea	-0.088765934
6	0xbe099808	-0.13436902
7	0xbcaaacfc	-0.020834439
8	0xbd914fcc	-0.07095298
9	0xbd2634ad	-0.04057758
10	0x3d4e9280	0.050432682
11	0xbd6b3057	-0.057419147
12	0xbdafb063	-0.08578565
13	0x3d5d2201	0.053987507
14	0xbda460dd	-0.08026288
15	0xbce6e505	-0.028185377
16	0x3d976089	0.073914595
17	0x3b4c6206	0.0031186356
18	0xbd8e65b4	-0.06952992
19	0x3c9d9788	0.019237295
20	0xbd101947	-0.035180356
21	0xbdda2e4d	-0.106533624
22	0xbd68bb02	-0.05681897
23	0xbd264bc1	-0.04059959
24	0xbd4929b5	-0.04911204
25	0xbda7eaf7	-0.08199113
26	0xbd2dafe4	-0.04240407
27	0xbd65f12d	-0.056138206
28	0xbdcab25e	-0.09897302
29	0xbe0d8def	-0.13823675
30	0xbdc91652	-0.098187104
31	0xbd1dc427	-0.038517144

cnn_layers_max.1.running_mean f4 [32]
0	0x3cb895a7	0.022532297
1	0xbf1750e9	-0.59107834
2	0xbf073ecd	-0.528302
3	0xbf36b8df	-0.7137584
4	0xbc083b3d	-0.008314905
5	0xbe034107	-0.12817775
6	0xbe573dbf	-0.21019648
7	0x3e3ffd6a	0.18749014
8	0xbf166293	-0.5874416
9	0x3d932bba	0.071860746
10	0x3e5c759b	0.21529238
11	0xbf00be27	-0.5029015
12	0xbefaa09d	-0.48950663
13	0x3d0bdb4e	0.034144692
14	0xbd5464da	-0.051853992
15	0x3e3635b3	0.17793922
16	0x3cf4e8d7	0.029896183
17	0x3ddd96ae	0.108197555
18	0xbd02531e	-0.031817548
19	0x3d97a05a	0.074036315
20	0xbee7cf0d	-0.45275155
21	0x3d914c85	0.07094673
22	0x3e0bb8fe	0.13644788
23	0x3bd47583	0.006483735
24	0xbe77dda1	-0.24205638
25	0xbf05d2fc	-0.5227506
26	0xbf023e71	-0.5087653
27	0x3e94b21a	0.2904213
28	0xbed152b6	-0.40883416
29	0xbe803883	-0.25043115
30	0xbedd59a5	-0.43232456
31	0xbf7d9f7f	-0.99071497

cnn_layers_max.1.running_var f4 [32]
0	0x3bf4d7d2	0.007472017
1	0x3de36b13	0.11104407
2	0x3dc3540a	0.095375136
3	0x3e2566fe	0.1615257
4	0x3bf7b83f	0.0075598056
5	0x3c203ca9	0.0097800875
6	0x3cb4da71	0.022076817
7	0x3c995183	0.018715626
8	0x3def4aba	0.11684175
9	0x3c1f7bd2	0.009734111
10	0x3ca4b4ee	0.020105805
11	0x3db29a35	0.08720819
12	0x3daaf58f	0.08347618
13	0x3bf0974b	0.0073422543
14	0x3c12a201	0.008949758
15	0x3c776b13	0.015101212
16	0x3bf7f41d	0.0075669424
17	0x3c4a053e	0.012330351
18	0x3c0668b6	0.008203676
19	0x3c113640	0.008863032
20	0x3d911514	0.070840985
21	0x3c0a8349	0.008454152
22	0x3c5394a6	0.0129138585
23	0x3c103b84	0.008803252
24	0x3ce1bb2b	0.027555069
25	0x3dc21f8d	0.09478674
26	0x3db3de43	0.087826274
27	0x3cfc68e7	0.03081174
28	0x3d70218d	0.058625747
29	0x3d054d94	0.032544687
30	0x3d88290c	0.06648454
31	0x3e982821	0.29718116

cnn_layers_avg.0.weight f4 [32, 32, 3, 3]
0	0xbd346757	-0.044043865
1	0xbd3975e8	-0.04527846
2	0xbd9734b6	-0.07383101
3	0xbb58a76f	-0.0033058783
4	0xbc8216c0	-0.015879989
5	0x3c977391	0.018487724
6	0xbd648ff0	-0.055801332
7	0x3b924d27	0.0044647637
8	0xbcafb62a	-0.021449167
9	0x3c44f72d	0.012021822
10	0x3dc12ff4	0.094329745
11	0x3ce1725c	0.027520351
12	0x3db569a9	0.08858044
13	0x3db489a1	0.08815313
14	0x3d8d4f78	0.06899923
15	0x3df05023	0.11734035
16	0x3dd61317	0.1045286
17	0x3ddcbc56	0.1077811
18	0x3d312537	0.04324838
19	0x3d9b67b0	0.07588136
20	0x3df20fe4	0.11819437
21	0x3dc6e894	0.097123295
22	0x3df018fc	0.117235154
23	0x3de96221	0.1139567
24	0x3db0f95f	0.08641314
25	0x3de19c11	0.110160954
26	0x3dd4fbe3	0.10399606
27	0x3de097f6	0.10966484
28	0x3d7c0559	0.061528537
29	0x3db4368f	0.08799469
30	0x3df1df25	0.118101396
31	0x3da3d07e	0.07998751
32	0x3db6b5d2	0.08921398
33	0x3df68da6	0.12038736
34	0x3d33676a	0.043799795
35	0x3d6368d0	0.05551988
36	0x3bf47af1	0.007460945
37	0xbd08405b	-0.0332645
38	0xbcbd7998	-0.02312927
39	0xbd795f0b	-0.060881656
40	0xbc588204	-0.013214592
41	0xbc3cd5ef	-0.011525615
42	0xbc8ad06e	-0.01694509
43	0x3cb6f565	0.02233381
44	0xbd603e6b	-0.054747026
45	0xbd29c6b9	-0.041449282
46	0xbd56c447	-0.05243328
47	0xbd9a9605	-0.07548145
48	0xbdb56bb4	-0.08858433
49	0x3c88226a	0.016617972
50	0xbd8f7fd2	-0.07006802
51	0x3c0ff19a	0.00878563
52	0x3cec361d	0.028834397
53	0xbcbe731e	-0.023248252
54	0xbd7f2b4e	-0.062297158
55	0x3c096cde	0.008387772
56	0xbce8e072	-0.028427336
57	0xbc7745a2	-0.015092285
58	0xbcd83c64	-0.026395984
59	0xbce21ca0	-0.02760154
60	0x3ce9f0c4	0.028557189
61	0x3d7c9e89	0.06167463
62	0x3c9ddd42	0.019270543
63	0xbd75d6d2	-0.06001932
64	0xbd8df4cd	-0.06931458
65	0xbd22e616	-0.03977021
66	0xbcb53b7c	-0.02212309
67	0xbdc2b716	-0.09507577
68	0xbd7e1add	-0.062037338
69	0xbd8ea923	-0.06965854
70	0xbcd169d1	-0.025563153
71	0x3bda6660	0.006665036
72	0x3de4a5e8	0.111644566
73	0x3c0e311a	0.008678699
74	0x3de122e8	0.10992986
75	0x3cf166f2	0.029468033
76	0x3cc886d6	0.024478357
77	0x3ca25e55	0.019820372
78	0x3dba67e3	0.09101846
79	0x3d2c1903	0.04201604
80	0x3d7821e8	0.06057921
81	0xbd07c2dd	-0.03314482
82	0x3ace3c7f	0.0015734582
83	0xbd63b74d	-0.05559473
84	0x3d922a05	0.07136921
85	0x3d206dba	0.039167143
86	0x3aea83c7	0.0017892056
87	0x3d7c5f05	0.061614055
88	0x3cb5d0ad	0.02219423
89	0x3d12acf8	0.035809487
90	0xbcdeffed	-0.027221644
91	0xbd1704c9	-0.036869798
92	0xbd9a9a46	-0.075489566
93	0xbd0492c1	-0.032366518
94	0xbc0db26a	-0.008648494
95	0xbd4d8962	-0.050179847
96	0xbd3dc5ec	-0.04633133
97	0xbbe196fd	-0.0068844543
98	0xbde61f7a	-0.112364724
99	0x3dd88c58	0.105736434
100	0x3ddf8b22	0.10915209
101	0x3d6fa194	0.058503702
102	0x3d2ab1dc	0.041673526
103	0x3d670088	0.05639699
104	0x3d93b997	0.07213133
105	0x3d81b437	0.063332014
106	0x3d2beaf4	0.041972116
107	0x3dd719c6	0.10502963
108	0x3dec5459	0.115395255
109	0x3d8db1c6	0.06918673
110	0x3db87f5e	0.09008668
111	0x3c330cb4	0.010928322
112	0x3d89aa40	0.06721926
113	0x3ddfb4c1	0.10923148
114	0x3d85db1e	0.06535934
115	0x3d491234	0.049089625
116	0x3dcb9955	0.09941355
117	0xbd525059	-0.051346157
118	0xbc5bdb11	-0.013418929
119	0xbceaa895	-0.02864484
120	0xbd7b42d9	-0.061343048
121	0xbbec56de	-0.007212504
122	0xbd2063f5	-0.039157826
123	0xbd412083	-0.047150146
124	0xbd453283	-0.048143875
125	0xbcd7f19e	-0.02636033
126	0x3bd392d4	0.0064567123
127	0x3b10b04d	0.002207774
128	0xbd9ebaad	-0.07750449
129	0x39966158	0.00028682756
130	0xbce1048e	-0.027467992
131	0xbceccb29	-0.028905468
132	0xbda54eda	-0.0807168
133	0xbd9a836d	-0.07544599
134	0xbda027b9	-0.078200765
135	0xbc9e18e6	-0.019298982
136	0xbce84577	-0.028353436
137	0xbd9f56e0	-0.07780242
138	0x3c42fcf2	0.011901127
139	0xbd15c0cb	-0.036560815
140	0xbbdd718e	-0.0067579215
141	0xbd03c37f	-0.03216886
142	0xbcbd2f07	-0.023093713
143	0xbba6e2fa	-0.0050929757
144	0xbcfcebde	-0.030874189
145	0x3cb1301b	0.021629384
146	0xbd93c004	-0.072143584
147	0x3a69cdb7	0.00089188985
148	0xbd33dd4c	-0.043912217
149	0xbd47d3ca	-0.048785962
150	0x3caea83a	0.021320451
151	0x3aee92d3	0.0018201716
152	0xbdc0ec91	-0.094201215
153	0xbdd0d13b	-0.101961575
154	0x3c3a8c64	0.011386011
155	0xba85ec4e	-0.0010217519
156	0xbd516977	-0.05112597
157	0xbda2d2ee	-0.07950388
158	0xbd2b9864	-0.041893378
159	0xbbc08b60	-0.00587599
160	0xbd4b80af	-0.04968327
161	0xbbaeee54	-0.0053384695
162	0xbd1b9563	-0.037984263
163	0xbd52fbc1	-0.051509622
164	0xbd49afba	-0.04923985
165	0xbccecbb4	-0.025243618
166	0x3d206a66	0.03916397
167	0x3d562b33	0.05228729
168	0x3c417615	0.011807938
169	0xbbd23ebf	-0.0064161713
170	0x3d8b2196	0.067935154
171	0x3ca2d126	0.01987512
172	0xbd4b3b0c	-0.04961686
173	0xbb300ce7	-0.002686316
174	0xbc80a261	-0.015702428
175	0xbbe7ac5a	-0.0070701065
176	0x3d044471	0.032291833
177	0xbadc9507	-0.0016829082
178	0x3cca4c6f	0.02469465
179	0x3d1aaa8b	0.0377603
180	0x3cdd00f5	0.026977995
181	0x3dd04db1	0.101710685
182	0xbab0343e	-0.0013443304
183	0x3d7f51ff	0.062334057
184	0x3d372526	0.044713162
185	0x3d5113c7	0.05104425
186	0x3daa8bcd	0.08327446
187	0x3dc5a302	0.09650232
188	0x3de03139	0.109468885
189	0xbdbd16b8	-0.09232849
190	0xbd58435d	-0.052798618
191	0xbdaee72a	-0.08540185
192	0xbcd5a6c1	-0.026080491
193	0xbd27b107	-0.04094031
194	0xbd0a3957	-0.03374609
195	0xbd3ebecb	-0.046568673
196	0xbb31e397	-0.002714371
197	0xbc50cdae	-0.01274435
198	0xbc762a3d	-0.015024719
199	0x3b96c18b	0.004600709
200	0xbd70e49f	-0.05881178
201	0x3cb62443	0.022234088
202	0xbd981eaf	-0.074277274
203	0x3ba65312	0.0050758207
204	0x3d272af8	0.040812463
205	0xbd5b046b	-0.05347101
206	0x38cd194f	9.779876e-05
207	0xbd53014d	-0.051514912
208	0xbc1dcf74	-0.00963198
209	0x39917825	0.0002774607
210	0xbca56fcb	-0.020194909
211	0xbdb7cb86	-0.08974366
212	0xbd193aa8	-0.037409455
213	0xbd694d79	-0.05695865
214	0xbc27561c	-0.010213401
215	0xbc607333	-0.013699341
216	0x3c752e5d	0.014964667
217	0xbbc9521d	-0.006143822
218	0xbc3471ee	-0.011013491
219	0x3b470a61	0.0030371177
220	0x3c569fd2	0.013099628
221	0xbda7f3ae	-0.08200775
222	0x3c63e365	0.013909196
223	0xbd38bc08	-0.045101196
224	0xbd41bf6f	-0.047301706
225	0x3cb91bc8	0.022596255
226	0x3c931cee	0.01795813
227	0x3dcd9a6d	0.1003922
228	0x3dea9861	0.11454845
229	0x3d404dda	0.046949245
230	0x3d83e53a	0.06440206
231	0x3d1d469e	0.038397424
232	0x3dec120b	0.11526879
233	0x3dd88c44	0.105736285
234	0x3ce9d64e	0.028544571
235	0x3e02fa59	0.12790813
236	0x3dcb3cd1	0.09923709
237	0x3d612408	0.054966003
238	0xbc8282aa	-0.015931446
239	0x3dcb2ff4	0.09921256
240	0x3dd78289	0.105229445
241	0x3d1d2c90	0.038372576
242	0x3de58d14	0.11208549
243	0xbdadf5b3	-0.08494129
244	0xbdd5105e	-0.104035124
245	0xbbc28f3e	-0.005937486
246	0xbc5eee48	-0.013606615
247	0xbdda39e5	-0.10655574
248	0xbd044cb3	-0.03229971
249	0xbd64f05b	-0.055893283
250	0xbd9e7baa	-0.07738431
251	0xbd4464fd	-0.047947872
252	0x3c41f981	0.0118392715
253	0x3cb01494	0.021494187
254	0x3d552632	0.05203838
255	0x3dae8ed8	0.08523339

cnn_layers_avg.0.bias f4 [32]
0	0x3cd1a340	0.025590539
1	0x3db4ec93	0.088341855
2	0xbd8b66f1	-0.06806744
3	0x3d442605	0.04788782
4	0xbd070900	-0.032967567
5	0x3b880758	0.004151266
6	0x3d12bf8e	0.035827212
7	0xbd1ec415	-0.038761217
8	0xbdef40f1	-0.116823085
9	0xbcb9eee2	-0.022696916
10	0xbe3ce3b5	-0.18446238
11	0x3d15a96f	0.036538538
12	0x3e0e1973	0.13876896
13	0xbd91cdd8	-0.0711934
14	0x3c8ca7bc	0.017169826
15	0xbcd285a7	-0.025698496
16	0xbdcd2479	-0.10016722
17	0xbd25237e	-0.04031705
18	0xbd420c31	-0.047374908
19	0xbc040334	-0.008057404
20	0xbd41b51d	-0.047291864
21	0xbd79e780	-0.06101179
22	0xbd1465ee	-0.03623002
23	0xbc9afafe	-0.01891851
24	0x3c79a169	0.015236237
25	0x3ccab443	0.024744159
26	0xbdb53662	-0.08848263
27	0xbd43264b	-0.04764394
28	0xbd400610	-0.04688078
29	0xbdc5186b	-0.09623798
30	0xbdf14b87	-0.11781984
31	0xbe0c2646	-0.13686475

cnn_layers_avg.1.weight f4 [32]
0	0x3f685347	0.9075207
1	0x3f828eaf	1.0199794
2	0x3f703ca7	0.9384255
3	0x3f7c5e47	0.98581356
4	0x3f7d039d	0.9883364
5	0x3f81b05c	1.0131946
6	0x3f75f4b0	0.9607649
7	0x3f805c6a	1.0028203
8	0x3f83327a	1.0249779
9	0x3f7ecfda	0.99535906
10	0x3f4a6743	0.79063815
11	0x3f7af5ee	0.9803151
12	0x3f813da2	1.0096934
13	0x3f645517	0.89192337
14	0x3f731243	0.9494974
15	0x3f693402	0.9109498
16	0x3f4a9286	0.7912983
17	0x3f6d2bfd	0.92645246
18	0x3f756507	0.9585728
19	0x3f5d76b0	0.8650923
20	0x3f7325e0	0.9497967
21	0x3f5af15b	0.8552453
22	0x3f71c15e	0.9443568
23	0x3f78ddb7	0.9721331
24	0x3f803d33	1.0018677
25	0x3f79f7d2	0.9764377
26	0x3f63f253	0.8904163
27	0x3f784e3f	0.96994394
28	0x3f5ac3f8	0.85455275
29	0x3f55f0f4	0.8357079
30	0x3f67b527	0.9051079
31	0x3f5ffdd6	0.874967

cnn_layers_avg.1.bias f4 [32]
0	0xbc93821b	-0.018006375
1	0x3d8a476e	0.067519054
2	0xbd95eb70	-0.07320297
3	0x3c256a9a	0.010096217
4	0xbdb7c9db	-0.08974048
5	0xbd16f80f	-0.03685766
6	0x3cfe669a	0.031054784
7	0xbd36114c	-0.04445009
8	0xbd38311a	-0.044968702
9	0xbdd292f3	-0.102819346
10	0xbe84fa26	-0.25972098
11	0xbd1c1d31	-0.038113777
12	0x3dfa1f4a	0.12212999
13	0xbdc22683	-0.09480002
14	0xbd61d7ea	-0.055137552
15	0xbda8669d	-0.08222697
16	0xbe094f40	-0.13409138
17	0xbd97bcb7	-0.074090414
18	0xbd93aa93	-0.07210269
19	0xbdceec7c	-0.101036996
20	0xbe373eff	-0.17895125
21	0xbde5a116	-0.11212365
22	0xbcd23217	-0.02565865
23	0xbdb7fd32	-0.0898384
24	0xbcc96bc5	-0.024587521
25	0xbd182507	-0.037144687
26	0xbd680aa7	-0.056650784
27	0xbdac9dfd	-0.084285714
28	0xbdeaa9d6	-0.11458175
29	0xbe35b330	-0.17744136
30	0xbd66822b	-0.05627648
31	0xbd998246	-0.07495551

cnn_layers_avg.1.running_mean f4 [32]
0	0x3ef0ab0c	0.47005498
1	0x40013d2f	2.0193594
2	0x40b59ea1	5.675614
3	0x3f846ee1	1.0346338
4	0x40ca7086	6.326236
5	0x40a54b99	5.165478
6	0x40c1312a	6.0372515
7	0x40b31ac2	5.5970163
8	0x40ad7ce4	5.4214954
9	0x40cf5c84	6.4800434
10	0x3fa7274b	1.3058866
11	0x406e77e7	3.7260683
12	0x40bb4032	5.8515863
13	0xc09bf94d	-4.874182
14	0x405c1922	3.439034
15	0x406a70b0	3.663128
16	0xc0b965ad	-5.7936616
17	0x40b97535	5.7955575
18	0x40ad2919	5.411267
19	0x3f921b92	1.1414664
20	0x40a75d14	5.230112
21	0xbe921f04	-0.28539288
22	0x40d61e3a	6.69119
23	0x40bcd8eb	5.9014792
24	0x40ce86cd	6.453955
25	0x403e5fa9	2.9745886
26	0xbf93b865	-1.1540648
27	0x40bb43bd	5.852019
28	0xc07c5ac8	-3.9430408
29	0xc0377341	-2.8664095
30	0xc05341d8	-3.3008938
31	0xc0e70e0b	-7.220464

cnn_layers_avg.1.running_var f4 [32]
0	0x4207b3a8	33.925446
1	0x41eceb37	29.614851
2	0x41b6c4fa	22.84618
3	0x41acd84e	21.605618
4	0x419d1956	19.637371
5	0x414802b6	12.500662
6	0x4141db72	12.1160755
7	0x4198b2ad	19.087244
8	0x4169988f	14.599746
9	0x41a255b0	20.29184
10	0x41fa40a3	31.28156
11	0x420e14cc	35.52031
12	0x41a9d4b9	21.228868
13	0x4154dae1	13.303437
14	0x418a626e	17.298061
15	0x41a673f7	20.806623
16	0x4190c28a	18.09499
17	0x411650fe	9.3947735
18	0x4118eb0c	9.5573845
19	0x41d6b758	26.839523
20	0x41222913	10.135028
21	0x420f3f11	35.81159
22	0x4139e18d	11.617566
23	0x4184e3ba	16.611195
24	0x4138df0d	11.554456
25	0x41c53cd5	24.654703
26	0x4188d339	17.103136
27	0x411f27fb	9.947261
28	0x41974bc0	18.911987
29	0x40d16271	6.543267
30	0x41d416ad	26.511072
31	0x4165d572	14.364611

cnn_layers_max_2.0.weight f4 [32, 32, 3, 3]
0	0xbd8c6f3d	-0.068571545
1	0xbdbe5d30	-0.09295118
2	0xbdbcdfea	-0.09222396
3	0xbe001d90	-0.12511277
4	0xbd75a02c	-0.059967205
5	0xbde1fd4a	-0.11034639
6	0xbda9c42d	-0.08289371
7	0xbe013cba	-0.12620822
8	0xbd1cf005	-0.038314838
9	0xbd20c236	-0.039247714
10	0xbd25d155	-0.040482838
11	0xbc8d93dc	-0.017282419
12	0xbb0e81c3	-0.0021744824
13	0xbd65fc7c	-0.05614899
14	0xbd11a76d	-0.03556006
15	0xbd93a281	-0.072087295
16	0xbcd9da9d	-0.0265935
17	0xbd9e81bf	-0.07739591
18	0xbd04b436	-0.032398425
19	0xbd8dc088	-0.06921488
20	0xbcca2eb3	-0.024680471
21	0xbd7f3c18	-0.06231317
22	0xbc2d36ec	-0.010572176
23	0x3a78a2db	0.00094847166
24	0xba7691f8	-0.00094059063
25	0xbdc5166e	-0.09623419
26	0xbcd4e3f1	-0.025987597
27	0x3d7427ec	0.059608385
28	0xbbecf3b0	-0.0072311983
29	0x3d0265b5	0.031835277
30	0x3cbcac6f	0.023031441
31	0xbb9c4c49	-0.004769836
32	0x3cf5b0b3	0.029991483
33	0xbbf6a602	-0.007527114
34	0x3b8d7158	0.00431649
35	0xbc4fb1af	-0.01267664
36	0xbdb812f7	-0.08987992
37	0xbe0c08d5	-0.13675244
38	0xbdd68ef6	-0.104764864
39	0xbdc41f1c	-0.09576246
40	0xbe136415	-0.14393647
41	0xbda5bcdd	-0.080926634
42	0xbe044286	-0.12916002
43	0xbd5596fd	-0.052145947
44	0xbe04a7f5	-0.12954696
45	0x3c993ba9	0.018705206
46	0x3d792e31	0.060835067
47	0x3c21e430	0.009881064
48	0x3d975452	0.0738913
49	0x3dc64903	0.09681895
50	0x3d6c8678	0.057745427
51	0x3c9585ed	0.018252337
52	0x3dd5ec94	0.10445514
53	0x3dcd4707	0.10023313
54	0xbb805d08	-0.00391734
55	0xbca8e783	-0.020618206
56	0x3d536072	0.05160565
57	0x3c99f1c7	0.018792046
58	0xbd260633	-0.040533256
59	0x3c8a258e	0.01686361
60	0xbba293cd	-0.004961467
61	0xbda0e952	-0.07857002
62	0xbd71b390	-0.059009135
63	0xbdfb3ed0	-0.1226784
64	0xbde5233b	-0.1118836
65	0xbdd89db7	-0.10576957
66	0xbd9f258f	-0.077708356
67	0xbddb9b25	-0.10722951
68	0xbdab9b70	-0.08379257
69	0xbdaa41c7	-0.08313327
70	0xbc931707	-0.017955316
71	0xbda63575	-0.08115665
72	0xbdb10d91	-0.08645166
73	0xbe02633b	-0.12733166
74	0xbde60fce	-0.11233483
75	0xbd9bcfb4	-0.076079756
76	0xbd98fa97	-0.07469671
77	0xbd0b673b	-0.034033995
78	0xbc4b27cc	-0.012399625
79	0xbd6dc3bb	-0.05804799
80	0xbdbf0e3f	-0.09328889
81	0xbd1ab1fc	-0.037767395
82	0xbd6ef04b	-0.05833463
83	0xbd8b85f6	-0.068126604
84	0xbe0fe3a6	-0.14051685
85	0xbe07682e	-0.13223335
86	0xbdac0931	-0.084001906
87	0xbd8e75a1	-0.0695603
88	0xbceef688	-0.02917029
89	0xbde38e61	-0.11111141
90	0x3da79f1a	0.08184643
91	0x3cbffc08	0.023435608
92	0x3d9237b4	0.07139531
93	0x3caa7bdd	0.020811016
94	0x3d59b772	0.053153463
95	0x3d35e864	0.044411078
96	0x3c819cb0	0.015821785
97	0xbd9209a8	-0.07130748
98	0xbdab21ce	-0.08356057
99	0xbc843069	-0.016136365
100	0x3c88a8ef	0.016682116
101	0x3ccd1859	0.025036024
102	0x3ca1c956	0.019749325
103	0xbc052d8b	-0.008128534
104	0x3c052000	0.008125305
105	0xbcedd363	-0.029031461
106	0xbcd6ad0f	-0.026205568
107	0x3d26997c	0.040673718
108	0xbe1141f8	-0.14185321
109	0xbdff296a	-0.12459071
110	0xbe1df9c4	-0.1542731
111	0xbe3db5e0	-0.18526411
112	0xbe23d3a1	-0.15998699
113	0xbe236135	-0.1595505
114	0xbd9b4826	-0.075821206
115	0xbdfce4cf	-0.12348329
116	0xbdf4217c	-0.11920449
117	0xbd712939	-0.058877204
118	0x3be4976a	0.006976058
119	0xbcdca3b5	-0.02693353
120	0xbd933cb7	-0.07189315
121	0xbd70ba3c	-0.058771357
122	0x3c41aeca	0.011821458
123	0xbcc021af	-0.023453562
124	0xbd38a187	-0.04507592
125	0xbc0834ce	-0.008313371
126	0xbce4d9fa	-0.02793597
127	0x3cded1f9	0.027199732
128	0x3d67b495	0.0565687
129	0x3da37038	0.079803884
130	0x3d140205	0.03613474
131	0xbca11a8e	-0.019665983
132	0x3d9b5e14	0.07586303
133	0xbb9bda05	-0.0047562146
134	0x3bb0e19a	0.0053979876
135	0xbcdab822	-0.02669913
136	0xbe064959	-0.13113917
137	0xbdb0a5c3	-0.086253665
138	0xbceaa21f	-0.028641758
139	0xbd3ff945	-0.04686858
140	0xbcb70962	-0.022343341
141	0xbc93c71b	-0.018039277
142	0xbca5417d	-0.020172829
143	0xbd23f05a	-0.04002414
144	0xbd16e187	-0.036836173
145	0xbdb931e8	-0.09042722
146	0xbd81c768	-0.06336862
147	0xbda1456e	-0.07874571
148	0xbccfb520	-0.025354922
149	0xbdb62142	-0.08893062
150	0xbd6253ba	-0.05525563
151	0xbd94bb07	-0.07262235
152	0xbd76afaa	-0.06022612
153	0x3be3be6e	0.006950191
154	0x3d547ca6	0.051876687
155	0x3dc79080	0.09744358
156	0xbb238aff	-0.0024954674
157	0x3d6ac588	0.057317287
158	0x3ced4e9b	0.028968146
159	0xbba13dbd	-0.00492069
160	0x3da9b0cf	0.08285677
161	0x3cc156ab	0.023600897
162	0x3bd66a11	0.006543406
163	0xbad03097	-0.0015883622
164	0x3d70dc99	0.05880413
165	0x3dcbc13f	0.09948968
166	0x3cf5361b	0.029933026
167	0x3c08c555	0.008347829
168	0x3cbbda84	0.022931345
169	0x3d9060cc	0.070497125
170	0x3d04aeec	0.03239338
171	0xbdf00cbf	-0.11721181
172	0xbdfb9e4f	-0.12286054
173	0xbd444c32	-0.047924228
174	0xbdb85b54	-0.090017945
175	0xbb71e2ea	-0.0036908933
176	0xbccb3556	-0.024805706
177	0xbda3f50f	-0.080057256
178	0xbda67a2e	-0.08128773
179	0xbb9c7294	-0.004774401
180	0x3d886119	0.06659145
181	0x3d4518a9	0.04811922
182	0x3cbbc467	0.0229208
183	0x3d8518c0	0.06498861
184	0x3e089913	0.13339643
185	0x3dbeb223	0.09311321
186	0x3da13f7b	0.07873436
187	0x3db58710	0.08863652
188	0x3de57d6f	0.11205565
189	0xbd0041b7	-0.03131267
190	0xbca9048b	-0.02063205
191	0xbda8f464	-0.08249739
192	0xbd9dbf44	-0.07702497
193	0xbd796dfe	-0.060895912
194	0xbd55e560	-0.052220702
195	0x3c0c0f2c	0.008548539
196	0xbdd233e7	-0.10263806
197	0xbb18e348	-0.002332883
198	0x3ce0ecbf	0.02745664
199	0x3ce5272f	0.027972786
200	0x3bfb8e0e	0.0076768463
201	0x3d6fa00e	0.05850225
202	0xbb22e34c	-0.0024854718
203	0x3dce0797	0.100600414
204	0x3d2b1b89	0.041774306
205	0x3d828a4f	0.063740365
206	0x3dafa5d6	0.085765526
207	0xbd2b1020	-0.041763425
208	0xbdcf8803	-0.10133364
209	0xbe255ffb	-0.16149895
210	0xbdfc034e	-0.12305318
211	0xbe1c3bdd	-0.15257211
212	0xbddd459a	-0.10804291
213	0xbd732e3c	-0.059370264
214	0xbddb2029	-0.106994934
215	0xbda1cb56	-0.079001114
216	0x3ca99e19	0.02070527
217	0xbd477290	-0.04869324
218	0x3b341dba	0.0027483539
219	0xba0c1714	-0.0005344015
220	0xbc862c20	-0.016378462
221	0x3cd3dbb8	0.025861606
222	0x3d1e9177	0.038712945
223	0x3b76e088	0.0037670452
224	0x3d44e3e1	0.048068885
225	0x3c0eb031	0.0087089995
226	0xbc9b68b3	-0.018970823
227	0x3dae9f56	0.08526485
228	0x3d23e020	0.040008664
229	0x3d8ff4da	0.070291236
230	0x3bf88de5	0.0075852745
231	0xbcec7139	-0.028862583
232	0x3cab137b	0.020883312
233	0x3d8a3dc1	0.0675006
234	0xbc30bd68	-0.0107873455
235	0xbda6e867	-0.08149796
236	0xbd3c8259	-0.046022747
237	0xbdb6901e	-0.08914207
238	0xbd70a5da	-0.05875192
239	0xbccda285	-0.02510191
240	0xbda4542b	-0.08023866
241	0xbccb8082	-0.02484155
242	0xba2eff9b	-0.00066756614
243	0xbc3ea2a6	-0.011635458
244	0x3d3ef2be	0.046618216
245	0x3cb76047	0.022384776
246	0x3abb04db	0.0014268415
247	0x3db05e67	0.08611756
248	0x3d11c7f6	0.03559109
249	0x3d8f3649	0.06992776
250	0x3d45d99a	0.048303224
251	0x3d424976	0.04743334
252	0xbd4641f7	-0.048402753
253	0x3b341727	0.002747962
254	0xbd3361a3	-0.043794286
255	0xbc0291e1	-0.007969351

cnn_layers_max_2.0.bias f4 [32]
0	0xbd8f0c9b	-0.06984826
1	0xbcead097	-0.028663917
2	0xbe489bfa	-0.1959075
3	0xbdd53698	-0.104108036
4	0x3d57015b	0.052491527
5	0xbdd66f4e	-0.104704484
6	0xbe0c9aa2	-0.13730863
7	0xbe3bd8d4	-0.18344432
8	0xbdcb34d9	-0.09922189
9	0x3c1499b3	0.009069848
10	0xbd669fe9	-0.056304846
11	0xbdb2607f	-0.087098114
12	0xbd2d2920	-0.042275548
13	0xbd1a0184	-0.0375991
14	0xbdc112c0	-0.094274044
15	0xbdc3bbed	-0.095573284
16	0xbd3ba615	-0.045812685
17	0xbe1ab2a1	-0.15107204
18	0xbd200a57	-0.03907236
19	0xbdc3a3d5	-0.09552733
20	0xbdb32d5a	-0.087488845
21	0xbd9eea77	-0.07759564
22	0xbe2573a4	-0.16157395
23	0xbdd57d91	-0.104243405
24	0xbdb56b12	-0.08858313
25	0xbdba89a5	-0.09108285
26	0xbd5f2f45	-0.05448844
27	0xbd257d9d	-0.040402997
28	0xbd852667	-0.06501465
29	0xbe4d8409	-0.20069899
30	0xbdb7e87b	-0.08979889
31	0xbd6bf0ab	-0.057602566

cnn_layers_max_2.1.weight f4 [32]
0	0x3f4f5b28	0.8099847
1	0x3f577ca5	0.8417457
2	0x3f596525	0.8491996
3	0x3f660a38	0.8985934
4	0x3f701ec0	0.9379692
5	0x3f3ee458	0.74567175
6	0x3f5daa9b	0.8658845
7	0x3f555a21	0.8334065
8	0x3f587ee7	0.8456864
9	0x3f4fd71c	0.81187606
10	0x3f681f46	0.9067272
11	0x3f597fdc	0.8496072
12	0x3f766525	0.96248084
13	0x3f648d18	0.8927779
14	0x3f613eb1	0.87986284
15	0x3f62ce13	0.88595694
16	0x3f5d3a45	0.8641704
17	0x3f5fabbd	0.87371427
18	0x3f622e88	0.8835225
19	0x3f4e5874	0.8060372
20	0x3f55c5ee	0.8350514
21	0x3f580b99	0.84392697
22	0x3f6ca9c5	0.9244655
23	0x3f5f77b6	0.8729204
24	0x3f6962c2	0.9116632
25	0x3f4aee1d	0.7926958
26	0x3f64e39e	0.89409816
27	0x3f48ac51	0.78387934
28	0x3f671898	0.902719
29	0x3f4d78d3	0.8026249
30	0x3f60a184	0.87746453
31	0x3f5d78a8	0.8651223

cnn_layers_max_2.1.bias f4 [32]
0	0xbe287763	-0.16451792
1	0xbe075af8	-0.13218296
2	0xbe2a2b03	-0.1661797
3	0xbde072ff	-0.10959434
4	0xbc570002	-0.01312256
5	0xbe54055d	-0.20705171
6	0xbe225b5b	-0.15855162
7	0xbe312796	-0.17300257
8	0xbe470df4	-0.19438916
9	0xbe0bf3ce	-0.13667223
10	0xbe016166	-0.12634811
11	0xbe1f89e6	-0.15579948
12	0xbdc177c5	-0.09446672
13	0xbe1512f2	-0.14558008
14	0xbdea878e	-0.11451636
15	0xbdf79408	-0.120887816
16	0xbe233b94	-0.15940696
17	0xbe1fda72	-0.15610674
18	0xbde054b0	-0.10953653
19	0xbe5839b9	-0.2111577
20	0xbe2d4334	-0.16920167
21	0xbe3ac1ac	-0.18237942
22	0xbdf7bc01	-0.12096406
23	0xbe0545a2	-0.13014844
24	0xbda2f71b	-0.07957288
25	0xbe5cff44	-0.21581751
26	0xbdcc6364	-0.09979895
27	0xbe4239cd	-0.18967362
28	0xbdc9fec1	-0.098630436
29	0xbe609a17	-0.2193378
30	0xbe3b8a0a	-0.18314376
31	0xbe13c2ee	-0.14429829

cnn_layers_max_2.1.running_mean f4 [32]
0	0x3eb4f280	0.35341263
1	0x3f10c208	0.5654607
2	0xc099c36c	-4.805105
3	0xc00cfe07	-2.2030046
4	0xc02ec85f	-2.7309797
5	0x4069c6c4	3.6527567
6	0xc0951246	-4.6584806
7	0xc041566a	-3.0208993
8	0xbecf0b64	-0.40438378
9	0xbf277593	-0.6541378
10	0x3e98ef2f	0.29869983
11	0x4027e36f	2.6232564
12	0x3e793ba1	0.24339153
13	0xbdd261e7	-0.1027258
14	0xc0948bd6	-4.64207
15	0xbf977c68	-1.1834841
16	0x3ff941e4	1.9473233
17	0xc046cd2d	-3.106273
18	0x404a782f	3.1635854
19	0xc0360591	-2.8440897
20	0x3f3bd44a	0.733708
21	0xc03c03e2	-2.937737
22	0xbf39e108	-0.72608995
23	0xc09014b6	-4.502528
24	0xbf072b7c	-0.52800727
25	0x401bc802	2.4340825
26	0xbff14f11	-1.8852254
27	0x408e44a2	4.445878
28	0xbe83e82a	-0.25763065
29	0xc08febed	-4.4975495
30	0x3fb92d72	1.4466994
31	0x40a21b0b	5.065801

cnn_layers_max_2.1.running_var f4 [32]
0	0x41c3c1be	24.4696
1	0x41d8bd1f	27.092344
2	0x41e4c47f	28.595945
3	0x4192f60f	18.370146
4	0x41e4b917	28.590376
5	0x4190b28d	18.087183
6	0x41d4efde	26.617123
7	0x41958631	18.690523
8	0x41ce1d39	25.764269
9	0x41f3d82f	30.480558
10	0x41e506f5	28.628397
11	0x4183e66e	16.487514
12	0x41c55acf	24.66934
13	0x41d21804	26.261726
14	0x41c99c04	25.20118
15	0x41453e95	12.327779
16	0x418567ce	16.675686
17	0x41f9831d	31.18902
18	0x4132326c	11.13731
19	0x413c9da7	11.788489
20	0x419b030a	19.376484
21	0x419b20a1	19.390932
22	0x413ec835	11.923879
23	0x41d963d5	27.173746
24	0x41b31fa1	22.390444
25	0x41544827	13.267615
26	0x4186f09a	16.867481
27	0x42068254	33.627274
28	0x41bc34b1	23.525728
29	0x41ce1b9b	25.76348
30	0x41929908	18.324722
31	0x41e36a63	28.426947

linear_layers.0.weight f4 [2, 28800]
0	0x3cb9571f	0.02262455
1	0x3d0e5c15	0.034755785
2	0x3c820aa1	0.015874209
3	0x3c6bf7a9	0.0144023085
4	0x3c968cd9	0.018377708
5	0x3cc320b7	0.02381931
6	0x3d0a0a82	0.033701427
7	0x3d317e18	0.043333143
8	0x3ccf5d30	0.02531299
9	0x3ce64c54	0.028112568
10	0x3cea9f4c	0.028640412
11	0x3ceac6f4	0.028659321
12	0x3d0c6891	0.03427941
13	0x3d0145f8	0.031560868
14	0x3d4d3146	0.05009582
15	0x3d34e45a	0.044163086
16	0x3d0cffa6	0.034423493
17	0x3cfaf694	0.030635156
18	0x3cf308d6	0.0296673
19	0x3ccef537	0.025263412
20	0x3cb41359	0.021981882
21	0x3d76b2fc	0.060229287
22	0x3c9a6667	0.018847657
23	0x3d098290	0.03357178
24	0x3c72e14d	0.014824224
25	0x3c03c484	0.008042458
26	0xbb6bb8c3	-0.003596828
27	0x3c82df20	0.015975535
28	0x3c817cbf	0.015806554
29	0x3c2df20b	0.01061679
30	0x3c1c281a	0.009531045
31	0x3c4b0f24	0.0123937465
32	0x3c208ece	0.009799672
33	0x3bc974a3	0.0061479374
34	0x3c1a7ba2	0.00942889
35	0x3c8aa19f	0.01692277
36	0x3d0678ce	0.032830052
37	0x3cf425de	0.029803213
38	0x3ca45f96	0.02006511
39	0xbca07261	-0.01958579
40	0x3c75d1b7	0.015003613
41	0x3c5724cb	0.013131331
42	0x3cb0e507	0.021593584
43	0x3c1497a0	0.009069353
44	0x3d119eea	0.035551943
45	0x3c463c42	0.0120993275
46	0x3cc9ff71	0.024657937
47	0x3ca4bf48	0.020110741
48	0xbb1a1f76	-0.0023517287
49	0x3c9c76f6	0.019099694
50	0x3c6619d7	0.014044247
51	0x3cc1ec8d	0.023672367
52	0x3d02f6ca	0.031973638
53	0x3c9af056	0.01891343
54	0x3ad475ec	0.001620946
55	0xbc5c039a	-0.013428593
56	0xbacc3116	-0.0015578594
57	0x3c4ec11f	0.012619286
58	0x3c97a45e	0.018510994
59	0x3c4b30ae	0.012401743
60	0xbd4c327b	-0.04985283
61	0xbc2fe087	-0.010734684
62	0xbc1ef8e6	-0.009702897
63	0x3c0ee169	0.008720734
64	0x3c515a43	0.012777868
65	0xbcbbbc9f	-0.02291709
66	0x3caeeaa1	0.021352114
67	0x3cefe2fe	0.029283043
68	0x3c9e627b	0.019334069
69	0xbc09479d	-0.00837889
70	0x3c4b23cf	0.012398674
71	0xbb006222	-0.0019589742
72	0x3cc6ca10	0.024266273
73	0xbb1affc7	-0.002365099
74	0x3d14f987	0.03637078
75	0x3cffe8bc	0.031238906
76	0x3c30d1d8	0.010792218
77	0x3b252d3f	0.002520397
78	0x3c6696f4	0.014074076
79	0x3c8d270c	0.017230533
80	0x3c880483	0.016603714
81	0x3c8a752e	0.016901579
82	0x3cd51adb	0.026013782
83	0x3d06c88e	0.032906108
84	0xbb4b54ad	-0.0031025812
85	0xbbcc63ad	-0.006237468
86	0xbc6992ba	-0.014256174
87	0xbc87236e	-0.016496386
88	0xb9004e9d	-0.00012236317
89	0xbc0f16eb	-0.008733491
90	0xbc853993	-0.016262805
91	0xbbb2532d	-0.005442044
92	0x3bc1fbd3	0.0059199124
93	0xbb161a92	-0.002290402
94	0x3c5c3c1a	0.013442064
95	0x3a80eafa	0.0009835653
96	0x3ce2e6d8	0.027697966
97	0x3cdf7e69	0.027281957
98	0x3b436d0a	0.002981963
99	0xbc95fcb7	-0.01830898
100	0xbacfc6e9	-0.0015852127
101	0xbba015bf	-0.004885405
102	0x3bdb8ac8	0.0066998936
103	0x3c50eb2d	0.012751383
104	0x3ccaf8cd	0.02477684
105	0x3c307442	0.0107699055
106	0x3bc88728	0.0061196275
107	0x3a33f804	0.00068652653
108	0x3b843482	0.0040345797
109	0x3c575056	0.013141712
110	0xbb64c2cf	-0.0034906154
111	0xbb7f0288	-0.003891142
112	0xbc94500a	-0.018104572
113	0xbc461d7e	-0.012091992
114	0xbb3a1b0b	-0.0028397467
115	0x3a68e36d	0.0008883987
116	0xbce7dd1b	-0.028303673
117	0xbca3a44f	-0.01997581
118	0xbb83ccd9	-0.0040222225
119	0xbb9226c3	-0.004460187
120	0xbd0966a3	-0.033545148
121	0x3bc41600	0.005984068
122	0xbc521b2e	-0.012823863
123	0xbc32af71	-0.010906086
124	0x3bcfc8db	0.0063410825
125	0xb9cd6c81	-0.0003918149
126	0x3cc2eafd	0.023793692
127	0x3d2cc029	0.042175446
128	0x3c9d1331	0.01917419
129	0xbbbaf6da	-0.0057056965
130	0xbaa6fe4a	-0.0012740579
131	0xbb204f5b	-0.0024461362
132	0xbbb0e63c	-0.00539854
133	0xbb25e20a	-0.0025311732
134	0x3c1ed672	0.009694682
135	0xbc73fff5	-0.014892568
136	0xbbed2348	-0.007236872
137	0x3ae212f4	0.001724808
138	0x3ca48286	0.02008177
139	0x3c969e4e	0.018386032
140	0xbb7373d4	-0.0037147896
141	0xbc05d469	-0.008168318
142	0xbbcbd33d	-0.00622025
143	0xbba0371c	-0.004889382
144	0xbcfb243a	-0.030656923
145	0xbbe62c2c	-0.0070243087
146	0xbcb566b2	-0.022143696
147	0xbd1939ee	-0.03740876
148	0x3b0dcfe6	0.002163881
149	0x3c685c97	0.014182231
150	0xbbfbdce1	-0.007686243
151	0x3b93a3cf	0.0045056115
152	0xbc938598	-0.018008038
153	0xbb2d6715	-0.0026459147
154	0x3c1700af	0.009216472
155	0x3c5a122e	0.013309998
156	0x3c14f417	0.009091399
157	0x3ca77d64	0.020445533
158	0x3ce168e7	0.027515842
159	0x3c62d735	0.013845255
160	0xbb7ddfce	-0.0038738134
161	0xbc8f89af	-0.017521707
162	0xbc00162e	-0.007817788
163	0x3c0886db	0.008332933
164	0x3b1b7d77	0.0023725906
165	0xbc577de4	-0.013152573
166	0x3b208296	0.0024491898
167	0x3cb6664a	0.022265572
168	0x3c46cb3f	0.012133419
169	0xbb2bfd34	-0.002624345
170	0xbc7e64d8	-0.015526973
171	0xbc5be2b8	-0.013420753
172	0xbc71577c	-0.014730331
173	0xbc312676	-0.010812392
174	0xbcc89679	-0.024485813
175	0x3c92ced7	0.017920895
176	0x3baca0c9	0.0052681905
177	0xb9adb0f0	-0.0003312896
178	0x3beb5e09	0.0071828407
179	0x3c38162f	0.011235758
180	0xbb4af2f2	-0.003096756
181	0x3b91135e	0.0044273576
182	0xbc5fb751	-0.013654546
183	0x39bf2031	0.00036454343
184	0x3ba8efd8	0.0051555447
185	0x3c93d25f	0.018044649
186	0xbadf90fd	-0.001705676
187	0x3c61d8db	0.0137846125
188	0x3cd6898b	0.026188632
189	0x3c39a8bc	0.011331733
190	0xbb544e91	-0.0032395462
191	0xbc91e23a	-0.017808069
192	0xbc0a8ece	-0.008456899
193	0x3c006e86	0.007838851
194	0x3aeeeb19	0.0018228024
195	0xbcc69c1f	-0.024244366
196	0x3c27b01d	0.01023486
197	0x3ca97de9	0.020689921
198	0x3c54de44	0.012992445
199	0x3b967637	0.004591729
200	0xbcf4c449	-0.029878752
201	0xbd32c74c	-0.043647096
202	0xbd1b9fcd	-0.037994195
203	0xbcc54a29	-0.024083214
204	0xbd0dca45	-0.034616727
205	0xbccd33f9	-0.025049197
206	0x3cc6e42c	0.024278723
207	0xbc8c9ab9	-0.017163621
208	0x3c8200bd	0.015869493
209	0x3d0e07bd	0.03467535
210	0xbcee5529	-0.029093342
211	0xbc001dda	-0.007819617
212	0xbc637639	-0.013883167
213	0xbc136562	-0.0089963395
214	0xbcaaacb4	-0.020834304
215	0xbae42fcf	-0.0017409268
216	0xbbfd4853	-0.007729569
217	0x3cd1ac59	0.025594877
218	0x3c9d81c8	0.019226924
219	0xbca56e94	-0.02019433
220	0xbcb31ff3	-0.02186582
221	0xbc2ecfc4	-0.010669652
222	0xbcc104a4	-0.023561783
223	0xbc825aef	-0.015912501
224	0xbc7d8322	-0.015473159
225	0x3b418220	0.0029527023
226	0x3be51a12	0.006991633
227	0x3a309063	0.00067353825
228	0x3c9bb547	0.019007338
229	0x3b50ad0c	0.0031841425
230	0xbcaade05	-0.02085782
231	0xbd008dba	-0.03138516
232	0xbd586348	-0.052829057
233	0xbd462570	-0.048375547
234	0x3b111a81	0.0022141042
235	0xbc5d4e92	-0.013507502
236	0x3c202c1c	0.0097761415
237	0x3a9858d3	0.0011623151
238	0x3d067870	0.032829702
239	0x3d54595c	0.051843032
240	0xbaa6162f	-0.0012671406
241	0xbc652ee6	-0.013988232
242	0xbc83dd19	-0.016096639
243	0xbcf73e09	-0.030180948
244	0xbcdeb099	-0.027183818
245	0xbc40f9fa	-0.011778349
246	0xbc32d26f	-0.010914429
247	0x3ba6388c	0.005072659
248	0x3c53763d	0.012906608
249	0xbbac5595	-0.0052592256
250	0xbc1b58fa	-0.009481663
251	0xbca76a9e	-0.020436581
252	0xbcb5fcbd	-0.022215242
253	0xbc6e160a	-0.014531622
254	0x3cad95dd	0.021189624
255	0x3c0b61a2	0.008507164

linear_layers.0.bias f4 [2]
0	0x3d92210a	0.07135208
1	0xbd8798e8	-0.066209614
