model/model_archive/mouth_translation.pt (torch, 315390 bytes, 20 tensors)

cnn_layers_max.0.weight f4 [32, 1, 3, 3]
0	0xbe91a09d	-0.2844285
1	0xbeb8ae7f	-0.3607063
2	0xbe5393be	-0.20661828
3	0x3e9e99df	0.3097677
4	0xbdd9bea5	-0.10632066
5	0xbe1bf4c0	-0.15230083
6	0x3e472071	0.19445969
7	0x3d7d296b	0.061807077
8	0xbda621b1	-0.08111895
9	0x3e367226	0.17816982
10	0x3e6e7fdf	0.23290966
11	0xbe54fe95	-0.2080024
12	0xbd71ef6b	-0.059066217
13	0xbe050f8e	-0.12994215
14	0x3e6efba1	0.23338176
15	0xbeab71ad	-0.33485165
16	0xbd2e1455	-0.04249986
17	0x3d9e8e03	0.0774193
18	0xbe0ab7ce	-0.13546678
19	0xbdcbf3cb	-0.09958609
20	0x3d91a470	0.07111442
21	0xbe3a1701	-0.18172838
22	0xbe9f9026	-0.31164664
23	0xbe63abe9	-0.22233547
24	0x3e56f4c4	0.20991808
25	0x3dab8723	0.08375385
26	0x3e244e13	0.16045408
27	0xbe29ed64	-0.16594464
28	0xbd04f5bb	-0.03246091
29	0xbdb405e8	-0.08790189
30	0xbe2266d6	-0.15859541
31	0x3e15e56e	0.14638302
32	0xbeceac2f	-0.4036574
33	0x3c297ad2	0.010344224
34	0xbe5a3f43	-0.21313195
35	0x3e27667e	0.16347691
36	0xbd98cb87	-0.07460695
37	0x3e674738	0.22585762
38	0x3e68d381	0.22736932
39	0x3e7367f7	0.23770128
40	0x3e714264	0.23560482
41	0xbdb97861	-0.090561636
42	0xbdbcdcc9	-0.09221799
43	0xbec665c9	-0.3874953
44	0xbe73ae70	-0.23797011
45	0xbd999205	-0.07498554
46	0x3e021fb8	0.12707412
47	0xbbc30eeb	-0.005952706
48	0x3d0791bd	0.03309797
49	0xbe45bd6d	-0.19310541
50	0xbe1fc3c4	-0.15602022
51	0x3db4dc10	0.08831036
52	0xbe610c8d	-0.21977444
53	0x3e6c8136	0.23096165
54	0x3e13c2f6	0.1442984
55	0xbeb07dc4	-0.34470952
56	0x3cfeadfc	0.031088822
57	0x3df332dd	0.11874936
58	0xbee78860	-0.45221233
59	0xba06f033	-0.0005147487
60	0x3dfb8636	0.12281458
61	0xbe70c1d6	-0.23511443
62	0xbe0352e2	-0.12824586
63	0xbd91a3a1	-0.07111288
64	0x3cd0f723	0.025508469
65	0xbed9227c	-0.42409122
66	0xbed52f5a	-0.4163769
67	0x3dcb9445	0.099403895
68	0xbd92ee88	-0.071744025
69	0x3dbfe9c2	0.09370758
70	0x3dbec7f3	0.09315481
71	0x3ced1fbc	0.028945796
72	0x3e446468	0.19178927
73	0x3e2111d6	0.1572946
74	0xbddf3169	-0.10898096
75	0x3d25c2c8	0.04046896
76	0x3e9749e7	0.2954857
77	0xbe2de10c	-0.1698038
78	0xbec34f0f	-0.38146254
79	0xbec84e0d	-0.39122048
80	0x3e1060c8	0.14099419
81	0x3cc81f32	0.024428938
82	0x3d924452	0.07141937
83	0x3b422fd1	0.0029630552
84	0xbe81ad27	-0.25327417
85	0xbe2f3d70	-0.1711328
86	0xbe941e98	-0.2892959
87	0xbd493ef3	-0.0491323
88	0x3dba9931	0.0911125
89	0x3c19b7fd	0.009382245
90	0xbda99e6d	-0.082821704
91	0x3df38b4d	0.11891804
92	0xbdfa690e	-0.12227069
93	0x3e95bf03	0.29247293
94	0xbebef31f	-0.37294862
95	0xbd8decb7	-0.069299154
96	0xbdf96bee	-0.12178789
97	0xbcf3c04b	-0.029754778
98	0xbde6e978	-0.112749994
99	0x3b41f4e7	0.0029595436
100	0xbe259706	-0.16170892
101	0xbdb0e4b7	-0.08637374
102	0xbe9ea279	-0.30983332
103	0xbe0c400b	-0.13696305
104	0x3d17b91c	0.03704177
105	0xbeb1a41d	-0.3469552
106	0xbe4d5b1c	-0.20054287
107	0x3ea7fb8f	0.3280911
108	0x3dab325f	0.08359217
109	0xbe59ec51	-0.21281554
110	0x3e8e4d02	0.27793127
111	0x3e742016	0.23840365
112	0x3c6360e8	0.013878085
113	0x3ea956aa	0.33073932
114	0xbe97e518	-0.29666972
115	0xbdaa1270	-0.08304298
116	0xbe552a50	-0.20816922
117	0xbe86d207	-0.26332113
118	0x3df26682	0.11835958
119	0x3e8adf70	0.27123594
120	0xbe4e1646	-0.20125684
121	0x3eb10004	0.34570324
122	0x3e87a64b	0.2649406
123	0xbeb55df3	-0.3542324
124	0xbe5486e1	-0.20754577
125	0x3df501ec	0.11963257
126	0x3cbad14a	0.022804875
127	0x3e361a9b	0.17783587
128	0xbe082752	-0.1329625
129	0x3e81ca00	0.25349426
130	0xbe167043	-0.14691262
131	0xbeb6cc9b	-0.35702977
132	0xbe042467	-0.12904511
133	0x3e1fc341	0.15601827
134	0xbebe89be	-0.37214464
135	0x3e03e86d	0.12881632
136	0xbe0fb165	-0.14032514
137	0x3dc145fd	0.09437177
138	0xbe0d9d74	-0.13829595
139	0xbc3d1977	-0.011541716
140	0xbeac8640	-0.33696175
141	0x3da66289	0.08124263
142	0x3e38d91c	0.1805157
143	0x3e0660bb	0.13122837
144	0xbe33831d	-0.17530484
145	0x3d763a3d	0.060114134
146	0x3ecc07fb	0.3984984
147	0xbb4b78e4	-0.0031047398
148	0x3e9739bc	0.29536235
149	0x3dc1c911	0.094621785
150	0x3e957b59	0.2919567
151	0xbe937985	-0.2880365
152	0xbe152711	-0.14565684
153	0xbe60d9c8	-0.21958077
154	0xbe158c0a	-0.14604202
155	0x3e0b0e33	0.13579635
156	0x3e09e2ce	0.13465425
157	0x3dbcf6dd	0.09226773
158	0xbe18e1fa	-0.14929953
159	0x3d9a625a	0.0753829
160	0xbef5fcd3	-0.48044452
161	0xbcdbe99b	-0.02684479
162	0xbe6070d1	-0.21918036
163	0x3c1d8f23	0.009616646
164	0xbea8b614	-0.32951415
165	0x3c730c07	0.0148344105
166	0xbebba7df	-0.36651513
167	0x3ca2f853	0.0198938
168	0x3e65c749	0.22439303
169	0x3d37f08e	0.044907145
170	0x3dcc3494	0.09970966
171	0xbcae5d90	-0.021284848
172	0xbe2ddc4b	-0.16978566
173	0xbc919979	-0.017773377
174	0x3e93096f	0.28718135
175	0x3e534956	0.20633444
176	0x3e35796a	0.17722097
177	0xbdb7400d	-0.089477636
178	0xbeabb09d	-0.33533183
179	0x3e2e013b	0.16992657
180	0xbe886c84	-0.2664529
181	0x3ea775ef	0.32707164
182	0x3dcba00c	0.09942636
183	0x3e2f86aa	0.17141214
184	0x3e6f9504	0.23396689
185	0xbe66914c	-0.22516364
186	0x3e044a57	0.12918983
187	0x3e8b2d42	0.27182966
188	0xbccc50d8	-0.024940893
189	0xbe0887e1	-0.13333084
190	0x3e92ae68	0.28648686
191	0xbdff610b	-0.12469681
192	0xbe3b1f92	-0.18273762
193	0xbd6a3259	-0.05717692
194	0xbdd7109f	-0.10501217
195	0xbdc3b817	-0.09556597
196	0x3cb6261f	0.022234974
197	0x3e046ccb	0.12932126
198	0xbec7c0a9	-0.39014176
199	0x3e81ac1d	0.25326625
200	0x3e688782	0.22707942
201	0x3e566f13	0.20940809
202	0x3e830f39	0.2559755
203	0x3ddc9801	0.1077118
204	0xbde10268	-0.10986787
205	0xbe2019fc	-0.15634912
206	0xbeac812e	-0.33692306
207	0x3de02b4c	0.10945758
208	0x3df74445	0.12073568
209	0xbdb34fca	-0.08755453
210	0xbec63d3d	-0.38718596
211	0xbe41c730	-0.1892364
212	0x3e93e05e	0.28882116
213	0xbe9b2ca0	-0.30307484
214	0x3cb6901c	0.022285514
215	0x3d95fe29	0.07323868
216	0xbe215741	-0.15755941
217	0xbe8ae02d	-0.27124158
218	0xbda9ccee	-0.0829104
219	0xbe8e835e	-0.278346
220	0x3df43578	0.11924261
221	0x3d95fb04	0.07323268
222	0xbda50dca	-0.08059271
223	0x3e815d05	0.2526628
224	0xbd04eb01	-0.03245068
225	0xbbffb789	-0.0078038615
226	0x3e983d4a	0.2973426
227	0xbe9e2c9e	-0.30893415
228	0x3d0ccd86	0.03437569
229	0x3e56d617	0.20980106
230	0x3e085164	0.13312298
231	0xbe30c52c	-0.17262715
232	0x3dc70cdc	0.097192496
233	0xbe25da7c	-0.16196626
234	0x3e599bbe	0.21250817
235	0xbe5776fe	-0.21041486
236	0x3e0a23b8	0.13490188
237	0x3e41797a	0.18893996
238	0xbe84a443	-0.25906572
239	0x3eb7ca65	0.35896602
240	0xbe9868ab	-0.29767355
241	0xbdf2d009	-0.11856086
242	0x3eac687e	0.3367347
243	0xbd5ec269	-0.054384623
244	0xbe325655	-0.17415746
245	0x3dda39c8	0.10655552
246	0x3dcde41c	0.10053274
247	0x3de94be1	0.11391426
248	0x3eaf82d8	0.34279513
249	0xbe3ff7d8	-0.18746889
250	0x3d1ee5db	0.038793426
251	0xbe753a13	-0.23947935
252	0x3ea27b5b	0.31734738
253	0xbdabe0f4	-0.08392516
254	0x3ea0d06b	0.3140901
255	0xbe8802c2	-0.26564604

cnn_layers_max.0.bias f4 [32]
0	0xbc3cbb56	-0.011519274
1	0x3d86a58e	0.06574546
2	0x3cb7ca1d	0.022435242
3	0x3cd8d6bc	0.02646958
4	0xbcebfed7	-0.02880804
5	0xbccc5e4a	-0.024947304
6	0xbd0ed9ab	-0.034875553
7	0x3c6b1ccf	0.01435013
8	0x3d0f5593	0.03499372
9	0xbdc38941	-0.095476635
10	0x3c752626	0.014962709
11	0xbd0cf0da	-0.03440938
12	0x3d60f17d	0.0549178
13	0xbc9634f7	-0.018335802
14	0xbc119666	-0.008885955
15	0xbdad3b3e	-0.08458565
16	0xba21e6fd	-0.00061760825
17	0x3c801ac2	0.01563776
18	0xbddd34f4	-0.10801116
19	0xbd7cac6f	-0.061687883
20	0x3a41e39b	0.00073962816
21	0xbc4f3589	-0.012647041
22	0x3b96f2a0	0.00460656
23	0xbc44de41	-0.01201588
24	0xbc031f3d	-0.008003053
25	0x3c9841fe	0.018586155
26	0x3c74e2ea	0.014946679
27	0x3c469daa	0.012122551
28	0xbaad4a88	-0.0013221065
29	0xbd21ec70	-0.039532125
30	0x3d0b9997	0.03408202
31	0xbd155691	-0.03645951

cnn_layers_max.1.weight f4 [32]
0	0x3f6fd54c	0.9368484
1	0x3f8b8681	1.0900422
2	0x3f72a077	0.947761
3	0x3f780c11	0.9689341
4	0x3f83eac4	1.030602
5	0x3f641bd5	0.8910497
6	0x3f6f6c97	0.9352507
7	0x3f71dc3b	0.9447667
8	0x3f8006be	1.0002058
9	0x3f6f195e	0.9339808
10	0x3f741ca1	0.95356184
11	0x3f71bfa7	0.94433063
12	0x3f90b50b	1.130525
13	0x3f5ccdf3	0.86251754
14	0x3f653172	0.8952857
15	0x3f56df16	0.8393415
16	0x3f814d79	1.0101768
17	0x3f6b841d	0.91998464
18	0x3f75bd61	0.95992094
19	0x3f8289be	1.0198286
20	0x3f781357	0.9690451
21	0x3f766a9d	0.9625643
22	0x3f81bfe5	1.0136687
23	0x3f69271d	0.9107531
24	0x3f759656	0.9593252
25	0x3f80cf35	1.0063235
26	0x3f8a23c2	1.0792162
27	0x3f96212b	1.1728872
28	0x3f825d82	1.0184786
29	0x3f669a61	0.90079314
30	0x3f8b7058	1.089366
31	0x3f6c0f6a	0.9221102

cnn_layers_max.1.bias f4 [32]
0	0xbd8c260c	-0.06843194
1	0xbab2f085	-0.0013652003
2	0xbc0c23bc	-0.008553442
3	0xbd96db34	-0.073660284
4	0xbcb584dd	-0.02215808
5	0xbdd96268	-0.10614473
6	0xbdb55d4a	-0.08855684
7	0xbc86fd07	-0.016478075
8	0xbd7f2d75	-0.06229921
9	0xbe295c0f	-0.16539024
10	0xbb4188b2	-0.002953094
11	0xbd3fd08d	-0.04682975
12	0xbcd7cce5	-0.026342819
13	0xbdbc57ae	-0.09196411
14	0xbde0712e	-0.10959087
15	0xbdc8d2f5	-0.09805862
16	0xbc50e64d	-0.0127502205
17	0x3ad2719d	0.0016055588
18	0xbd9586c5	-0.07301096
19	0x3bd71bcf	0.0065645943
20	0xbd5e528d	-0.054277945
21	0xbd0f7eb0	-0.035032928
22	0xbd4929c5	-0.0491121
23	0xbd9ba632	-0.076000586
24	0x3bb41354	0.005495468
25	0x3c98f24c	0.018670224
26	0x3c5444b9	0.012955838
27	0x3bb9dbb4	0.0056719426
28	0xbdd17181	-0.10226727
29	0xbd83d923	-0.064379
30	0xbcc75a1d	-0.024334962
31	0xbd8b4aeb	-0.06801399

cnn_layers_max.1.running_mean f4 [32]
0	0xbeae5a34	-0.34053195
1	0x3c04cb71	0.008105145
2	0xbe34c91a	-0.17654839
3	0xbe63e756	-0.22256216
4	0x3c943bf0	0.018094987
5	0xbe0b18de	-0.13583705
6	0xbe52476d	-0.2053506
7	0xbe349d69	-0.17638172
8	0xbe50eefd	-0.20403667
9	0xbe3c6bce	-0.18400499
10	0xbe781e9d	-0.24230428
11	0xbee2e39a	-0.4431427
12	0x3e094378	0.13404644
13	0xbd35aad8	-0.044352382
14	0xbe98aa1a	-0.29817277
15	0x3dde7b19	0.10863323
16	0x3dd451a6	0.10367136
17	0xbd839e1d	-0.06426642
18	0x3d0594ec	0.032612726
19	0x3e135f49	0.14391817
20	0x3e363541	0.17793752
21	0xbdae6f25	-0.08517293
22	0x3d8364ee	0.06415735
23	0xbe5a6a24	-0.21329552
24	0xbe858c33	-0.26083526
25	0x3d46a199	0.048493955
26	0x3dc98db1	0.098414786
27	0x3d215428	0.0393869
28	0x3c750dc3	0.014956894
29	0x39b11633	0.0003377661
30	0x3dc9c615	0.09852234
31	0xbe98c22f	-0.2983565

cnn_layers_max.1.running_var f4 [32]
0	0x3db097d9	0.08622713
1	0x3be4f756	0.0069874926
2	0x3d082dad	0.033246685
3	0x3d26cca6	0.04072251
4	0x3c3502b1	0.011048005
5	0x3c952718	0.018207118
6	0x3d0fad61	0.035077456
7	0x3cfe359b	0.03103142
8	0x3ccddc34	0.025129415
9	0x3cf51013	0.029914891
10	0x3d4fb1ac	0.05070655
11	0x3e19eb6b	0.15031211
12	0x3c16238a	0.009163747
13	0x3c274337	0.010208896
14	0x3d7668c0	0.06015849
15	0x3c85338b	0.01625993
16	0x3c7ff680	0.015622735
17	0x3c929506	0.017893326
18	0x3c173b7b	0.00923049
19	0x3caf8b82	0.021428827
20	0x3cfceed5	0.030875603
21	0x3c4db5a0	0.01255551
22	0x3c63b8e1	0.013899059
23	0x3d24e6da	0.04025922
24	0x3d15b775	0.03655191
25	0x3c0ad81e	0.008474378
26	0x3c56736f	0.013089045
27	0x3be2b155	0.0069181123
28	0x3bfe3cbe	0.007758706
29	0x3c106f76	0.008815637
30	0x3bf0588b	0.007334774
31	0x3d85ff57	0.06542843

cnn_layers_avg.0.weight f4 [32, 32, 3, 3]
0	0xbd3a30f1	-0.04545683
1	0xbd932055	-0.07183901
2	0xbd9f973a	-0.07792516
3	0x3cff2f0f	0.031150369
4	0xbcc93139	-0.024559604
5	0xbd700bd8	-0.058605045
6	0xbd829977	-0.06376927
7	0x3ca5eae9	0.020253615
8	0xbc86b5f8	-0.016444191
9	0xbe23fa04	-0.16013342
10	0xbdf5cb5b	-0.120016776
11	0xbe0a207a	-0.13488951
12	0xbd974824	-0.073868066
13	0xbde77c95	-0.11303059
14	0xbe61decf	-0.22057651
15	0xbda2167a	-0.07914443
16	0xbe0dcc60	-0.13847494
17	0xbe01dba7	-0.12681447
18	0x3bf3180a	0.007418637
19	0xbc5a3370	-0.013317928
20	0xbc8b2293	-0.01698426
21	0xbd1afc57	-0.037838306
22	0xbd8a47ea	-0.06751998
23	0xbd70b4d6	-0.05876621
24	0xbd34aaa0	-0.044108033
25	0xbd47f7df	-0.048820373
26	0xbd4bd9f4	-0.049768403
27	0xbcc57da1	-0.024107756
28	0xbd9a759c	-0.075419635
29	0xbdeff3f2	-0.11716451
30	0xbda7448d	-0.08167372
31	0xbced783f	-0.028988002
32	0xbd9364c9	-0.071969576
33	0xbd6fd089	-0.058548484
34	0xbdea06fd	-0.11427114
35	0xbca25b6c	-0.019818984
36	0xbd5dfed7	-0.054198112
37	0xbdb599e7	-0.08867245
38	0xbd898e77	-0.06716626
39	0xbd793620	-0.060842633
40	0xbe1cdbcc	-0.15318221
41	0xbdbbe994	-0.09175411
42	0xbd50bba3	-0.050960194
43	0xbdf2f4b6	-0.11863081
44	0xbd6f0684	-0.058355823
45	0x3d1f01b7	0.038819995
46	0x3cf609e0	0.030034006
47	0x3d3e9378	0.046527356
48	0x3cb468ae	0.022022571
49	0xbcf18e79	-0.029486882
50	0x3c68c691	0.014207498
51	0xbc9f8241	-0.01947129
52	0x3d2bdf8e	0.041961245
53	0x3c992e15	0.018698731
54	0xbdf27d3e	-0.11840294
55	0xbe0bc79d	-0.13650365
56	0xbdcd7936	-0.10032885
57	0xbdd80e0c	-0.10549554
58	0xbd7ed81f	-0.062217828
59	0xbda7d06f	-0.081940524
60	0xbdc545b9	-0.09632439
61	0xbd48dba6	-0.049037598
62	0xbd284970	-0.04108566
63	0xbddd84cd	-0.10816345
64	0xbe105f22	-0.1409879
65	0xbe222cf4	-0.15837461
66	0xbd8d3730	-0.06895292
67	0xbd9b6629	-0.07587845
68	0xbdba320a	-0.090915754
69	0x3a196dd9	0.00058528554
70	0xbdbcf246	-0.092258975
71	0xbc8cc040	-0.017181516
72	0xbd240cf0	-0.0400514
73	0xbd2daa81	-0.042398933
74	0xbdd1fb46	-0.10253005
75	0xbd9cb33d	-0.076513745
76	0xbdd4a153	-0.10382333
77	0xbe01d4ce	-0.12678835
78	0xbdb80a0c	-0.08986291
79	0xbdee5cb0	-0.116387725
80	0xbe0a3d53	-0.13499956
81	0xbdc667cc	-0.096877664
82	0xbd3c41e7	-0.045961287
83	0xbd026f53	-0.03184445
84	0xbd294e5e	-0.041334502
85	0xbca5a4ba	-0.02022015
86	0xbd83f356	-0.06442897
87	0x3ce94a29	0.028477745
88	0xbc8dde49	-0.017317908
89	0xbc37db8e	-0.0112217795
90	0xbd140194	-0.036134318
91	0xbda92cc9	-0.08260495
92	0xbc6258e8	-0.013815142
93	0x3cd0b1d1	0.025475414
94	0xbca2be75	-0.019866208
95	0x3cc21d73	0.023695683
96	0x3bce9c54	0.006305257
97	0xbbcb8c0a	-0.0062117623
98	0x3d0514c4	0.032490507
99	0x3c756821	0.01497844
100	0x3cab8065	0.020935247
101	0x3c3be8e2	0.011469098
102	0xbb0d3df0	-0.002155181
103	0xbd28cc1d	-0.041210283
104	0x3d1e01d3	0.03857596
105	0xbc8257ed	-0.015911067
106	0x3d527e03	0.051389705
107	0xbd5e5c9f	-0.05428755
108	0xbd2fab62	-0.042888053
109	0xbe0535bd	-0.13008781
110	0xbe0e3097	-0.13885723
111	0xbe268975	-0.16263373
112	0xbe559fc1	-0.20861723
113	0xbe2ce72c	-0.1688506
114	0xbda77a41	-0.08177615
115	0xbe279f60	-0.1636939
116	0xbe068b1f	-0.13139008
117	0xbdc299e9	-0.09502012
118	0xbdfe5113	-0.124178074
119	0xbddead59	-0.10872907
120	0x3ce775b3	0.028254366
121	0xbd57a6c3	-0.05264927
122	0xbde8d5fb	-0.113689385
123	0x3c34f7d1	0.011045412
124	0xbdb243a6	-0.08704309
125	0xbdd8f438	-0.10593456
126	0xbd67d0f1	-0.056595746
127	0xbca6f58f	-0.020380763
128	0x3c66a024	0.014076266
129	0xbbcfc319	-0.006340396
130	0x3b6aab54	0.0035807686
131	0xbd5365c5	-0.051610727
132	0x3cd24da6	0.025671791
133	0x3d32f510	0.04369074
134	0x3c111408	0.0088548735
135	0xbd474fe8	-0.04866019
136	0xbc975089	-0.01847102
137	0xbd57888d	-0.05262046
138	0xbdca4e3c	-0.09878203
139	0x3c877a1e	0.016537722
140	0xbb922513	-0.004459986
141	0xbd942db1	-0.072352774
142	0xbd353f17	-0.04424962
143	0xbda19389	-0.07889468
144	0xbd9206a7	-0.07130175
145	0xbd609e27	-0.054838326
146	0xbd222792	-0.03958852
147	0xbc104438	-0.008805327
148	0x3d245fac	0.040130302
149	0x3d031455	0.032001812
150	0xbda0b56c	-0.078471035
151	0xbda89b55	-0.08232752
152	0xbd48e04a	-0.049042024
153	0xbd239bf8	-0.039943665
154	0xbd5d7943	-0.054070722
155	0xbe1cf6df	-0.15328549
156	0xbdceda3d	-0.101002194
157	0xbdb33fa8	-0.08752376
158	0xbdd3542c	-0.10318789
159	0xbd860e50	-0.06545699
160	0xbdddd456	-0.108315155
161	0xbd46877a	-0.048469044
162	0xbda37ed9	-0.07983179
163	0xbc4d9751	-0.012548284
164	0xbdb44e91	-0.08804048
165	0x3b9a4ada	0.00470863
166	0xbd8726e7	-0.06599217
167	0xbdcc0e11	-0.099636205
168	0xbd81cd57	-0.063379936
169	0xbd89b6cd	-0.067243196
170	0xbd5a0881	-0.053230766
171	0xbdbbef16	-0.091764614
172	0xbd33d981	-0.0439086
173	0xbda967f4	-0.082717806
174	0xbd25dd2f	-0.04049414
175	0xbdb98bf6	-0.090598986
176	0xbd58908f	-0.052872237
177	0xbd2c4136	-0.042054377
178	0xbd6bd168	-0.057572752
179	0xbdbba188	-0.09161669
180	0x3d4b3a36	0.04961606
181	0x3cb6aa46	0.02229799
182	0x3d0f8ec3	0.035048258
183	0x3d0e620f	0.034761485
184	0xbb156da2	-0.0022800942
185	0x3d57f820	0.052726865
186	0x3d7319fc	0.059350953
187	0x3d705f24	0.058684483
188	0x3d85c9f1	0.06532658
189	0xbdebfbb6	-0.115226194
190	0xbdf7e9d9	-0.1210515
191	0xbd90d1d3	-0.07071271
192	0xbd6c82fc	-0.057742104
193	0xbd2c5ae8	-0.042078882
194	0xbddc58da	-0.107591346
195	0xbda1851f	-0.07886719
196	0xbdafe92f	-0.08589398
197	0xbd8803aa	-0.06641324
198	0xbd766d04	-0.06016256
199	0xbdb7e22d	-0.089786865
200	0xbd45f7c0	-0.048331976
201	0xbda02232	-0.07819022
202	0xbdf2a5a2	-0.11847998
203	0xbe0c8c21	-0.1372533
204	0xbd48a8b7	-0.048989024
205	0xbd965738	-0.073408544
206	0xbd37f639	-0.04491255
207	0xbaf02716	-0.0018322195
208	0xbcc5640b	-0.024095556
209	0x3c7819c5	0.015142863
210	0xbd53d09f	-0.05171263
211	0xbcc75fc8	-0.024337664
212	0x3d002efe	0.031294815
213	0xbc77572d	-0.015096468
214	0xba305bd7	-0.00067275524
215	0x3be507c5	0.0069894516
216	0xbd7e42f6	-0.062075578
217	0xbd1de952	-0.03855259
218	0xbd36fd11	-0.044674937
219	0xbdb511d6	-0.088412926
220	0xbdcacc8f	-0.09902298
221	0xbc68cdd1	-0.014209227
222	0xbd0f4558	-0.03497824
223	0xbd2662a7	-0.040621426
224	0xbdf3f74b	-0.11912402
225	0xbdf06bbf	-0.11739301
226	0xbd7ed5ce	-0.06221562
227	0xbd9b1430	-0.0757221
228	0xbd76972a	-0.060202755
229	0xbda86ce8	-0.08223897
230	0xbdbe54e9	-0.09293539
231	0xbd95bd66	-0.073115155
232	0xbe041423	-0.12898307
233	0xbdd997e9	-0.10624678
234	0xbd9c60c2	-0.076356426
235	0xbd4455b6	-0.047933303
236	0x3b8a7068	0.0042248257
237	0x3b0534f4	0.0020325752
238	0xbdbecb7e	-0.09316157
239	0xbcb8afea	-0.02254482
240	0xbd3cbfbb	-0.046081286
241	0xbc88d253	-0.016701853
242	0xbd7ed704	-0.062216774
243	0xbdfa0a61	-0.12209011
244	0xbe0a36fa	-0.13497534
245	0xbde8e025	-0.11370877
246	0xbdd7a37e	-0.105292305
247	0xbd8517e9	-0.06498701
248	0xbdf4d25e	-0.11954187
249	0xbc80a032	-0.015701387
250	0xbd124fe7	-0.035720732
251	0xbde84346	-0.113409564
252	0xbc8cd196	-0.017189782
253	0xbcc3d9c7	-0.023907555
254	0xbcad684c	-0.021167897
255	0xbe11e278	-0.14246547

cnn_layers_avg.0.bias f4 [32]
0	0xbc1b350d	-0.0094730975
1	0xbc111d80	-0.008857131
2	0xbded77f6	-0.11595146
3	0xbe080f0f	-0.13286994
4	0x3d1b1d04	0.03786947
5	0xbd9e36e7	-0.077253155
6	0xbc66825e	-0.014069168
7	0x3d52f6fc	0.051505074
8	0xbdeb26a6	-0.11481981
9	0x3d0c19d5	0.034204323
10	0xbc1fedfc	-0.00976133
11	0xbd72dce9	-0.059292708
12	0xbe0419d0	-0.12900472
13	0x3d66d1bf	0.056352373
14	0xbdfbe2f4	-0.12299147
15	0x3c0c7da6	0.008574879
16	0xbc9cf317	-0.019158883
17	0xbc910bfd	-0.017705912
18	0xbcd4809f	-0.025940238
19	0xbc300a58	-0.010744654
20	0x3d1f49cf	0.03888875
21	0x3c8db101	0.017296316
22	0x3d6ad233	0.057329368
23	0xbe0d1897	-0.13778912
24	0xbc929e9f	-0.017897902
25	0xbe1f159b	-0.15535586
26	0xbd9578b5	-0.07298414
27	0x3d2c25a5	0.042028088
28	0x3ddbaf0c	0.10726747
29	0x3d632d41	0.05546308
30	0xbd9719fe	-0.073780045
31	0x3dc84ab8	0.097798765

cnn_layers_avg.1.weight f4 [32]
0	0x3f67dcd0	0.9057131
1	0x3f6c3b98	0.9227843
2	0x3f80cf15	1.0063196
3	0x3f6e4a89	0.9308248
4	0x3f8aae64	1.083447
5	0x3f809973	1.0046829
6	0x3f7bfefc	0.9843595
7	0x3f87ed19	1.0619231
8	0x3f553e4e	0.83298194
9	0x3f6f4a5c	0.9347284
10	0x3f69783f	0.91199106
11	0x3f5eb339	0.8699222
12	0x3f84cefe	1.0375669
13	0x3f861349	1.0474635
14	0x3f61d68c	0.88218
15	0x3f7e3036	0.99292314
16	0x3f7b2acc	0.9811218
17	0x3f831cbb	1.0243143
18	0x3f7b3745	0.9813121
19	0x3f7a8d2d	0.9787167
20	0x3f737ea5	0.9511512
21	0x3f7b457d	0.98152906
22	0x3f8b6b85	1.0892187
23	0x3f5ffa56	0.8749136
24	0x3f74f1fb	0.9568173
25	0x3f670250	0.90237904
26	0x3f6527fa	0.89514124
27	0x3f83a5db	1.028499
28	0x3f782737	0.9693484
29	0x3f8380d8	1.0273695
30	0x3f6cce0a	0.9250189
31	0x3f8c9105	1.0981756

cnn_layers_avg.1.bias f4 [32]
0	0xbde49297	-0.11160772
1	0xbd91ee75	-0.0712556
2	0x3cff318f	0.031151561
3	0xbd10a28a	-0.03531126
4	0xbd7b4440	-0.061344385
5	0xbc6912d6	-0.014225682
6	0xbc101d84	-0.0087961
7	0xbd56e2af	-0.052462276
8	0xbe0fad30	-0.1403091
9	0x3a1f3743	0.0006073603
10	0xbd2e4307	-0.04254439
11	0xbda74450	-0.081673265
12	0xb9cb1dae	-0.0003874129
13	0xbe006c21	-0.12541248
14	0xbe0b8cb0	-0.13627887
15	0xbd2939ce	-0.041314892
16	0xbb90ee85	-0.004422965
17	0xbd0813ab	-0.03322188
18	0xbcb3290a	-0.021870155
19	0xbe00b1c6	-0.12567815
20	0xbca800fd	-0.020508284
21	0xbd147dcf	-0.036252793
22	0xbd4d104c	-0.05006437
23	0xbe2a8134	-0.1665085
24	0xbdaa8daf	-0.08327805
25	0xbdccb843	-0.09996083
26	0xbd849733	-0.064741515
27	0x3db49ace	0.08818589
28	0xbdb8cdb3	-0.09023609
29	0xbde54975	-0.111956514
30	0xbdbc6f5c	-0.092009276
31	0xbced971b	-0.029002717

cnn_layers_avg.1.running_mean f4 [32]
0	0xc0aece4e	-5.4626837
1	0xbec07192	-0.37586647
2	0x3fd2a50e	1.6456621
3	0x3e9c6a24	0.3054973
4	0x40c0cc7f	6.024963
5	0x3f81cbe5	1.0140349
6	0xc0a0307c	-5.0059185
7	0x40c09168	6.01775
8	0x4058bebc	3.3866415
9	0x406a2621	3.6585772
10	0xc0c7a335	-6.2386727
11	0xc06eec77	-3.7331827
12	0x4047df82	3.1230168
13	0x40b5b887	5.6787753
14	0x3fc24e6d	1.5180184
15	0x40595f3b	3.3964374
16	0x3f9e9253	1.2388405
17	0x40bda6bb	5.926603
18	0x40892f32	4.287011
19	0x40974262	4.7268534
20	0xc04aa445	-3.1662762
21	0x40840a9d	4.1262956
22	0x40a99a07	5.300052
23	0x407bf987	3.937105
24	0x4096c8f7	4.712032
25	0xc0353fb3	-2.832013
26	0xbffc8a68	-1.9729738
27	0xc0729382	-3.7902532
28	0x40c9326c	6.287405
29	0x40ba5abb	5.8235755
30	0x3f861e44	1.0477986
31	0x406a4c10	3.6608925

cnn_layers_avg.1.running_var f4 [32]
0	0x41395129	11.5823145
1	0x41341831	11.255906
2	0x40a66d4e	5.200843
3	0x412eecec	10.932842
4	0x413728bd	11.447446
5	0x412abfec	10.671856
6	0x40b5522c	5.6662807
7	0x4156ec18	13.43264
8	0x412d55cf	10.833449
9	0x40bf4e6e	5.978324
10	0x416009ce	14.002394
11	0x40adb652	5.428506
12	0x418d1151	17.633455
13	0x414afc6a	12.686625
14	0x41290b27	10.565223
15	0x41026d4c	8.151684
16	0x4160483a	14.017633
17	0x415de886	13.869268
18	0x4151ba5d	13.107999
19	0x40fa5712	7.8231287
20	0x41465d2a	12.397745
21	0x41507315	13.028096
22	0x4153ca3c	13.236874
23	0x41024325	8.141393
24	0x41073507	8.450446
25	0x41842c7a	16.521717
26	0x417c3319	15.762475
27	0x41979489	18.947527
28	0x41124113	9.140887
29	0x41324f37	11.14434
30	0x406ce25b	3.7013156
31	0x410ec166	8.922216

cnn_layers_max_2.0.weight f4 [32, 32, 3, 3]
0	0x3d202b5f	0.039103862
1	0x3d27a276	0.04092642
2	0x3c5af17d	0.013363239
3	0x3b8a0272	0.0042117173
4	0x3dab9840	0.08378649
5	0x3cdf9f51	0.027297648
6	0xbcbb51d1	-0.022866162
7	0xbc6386b8	-0.0138871
8	0x3d7c2127	0.061555054
9	0x3db3840a	0.08765419
10	0x3d8f7632	0.07004966
11	0x3dc03b9d	0.0938637
12	0x3dc473c6	0.095923945
13	0x3d61f687	0.055166747
14	0x3cb15fd4	0.02165214
15	0x3ce8b082	0.028404478
16	0x3d9f9008	0.07791144
17	0x3da4ddbe	0.080501065
18	0xbd99c80b	-0.07508858
19	0xbe02c20e	-0.12769338
20	0xbe0357fa	-0.12826529
21	0xbdea75b0	-0.11448228
22	0xbdbd9444	-0.09256795
23	0xbe30de39	-0.17272271
24	0xbe042019	-0.1290287
25	0xbe286836	-0.16446003
26	0xbd988113	-0.07446494
27	0xbdaa3abf	-0.08311986
28	0xbdeb6b59	-0.11495084
29	0xbddd5132	-0.108065024
30	0xbe022eda	-0.12713185
31	0xbdd4cc20	-0.10390496
32	0xbddfa860	-0.10920787
33	0xbdae69a3	-0.08516242
34	0xbe2bb5f9	-0.16768636
35	0xbde3177e	-0.11088465
36	0xbd066c54	-0.032818154
37	0xbdc53b8a	-0.09630497
38	0xbd08794f	-0.033318814
39	0xbcd0eda3	-0.025503939
40	0xbdcd74d0	-0.10032046
41	0xbdb28664	-0.08717039
42	0xbd382a7a	-0.044962384
43	0xbd9c5091	-0.07632554
44	0xbd654805	-0.055976886
45	0xbd3ae7b6	-0.045631133
46	0x3c8ffcf1	0.017576667
47	0x3d27aa4f	0.040933903
48	0x3d0ad57a	0.033894993
49	0xbd880b42	-0.06642772
50	0xbd40fa50	-0.047113717
51	0x3d13060d	0.035894442
52	0xbbbb923e	-0.0057242205
53	0xbce5a3b1	-0.028032156
54	0x3c504446	0.01271159
55	0x3d978717	0.07398813
56	0x3c657e18	0.014007114
57	0x3d98abed	0.07454667
58	0x3dcf6d2f	0.10128247
59	0x3ce62949	0.028095858
60	0x3dbfb7c7	0.093612246
61	0x3d8b60dc	0.06805584
62	0x3b5ae311	0.0033399502
63	0xbbd294fd	-0.006426452
64	0x3c901185	0.017586479
65	0xbcea85cc	-0.028628252
66	0x3d36af23	0.044600617
67	0xbd8a4dbf	-0.0675311
68	0xbb650481	-0.0034945311
69	0x3c6756d7	0.014119825
70	0x3ce040fc	0.027374737
71	0xbd940cbf	-0.072289936
72	0xbe004d9f	-0.1252961
73	0xbe095d21	-0.13414432
74	0xbdeaf136	-0.114717886
75	0xbdbb38d9	-0.09141702
76	0xbe0b742a	-0.13618532
77	0xbe098b1d	-0.13431974
78	0xbdffb167	-0.12485009
79	0xbe0f7f52	-0.14013413
80	0xbd9dd2f5	-0.077062525
81	0xbd452990	-0.04813534
82	0xbe2389dd	-0.1597056
83	0xbd9b15b3	-0.07572498
84	0xbdc9b431	-0.09848822
85	0xbe00c7e4	-0.12576252
86	0xbdf81cf9	-0.12114901
87	0xbd9aea9a	-0.07564278
88	0xbdf9046e	-0.12159048
89	0xbd9d8213	-0.07690825
90	0x3dcf3f22	0.101194635
91	0x3d12921b	0.03578387
92	0x3d79f7f6	0.06102749
93	0x3cb11ef8	0.021621212
94	0x3ca0e48c	0.01964023
95	0x3e02b1a8	0.12763083
96	0x3dc71561	0.097208746
97	0x3ddd38ef	0.10801875
98	0x3dc1e3f1	0.094673045
99	0x3dcd2085	0.10015968
100	0x3d8d0acb	0.06886824
101	0x3cd094e9	0.02546163
102	0x3dc89599	0.097941585
103	0x3d1f7e6f	0.038938936
104	0x3d1517d8	0.036399692
105	0x3d83be48	0.06432778
106	0x3ae00fbf	0.0017094536
107	0x3d1eee54	0.038801506
108	0x3d5a871d	0.05335151
109	0x3dd3b4e3	0.10337236
110	0x3d796316	0.06088551
111	0x3db4fcab	0.08837255
112	0x3cd8b7df	0.026454864
113	0x3d0082de	0.031374805
114	0x3d9bb1ab	0.07602247
115	0x3dc51023	0.096222185
116	0xbab66401	-0.0013915302
117	0xbe0014d5	-0.12507947
118	0xbde3114a	-0.11087282
119	0xbe4107a8	-0.18850577
120	0xbddd296b	-0.107989155
121	0xbe54ce34	-0.20781785
122	0xbe42e851	-0.19033934
123	0xbde699a9	-0.11259777
124	0xbe0eeebd	-0.13958259
125	0xbe33b2aa	-0.17548624
126	0x3dcb2975	0.09920017
127	0x3dbfba67	0.09361725
128	0x3bea8d8d	0.0071579874
129	0x3d690cbe	0.056896918
130	0x3bc539b2	0.0060188407
131	0x3d63d1d8	0.055620044
132	0x3dfcece8	0.12349874
133	0x3dfe8532	0.12427749
134	0x3da40372	0.0800847
135	0x3cd4b753	0.025966322
136	0xbd11fd15	-0.03564175
137	0x3984d773	0.00025337524
138	0xbd277692	-0.04088456
139	0xbd8385d7	-0.06422012
140	0xbd1bec2c	-0.038067028
141	0xbda6373f	-0.08116006
142	0xbdb87454	-0.09006563
143	0xbcb48721	-0.02203709
144	0xbdf424cc	-0.11921081
145	0xbd53eaea	-0.051737703
146	0xbdaf10df	-0.0854814
147	0xbdbb3dee	-0.091426715
148	0xbe186d46	-0.14885435
149	0xbdd20c5b	-0.10256263
150	0xbdddb3a2	-0.10825278
151	0xbd8734bc	-0.06601855
152	0xbe06e378	-0.1317271
153	0xbe1d4806	-0.15359506
154	0xbd929607	-0.07157522
155	0xbdbac0de	-0.09118818
156	0xbde48277	-0.11157697
157	0xbd6bb288	-0.057543308
158	0xbd4af421	-0.049549226
159	0xbdab81d8	-0.08374375
160	0xbd8864eb	-0.066598736
161	0xbe09a3ad	-0.13441344
162	0xbe1cbcc6	-0.15306386
163	0xbe061bab	-0.13096492
164	0xbe29d0da	-0.16583577
165	0xbd9d52d0	-0.07681811
166	0xbdce3b11	-0.1006986
167	0xbdc9d979	-0.09855933
168	0xbdd85d73	-0.10564699
169	0xbe0a6556	-0.13515219
170	0xbdc160bf	-0.09442281
171	0xbe181006	-0.14849862
172	0xbe054e07	-0.13018046
173	0xbdeeaebc	-0.11654422
174	0xbe10414a	-0.14087406
175	0xbdfca20a	-0.12335594
176	0xbe0320c6	-0.12805471
177	0xbe09f404	-0.13471991
178	0xbe3be2c0	-0.18348217
179	0xbe0b0563	-0.13576274
180	0x3bdd25a4	0.006748872
181	0xbd27eb85	-0.040996093
182	0x3a48dc8e	0.000766226
183	0xbd36149a	-0.04445324
184	0x3adaee1b	0.0016703041
185	0xbd28562d	-0.04109781
186	0xbd541d50	-0.051785767
187	0xbc67f970	-0.014158592
188	0x3b4426f0	0.0029930435
189	0xbd60c4ad	-0.054875065
190	0xbe11f98b	-0.1425535
191	0xbd9491a0	-0.07254338
192	0xbde0e987	-0.10982042
193	0xbd91100e	-0.0708314
194	0xbdae1852	-0.085007325
195	0xbddb4d74	-0.107081324
196	0xbd9f11d5	-0.07767073
197	0xbdb67d72	-0.089106455
198	0xbe304649	-0.17214312
199	0xbe1c2968	-0.1525017
200	0xbe4fc9cc	-0.20291823
201	0xbe10e64c	-0.14150351
202	0xbe284e8f	-0.16436218
203	0xbe034ae4	-0.12821537
204	0xbdf1dd9f	-0.11809849
205	0xbe1306bb	-0.14358036
206	0xbde70367	-0.11279946
207	0x3c78ccd7	0.015185556
208	0x3d69440b	0.056949656
209	0x3cde6f94	0.027152814
210	0x3d1a8cc4	0.0377319
211	0x3dc9e5ab	0.09858259
212	0x3dd9989e	0.106248125
213	0x3dd81cd2	0.10552372
214	0x3dcb16e6	0.09916477
215	0x3d14a9de	0.03629481
216	0xbd8f6a5d	-0.07002709
217	0xbdb4f873	-0.088364504
218	0xbd65ec45	-0.056133527
219	0xbe0f2beb	-0.13981597
220	0xbe0f4075	-0.13989432
221	0xbd7ee213	-0.06222732
222	0xbcb4cbef	-0.0220699
223	0xbd13a908	-0.036049873
224	0xbd388978	-0.045052975
225	0x3d93bb84	0.072135
226	0x3cf51297	0.02991609
227	0x3dcfa955	0.101397194
228	0x3d87aa4c	0.066242784
229	0x3d39fd11	0.04540736
230	0x3de95810	0.1139375
231	0x3da45e01	0.08025742
232	0x3cc58df6	0.024115544
233	0x3cb86f95	0.022514144
234	0x3d75aa75	0.059977014
235	0x3dbe637a	0.092963174
236	0x3e04d721	0.1297269
237	0x3db4abbf	0.088218205
238	0x3d2ee971	0.042703096
239	0x3d565f3e	0.052336924
240	0x3d98dbd2	0.074638024
241	0x3db29779	0.08720297
242	0x3de64a6e	0.11244665
243	0xbe0bfb39	-0.13670053
244	0xbdb3d212	-0.08780302
245	0xbdaddcfb	-0.08489414
246	0xbcc42cc0	-0.02394712
247	0xbb59fcc8	-0.0033262242
248	0xbd350c54	-0.04420121
249	0xbda2f99b	-0.07957765
250	0xbdc4f23c	-0.09616515
251	0xbdba6371	-0.09100998
252	0xbd98ae2b	-0.07455095
253	0xbe0b131d	-0.1358151
254	0xbdeac4c6	-0.11463313
255	0xbe142e04	-0.14470679

cnn_layers_max_2.0.bias f4 [32]
0	0xbd5af4e1	-0.05345619
1	0xbdb7b281	-0.08969594
2	0xbd8edc15	-0.06975571
3	0x3d08d100	0.033402443
4	0xbd7a8295	-0.06115969
5	0xbc826dce	-0.0159215
6	0xbd3356c2	-0.04378391
7	0xbbfab3ca	-0.007650827
8	0xbcf2f031	-0.029655548
9	0xbdcf831c	-0.10132429
10	0xbdc150cc	-0.09439239
11	0xbdb980f6	-0.090578005
12	0xbd68c373	-0.05682702
13	0xbca4be79	-0.020110356
14	0xbe044638	-0.12917411
15	0xbd0ade58	-0.03390345
16	0xbd2100cb	-0.039307397
17	0xbd77d70a	-0.06050781
18	0x3c201395	0.009770294
19	0xbdcbb0e4	-0.099458486
20	0xbd129530	-0.035786808
21	0xbd49ca04	-0.049264923
22	0xbcdd91fd	-0.027047152
23	0xbc910f8a	-0.017707605
24	0xbd7a494d	-0.06110506
25	0xbd4380bc	-0.047730193
26	0xbd0df836	-0.03466054
27	0xbd516c9d	-0.051128972
28	0xbd500035	-0.050781447
29	0xb9d38147	-0.00040341375
30	0xbcf2db47	-0.029645575
31	0xbbd656fb	-0.0065411306

cnn_layers_max_2.1.weight f4 [32]
0	0x3f47a09d	0.7797945
1	0x3f446181	0.7671128
2	0x3f5ac2ea	0.85453665
3	0x3f5a0d3e	0.85176456
4	0x3f5309be	0.8243674
5	0x3f5d97b3	0.865596
6	0x3f53e826	0.82776105
7	0x3f51a118	0.81886435
8	0x3f5469fb	0.82974213
9	0x3f4e0e2a	0.8049036
10	0x3f3ee67b	0.74570435
11	0x3f57d14e	0.8430375
12	0x3f54077b	0.82823914
13	0x3f52614c	0.82179713
14	0x3f4a54e2	0.7903577
15	0x3f3cf3a5	0.7380927
16	0x3f4486b8	0.76768064
17	0x3f4d0db0	0.8009901
18	0x3f52d139	0.823505
19	0x3f495a92	0.78653824
20	0x3f51504a	0.81763136
21	0x3f4f30a7	0.8093361
22	0x3f59cfb0	0.8508253
23	0x3f4d9384	0.80303216
24	0x3f4d3d1e	0.8017138
25	0x3f40bd81	0.7528916
26	0x3f4d98a5	0.8031104
27	0x3f51acb9	0.8190418
28	0x3f57788d	0.8416832
29	0x3f54baea	0.8309771
30	0x3f532709	0.8248144
31	0x3f673bdf	0.9032573

cnn_layers_max_2.1.bias f4 [32]
0	0xbe5b15cd	-0.21395035
1	0xbe581557	-0.2110189
2	0xbe131b7a	-0.1436595
3	0xbe0a60b7	-0.13513456
4	0xbe1af2df	-0.1513171
5	0xbddbb489	-0.10727794
6	0xbe549136	-0.20758519
7	0xbe27bd85	-0.1638089
8	0xbe3126ff	-0.17300032
9	0xbe4b8c19	-0.19877662
10	0xbe2c3173	-0.16815738
11	0xbe1cbf97	-0.1530746
12	0xbe2c729a	-0.16840592
13	0xbe31512a	-0.17316118
14	0xbe4398f4	-0.19101316
15	0xbe66bf08	-0.2253381
16	0xbe67ff68	-0.22656024
17	0xbe2e76d0	-0.17037511
18	0xbe03b14c	-0.12860602
19	0xbe44f306	-0.19233331
20	0xbe065f55	-0.13122304
21	0xbe13fb88	-0.1445142
22	0xbe182c82	-0.14860728
23	0xbe4ae9bf	-0.1981573
24	0xbe24ae1a	-0.1608204
25	0xbe7001dd	-0.23438211
26	0xbe2e8bf2	-0.17045572
27	0xbe1cec5e	-0.15324542
28	0xbe1cae0b	-0.15300767
29	0xbe1eae89	-0.15496267
30	0xbe1583fa	-0.14601126
31	0xbe36c52c	-0.17848653

cnn_layers_max_2.1.running_mean f4 [32]
0	0xc00e9640	-2.2279205
1	0x4018aad4	2.3854265
2	0xc03d5e9b	-2.9588993
3	0xbf743f68	-0.9540925
4	0xbfa2f2c1	-1.2730333
5	0x402c7f1a	2.6952577
6	0xbf1a8d79	-0.6037212
7	0xc0011b6c	-2.0172987
8	0xbfca0a82	-1.5784457
9	0xc0179233	-2.3682983
10	0x40725b81	3.786835
11	0xc0b510f6	-5.6583204
12	0xc010193a	-2.2515397
13	0xbf474319	-0.7783676
14	0xc0426806	-3.037599
15	0x3f77f9f3	0.9686577
16	0x3fd87676	1.6911151
17	0xc04830ed	-3.1279862
18	0xc07dfc4b	-3.9685237
19	0xc0369661	-2.8529284
20	0x3f0b8732	0.54503167
21	0xbf0ea34f	-0.5571794
22	0xc00fbc0f	-2.2458532
23	0xbee12c2e	-0.4397902
24	0xbf84da85	-1.0379187
25	0x401dda5b	2.4664524
26	0x3e719793	0.23592977
27	0x3f8f96b6	1.1217868
28	0xc02fe747	-2.748491
29	0xc027e241	-2.6231844
30	0xbe82d544	-0.25553334
31	0x3ef5d2db	0.48012432

cnn_layers_max_2.1.running_var f4 [32]
0	0x4285ba40	66.86377
1	0x42154cfb	37.325176
2	0x413123b2	11.071215
3	0x418a2b0b	17.271017
4	0x41ac523b	21.540152
5	0x41bb7021	23.42975
6	0x418b1889	17.38698
7	0x41b4e7f7	22.613264
8	0x418a8035	17.312601
9	0x411f9a5f	9.975188
10	0x414ffe9d	12.999661
11	0x416d1885	14.818486
12	0x411600d2	9.3752
13	0x41a51081	20.633059
14	0x4101b45d	8.106534
15	0x414f38c8	12.951363
16	0x418114b5	16.13511
17	0x41aa0967	21.254591
18	0x41d4f000	26.617188
19	0x4136a611	11.415544
20	0x420584c0	33.37964
21	0x420895dd	34.14635
22	0x41d324d1	26.392977
23	0x41ad88bb	21.691763
24	0x4156da60	13.428314
25	0x421a940a	38.64457
26	0x41ecd291	29.602816
27	0x420fbd39	35.934788
28	0x4109f479	8.622186
29	0x4187b9bb	16.965689
30	0x422ee72d	43.725758
31	0x415ca17b	13.789424

linear_layers.0.weight f4 [2, 28800]
0	0xbc95c517	-0.018282456
1	0x3b8698dd	0.004107578
2	0x3c49c7b9	0.012315684
3	0x3a2a1db9	0.00064894144
4	0xbbad8bfe	-0.0052962294
5	0x3b31ba6c	0.0027119173
6	0xbabd4e73	-0.0014442935
7	0x3b7c88aa	0.0038533607
8	0x3bab9358	0.0052360706
9	0x3c16e3f1	0.009209619
10	0xbb2c1cbd	-0.0026262247
11	0x3c6fb08a	0.014629493
12	0x3c7dc8bf	0.015489756
13	0x3c127e55	0.008941253
14	0xbab660d6	-0.0013914357
15	0x3983c99a	0.00025136472
16	0xbbc5cbdb	-0.0060362644
17	0xbbcd68c0	-0.0062685907
18	0xbbf7f142	-0.007566602
19	0xbb48883f	-0.0030598787
20	0xbc12b6bf	-0.008954703
21	0xbc83aa4a	-0.016072411
22	0xbc67bcdc	-0.014144149
23	0xbc4b83af	-0.0124215325
24	0xbc32a8cd	-0.010904503
25	0xbc8e92cd	-0.017403984
26	0x3c67a07d	0.0141373845
27	0x3cca0381	0.024659874
28	0x3cb79c8f	0.02241352
29	0x3cad7038	0.021171674
30	0xbc852eae	-0.01625761
31	0xbb03c6bd	-0.002010747
32	0x3c3e7db0	0.011626646
33	0x3b331025	0.0027322855
34	0xbb68f816	-0.0035548261
35	0xbc98b715	-0.018641988
36	0xbc201a15	-0.009771843
37	0x3bd8f4f9	0.006621
38	0x3bfa9a10	0.00764776
39	0x3b292600	0.0025810003
40	0x3ac271c9	0.0014834936
41	0xbc04008f	-0.008056774
42	0x399d587a	0.00030011294
43	0xbb24c466	-0.0025141477
44	0xbaf58691	-0.001873212
45	0xba38da17	-0.0007051541
46	0x3c05c45c	0.0081644915
47	0xbcbe628f	-0.023240356
48	0xbb0b6e55	-0.002127548
49	0xbbdab5f9	-0.006674525
50	0xbbee16ec	-0.007265916
51	0xbb542316	-0.0032369546
52	0xbc466cc2	-0.012110891
53	0xbc38aa55	-0.011271079
54	0xbc90bc8b	-0.01766803
55	0xbcb63116	-0.022240203
56	0x3c5f346d	0.013623339
57	0x3c1b3f5c	0.009475555
58	0x3c9ffab5	0.019528726
59	0x3ca52069	0.020157056
60	0xbc48a827	-0.012247122
61	0xbbf2a53b	-0.007404951
62	0x3c056d09	0.008143672
63	0x3c7941e5	0.015213464
64	0xbc303646	-0.010755127
65	0xbc100730	-0.008790776
66	0xbc822b4b	-0.015889784
67	0xbbd169e4	-0.006390797
68	0x3c09eb5e	0.008417932
69	0x3bf1077e	0.0073556295
70	0x3b417646	0.002951996
71	0xbb8e0324	-0.0043338705
72	0x3a2cafa7	0.00065874535
73	0x3b5abfc3	0.003337846
74	0xba091b92	-0.00052302436
75	0x3b5e9054	0.0033960538
76	0x3b387dce	0.0028151157
77	0x399ddc55	0.00030109534
78	0x3bd70b04	0.0065625925
79	0x3c06b4a3	0.008221778
80	0xbb46e93b	-0.0030351419
81	0xbc32de6c	-0.010917287
82	0xbc01bf19	-0.007919096
83	0xbc01969b	-0.007909442
84	0xbc978b59	-0.018499063
85	0xbc6eb4f6	-0.014569512
86	0x3b9c78cc	0.0047751423
87	0x3b3be0b6	0.0028667874
88	0x3c1e24be	0.009652315
89	0x3c6ab806	0.014326101
90	0x3a96bd73	0.0011500552
91	0xba4f3c79	-0.00079054345
92	0x3c32791d	0.0108931335
93	0x3c52512f	0.0128367385
94	0x3b1dbaf7	0.0024067739
95	0xbc7c082e	-0.01538281
96	0xbbc766a6	-0.0060852347
97	0x3ba83550	0.0051333085
98	0x3c74c997	0.014940641
99	0x3c8cd607	0.0171919
100	0x3bb25053	0.0054417043
101	0xbb946b08	-0.0045293607
102	0x3b01d217	0.0019809061
103	0xbb3e3082	-0.0029020612
104	0xbbd4b174	-0.0064908806
105	0x3c272ec1	0.010204018
106	0x3c06df5e	0.008231966
107	0x3c305a69	0.010763743
108	0x3a96062a	0.0011445929
109	0xbb8d9ba9	-0.0043215347
110	0x3b732960	0.003710352
111	0x3aaf681f	0.0013382471
112	0x3bf59314	0.0074943397
113	0x3b3b3dfc	0.002857088
114	0xba44c0ca	-0.00075055344
115	0xbc00c94d	-0.007860494
116	0x3c98f904	0.018673427
117	0x3cb38f63	0.021918958
118	0x3ca7a311	0.020463498
119	0x3cde61e0	0.02714628
120	0x3c2abafa	0.010420555
121	0xba8dc12d	-0.0010815017
122	0x3a832550	0.0010005627
123	0x3c7c92ed	0.015415889
124	0x3b35d74a	0.002774673
125	0xbbae6244	-0.005321773
126	0x3bba1a56	0.005679409
127	0x3cefebe4	0.029287286
128	0x3ca88364	0.020570464
129	0x3d20806b	0.03918497
130	0x3cba1759	0.022716211
131	0x3c436f9f	0.011928468
132	0x3b97e9ce	0.004636026
133	0xbbd81a4e	-0.0065949326
134	0xbcd7dda0	-0.026350796
135	0x3bb3b4ef	0.0054842154
136	0x3bce7cd5	0.006301502
137	0x3afd3ea0	0.0019321032
138	0x3c89980c	0.016796134
139	0x3b1df276	0.0024100817
140	0x3c7f3e26	0.015578782
141	0xbc0c22da	-0.008553231
142	0x3becfdac	0.0072323885
143	0x3c0b71a4	0.008510981
144	0x3bffe63d	0.007809429
145	0x3bc16dc7	0.005902979
146	0x3cae189c	0.021251969
147	0x3cf3df55	0.029769579
148	0x3c99200e	0.018692043
149	0x3cffd0fb	0.03122758
150	0x3cb85c46	0.022504937
151	0x3bc2902d	0.0059375972
152	0xbc3c0864	-0.01147661
153	0x3c2859d8	0.010275327
154	0xb82a6535	-4.0625415e-05
155	0x3bebff1a	0.0072020413
156	0x3ca59fd5	0.020217815
157	0x3ca76a3a	0.020436395
158	0x3c1ae04b	0.00945289
159	0x3ca443be	0.020051833
160	0x3c91e2ad	0.017808283
161	0x3c7fdc83	0.015616539
162	0xbc10ba4d	-0.00883348
163	0x3c91cc9c	0.01779776
164	0xbc346ec9	-0.011012741
165	0xbca885da	-0.020571638
166	0x3bfb5cc2	0.0076709697
167	0x3b4f184d	0.0031600178
168	0x3c94e157	0.018173857
169	0x3cd45985	0.025921592
170	0x3c93554e	0.017985012
171	0xbc68359a	-0.014172936
172	0x3c92bfb4	0.017913677
173	0x3c40fced	0.011779052
174	0x3c07a310	0.008278623
175	0x3b9d23be	0.0047955206
176	0x3cbe8bd5	0.023260036
177	0x3c65eb1a	0.014033103
178	0x3ca0b430	0.01961717
179	0x3d0ab819	0.033866975
180	0x3d04d7bd	0.032432307
181	0x3c405b65	0.01174054
182	0xbbf051ee	-0.0073339855
183	0x3c697514	0.014249105
184	0x3b3611bb	0.0027781564
185	0x3bcc1cfd	0.0062290416
186	0x3c026ed4	0.007960994
187	0x3c353f81	0.011062504
188	0x3c116714	0.008874673
189	0x3c94dbd9	0.018171238
190	0x3c6b5fb2	0.014366077
191	0xbc9e4cd0	-0.019323736
192	0xbc0b0c47	-0.008486814
193	0x3cca0ac8	0.024663344
194	0x3c9a5747	0.018840445
195	0x3c92b0f6	0.017906647
196	0x3ca18333	0.019715881
197	0x3b90d092	0.004419395
198	0xbc8596d6	-0.016307276
199	0x3c758bb4	0.014986921
200	0x3cc9e0b9	0.024643289
201	0x3c72a72b	0.014810364
202	0xbcad42c6	-0.021150004
203	0xbc51951a	-0.012791896
204	0xbc82360a	-0.015894908
205	0xbc909fb8	-0.017654285
206	0x3c9fcd6d	0.019507134
207	0x3b91cd0c	0.0044494923
208	0x3c724c4f	0.014788701
209	0x3ca3e0c1	0.020004632
210	0x3c8a63d0	0.016893297
211	0x3c63f41a	0.013913179
212	0x3c17b838	0.00926023
213	0x37ec40f6	2.8163642e-05
214	0xbb58bbb0	-0.0033070855
215	0x3c5cd547	0.013478584
216	0x3c945cfd	0.018110747
217	0xbb914713	-0.0044335215
218	0x3c927f88	0.017883077
219	0xbbca0519	-0.0061651585
220	0x3b38b223	0.002818235
221	0x3cbb87a8	0.022891834
222	0x3d107ea3	0.03527702
223	0x3d2867fd	0.041114796
224	0x3cf2bdc5	0.029631505
225	0x3cc3cd71	0.023901673
226	0xbb5dbe63	-0.0033835403
227	0xbcf497c0	-0.029857516
228	0xbb1dcab5	-0.0024077122
229	0x3ba66751	0.0050782342
230	0xbca9a071	-0.020706387
231	0xbc9a4007	-0.018829359
232	0x3c2949cc	0.010332536
233	0x3ca574f0	0.020197362
234	0xbb8a550a	-0.004221563
235	0xbca854f2	-0.020548318
236	0x3cad99df	0.021191536
237	0x3bc77111	0.0060864766
238	0x3b94c626	0.0045402227
239	0x3c8dadd3	0.0172948
240	0x3ce2345a	0.027612854
241	0x3cf972a5	0.030450175
242	0x3bff6d3d	0.0077950046
243	0xbc2d0dc6	-0.010562366
244	0x3a78ee85	0.00094959914
245	0x3c850bd8	0.016241
246	0x3cbad65b	0.02280729
247	0x3c4b5964	0.012411449
248	0x3cad0c02	0.02112389
249	0x3b8ec156	0.0043565435
250	0xbb424853	-0.002964516
251	0x3cd367da	0.025806356
252	0x3d19e0a0	0.037567735
253	0x3d36c370	0.044619977
254	0x3d115878	0.03548476
255	0x3c760232	0.015015172

linear_layers.0.bias f4 [2]
0	0x3d0fd8e5	0.035118956
1	0xbd27f3ad	-0.04100387
