model/model_archive/nose_translation.pt (torch, 315390 bytes, 20 tensors)

cnn_layers_max.0.weight f4 [32, 1, 3, 3]
0.040708564 -0.24323584 0.11954858 0.28363085 0.29079464 0.03746844 -0.30332845 -0.018996676
0.27421185 -0.28200516 0.04066957 0.17609926 -0.30512255 0.025086315 0.3074459 0.16060884
0.3921111 0.27754152 0.24658617 -0.09528299 0.31788495 0.09270469 0.18335252 0.25819933
-0.2761755 0.0026523839 -0.05954593 -0.07445809 0.27370617 -0.10717913 -0.25264013 -0.17445834
-0.043657143 0.07988038 -0.14584418 -0.43208387 0.12763573 0.114946015 0.13524204 -0.08245876
-0.34177098 -0.3360663 -0.003922181 0.1531657 0.25430512 0.10602347 -0.21586554 -0.12186429
-0.21451198 0.044366274 0.19330195 0.2146083 0.3831869 0.104779266 -0.2704455 0.15136704
-0.20551145 -0.047727484 -0.13130921 -0.4291732 0.20422849 -0.14661671 -0.47083443 0.28627884
-0.07148307 -0.11234813 -0.1576987 -0.2703949 -0.14211455 -0.20780987 -0.33675474 -0.15250844
0.15290557 -0.36608955 -0.36981794 0.112108015 -0.25490373 0.29797456 -0.20878497 0.14941107
0.19613206 -0.4236311 0.15182969 0.066612534 0.24697357 -0.31554675 -0.20557648 0.09777873
-0.2667161 0.2342718 -0.029975269 -0.28584847 0.018353067 -0.5213702 -0.00939851 -0.40866068
0.13062645 0.02656533 0.10174618 -0.08184799 -0.009682478 0.16423598 0.021021927 -0.42689118
0.06588198 0.2645639 0.30289555 -0.1944978 -0.29597515 -0.105885446 -0.008268786 -0.16472179
-0.0037511168 0.016524527 -0.39193437 0.04844325 -0.082105696 0.21039906 0.059026983 0.21048868
-0.22552706 -0.30471376 -0.27168313 -0.24130823 -0.25842085 -0.40941972 0.19237806 0.2557813
0.23322468 0.09402334 0.07813181 0.22552294 0.06272911 -0.24969667 -0.22163597 0.049605884
-0.43176043 0.04717487 0.1663076 0.00026676417 0.12118753 -0.07765078 -0.09312463 -0.066260934
-0.39615178 -0.35037526 -0.35864052 0.09000135 0.12423839 -0.3904128 -0.35054517 0.10356029
-0.42996323 -0.2900683 -0.08859882 -0.27576768 0.11524754 0.21357928 0.2755663 0.3223424
-0.27426913 0.21598758 0.1171987 -0.3195887 -0.10823203 0.09945033 0.04477699 0.24086976
0.19643758 -0.38932002 -0.21753527 0.101699546 -0.25617957 0.2818113 0.24102941 0.11740043
0.24653403 -0.28316632 -0.096548595 0.3356731 0.17777273 -0.3110601 0.2570822 -0.2241608
0.12080653 -0.020931058 0.097417586 -0.44526735 -0.36903673 -0.09796559 -0.28597894 0.19830316
0.020919167 0.06937328 -0.46715236 -0.3363044 -0.1740886 -0.18907641 -0.06128916 -0.13878316
-0.16209283 0.2585069 -0.006429322 0.14356133 0.32583517 -0.27421263 0.26562986 -0.03159248
0.055453576 -0.35635105 0.093588136 -0.2528503 0.06967102 0.012331486 0.070416346 -0.38194633
0.37453592 0.28668946 0.04990187 0.34649253 -0.21813866 0.20133774 0.1419979 -0.20855834
-0.24761438 -0.01216673 0.14873005 0.3460904 0.20037726 0.13657798 0.037389357 -0.2388889
0.22007298 -0.17685609 0.014794726 -0.2844196 -0.02105089 -0.055783607 -0.05626653 0.009338554
-0.30706555 -0.24007767 -0.14435042 0.25788555 0.34860763 0.028200528 0.107658595 -0.12162684
-0.15016848 -0.15088344 0.1580716 0.2883341 0.18496622 -0.078894496 0.22905484 -0.05850501
00000000: 06be 263d d112 79be e3d5 f43d 1038 913e
00000010: 09e3 943e 8278 193d de4d 9bbe eb9e 9bbc
00000020: 7f65 8c3e fb62 90be 2395 263d 5d53 343e
00000030: 0639 9cbe d181 cd3c 8d69 9d3e a576 243e
00000040: c9c2 c83e ec19 8e3e 1681 7c3e ba23 c3bd
00000050: d1c1 a23e f5db bd3d c3c0 3b3e b432 843e
00000060: e066 8dbe 9ed3 2d3b 6fe6 73bd 7c7d 98bd
00000070: 3723 8c3e bb80 dbbd 0c5a 81be 35a5 32be
00000080: d5d1 32bd 5398 a33d 2d58 15be 193a ddbe
00000090: f1b2 023e d168 eb3d e47c 0a3e 23e0 a8bd
000000a0: 9bfc aebe e210 acbe a485 80bb 78d7 1c3e
000000b0: 4834 823e d522 d93d db0b 5dbe fc93 f9bd
000000c0: 07a9 5bbe 69b9 353d f2f0 453e 47c2 5b3e
000000d0: 1331 c43e 8396 d63d d577 8abe f6ff 1a3e
000000e0: 9871 52be e57d 43bd ec75 06be 97bc dbbe
000000f0: 4621 513e b122 16be 3611 f1be 2493 923e
00000100: b765 92bd c716 e6bd c57b 21be 3371 8abe
00000110: 7a86 11be 1ccc 54be 1e6b acbe 2c2b 1cbe
00000120: 4793 1c3e 1770 bbbe c758 bdbe e398 e53d
00000130: be82 82be 1f90 983e bacb 55be 37ff 183e
00000140: d8d6 483e 2de6 d8be 3e79 1b3e 276c 883d
00000150: a4e6 7c3e 588f a1be a482 52be 3740 c83d
00000160: 038f 88be f2e4 6f3e b28e f5bc bb5a 92be
00000170: 2c59 963c 8478 05bf 35fc 19bc f93b d1be
00000180: f1c2 053e 899f d93c 4d60 d03d eb9f a7bd
00000190: 42a3 1ebc 7a2d 283e 2d36 ac3c 7b91 dabe
000001a0: 22ed 863d eb74 873e 2015 9b3e 6e2a 47be
000001b0: 0e8a 97be 78da d8bd cd79 07bc d4ac 28be
000001c0: 4cd5 75bb 725e 873c 9fab c8be 6e6c 463d
000001d0: 0827 a8bd da72 573e 47c6 713d 588a 573e
000001e0: 91f0 66be 7103 9cbe 0d1a 8bbe 8119 77be
000001f0: bd4f 84be 769f d1be c1fe 443e c4f5 823e
00000200: 73d2 6e3e 4f8f c03d 9203 a03d 7cef 663e
00000210: 1f78 803d 7cb0 7fbe 8af4 62be 8a2f 4b3d
00000220: b40f ddbe 703a 413d 8a4c 2a3e 7bdc 8b39
00000230: 2b31 f83d 5f07 9fbd 20b8 bebd d0b3 87bd
00000240: 68d4 cabe 6364 b3be bb9f b7be a152 b83d
00000250: b270 fe3d 30e4 c7be a87a b3be 6b17 d43d
00000260: 2424 dcbe d583 94be 4c73 b5bd 6c31 8dbe
00000270: e706 ec3d 87b4 5a3e 0717 8d3e 100a a53e
00000280: 016d 8cbe d92b 5d3e df05 f03d 21a1 a3be
00000290: c1a8 ddbd 9dac cb3d 1468 373d 90a6 763e
000002a0: ef26 493e f454 c7be 91c1 5ebe da47 d03d
000002b0: f829 83be 9249 903e 6ad0 763e a36f f03d
000002c0: 6b73 7c3e 2dfb 90be 45bb c5bd 58dd ab3e
000002d0: 0e0a 363e 4543 9fbe 47a0 833e 698a 65be
000002e0: 6a69 f73d 9c77 abbc df82 c73d 15fa e3be
000002f0: 62f2 bcbe 2fa2 c8bd d56b 92be fc0f 4b3e
00000300: ac5e ab3c 9413 8e3d 982e efbe 1730 acbe
00000310: 4844 32be 3f9d 41be 580a 7bbd 2c1d 0ebe
00000320: aafb 25be 045b 843e 10ad d2bb be01 133e
00000330: ded3 a63e 9965 8cbe a300 883e 1e67 01bd
00000340: 4a23 633d a573 b6be 23ab bf3d 9875 81be
00000350: aeaf 8e3d 000a 4a3c 7236 903d 788e c3be
00000360: 2cc3 bf3e f6c8 923e e765 4c3d 7867 b13e
00000370: be5f 5fbe 7b2b 4e3e e667 113e 5190 55be
00000380: a08e 7dbe f756 47bc b14c 183e c332 b13e
00000390: b22f 4d3e 19db 0b3e 9525 193d 4b9f 74be
000003a0: d05a 613e c319 35be 9465 723c 729f 91be
000003b0: eb72 acbc 5a7d 64bd bc77 66bd bc00 193c
000003c0: b237 9dbe ecd6 75be 99d0 13be 9309 843e
000003d0: b37c b23e cb04 e73c 1c7c dc3d 7e17 f9bd
000003e0: c4c5 19be 3081 1abe 86dd 213e 87a0 933e
000003f0: c967 3d3e 7093 a1bd 5a8d 6a3e f3a2 6fbd

cnn_layers_max.0.bias f4 [32]
0.029807571 0.02168322 0.0070799696 -0.07640876 0.11470362 -0.00750797 -0.123387575 -0.01317247
0.15459952 0.12987861 0.084242076 -0.0068352637 -0.07985132 -0.09550158 0.01468168 -0.014850209
-0.0898549 0.03648171 -0.022758333 0.0036210434 0.1961869 -0.08764931 -0.012812202 -0.023274725
0.0022130255 0.021110428 -0.018515343 0.041337885 -0.07326024 0.13456522 0.043723777 -0.04090128
00000000: 022f f43c 02a1 b13c 17ff e73b 327c 9cbd
00000010: bbe9 ea3d 6b05 f6bb a0b2 fcbd 58d1 57bc
00000020: 564f 1e3e e6fe 043e 1c87 ac3d 59fa dfbb
00000030: 1789 a3bd 5596 c3bd 6e8b 703c 4a4e 73bc
00000040: d905 b8bd d86d 153d af6f babc 074f 6d3b
00000050: 38e5 483e 7b81 b3bd 45ea 51bc a3aa bebc
00000060: 6808 113b c7ef ac3c 7dad 97bc ea51 293d
00000070: 7709 96bd 77cb 093e b417 333d 1a88 27bd

cnn_layers_max.1.weight f4 [32]
0.99421823 0.9235662 1.027271 0.97037464 1.1962115 0.98545754 0.88812494 0.98938364
1.0439472 1.003258 1.1166459 0.97283083 0.8934093 0.943313 0.9745975 0.99638444
1.0164161 1.17719 0.9280632 1.021262 1.0693157 1.0468067 1.0401658 0.95844805
1.0149901 0.92684954 0.9399506 0.96933025 1.0323212 0.9929447 1.036248 1.0173281
00000000: 1685 7e3f d66e 6c3f 9e7d 833f 796a 783f
00000010: 751d 993f f246 7c3f 285c 633f 3f48 7d3f
00000020: 10a0 853f c26a 803f 41ee 8e3f 710b 793f
00000030: 79b6 643f f67c 713f 397f 793f 0d13 7f3f
00000040: ec19 823f 29ae 963f 8d95 6d3f b7b8 823f
00000050: 56df 883f c3fd 853f 2724 853f da5c 753f
00000060: 32eb 813f 0346 6d3f 9aa0 703f 0726 783f
00000070: 1a23 843f a031 7e3f c6a3 843f cf37 823f

cnn_layers_max.1.bias f4 [32]
-0.119678006 -0.16490893 -0.12634973 -0.008266323 -0.06415186 -0.15022892 -0.07261906 0.06858384
0.07814707 0.25498688 -0.08731894 -0.16401981 -0.005960648 -0.017260605 -0.25019014 -0.11739489
0.04784639 -0.18505241 -0.15210989 -0.11102881 -0.09175396 -0.10356341 -0.08700894 0.06436027
-0.10746954 -0.11590094 0.013172317 -0.19323306 -0.22996502 0.08001824 -0.1159175 0.06857891
00000000: be19 f5bd e3dd 28be d361 01be 796f 07bc
00000010: 0d62 83bd 9cd5 19be 4db9 94bd af75 8c3d
00000020: 920b a03d a48d 823e 46d4 b2bd cff4 27be
00000030: 8a51 c3bb 1d66 8dbc ec18 80be bb6c f0bd
00000040: 94fa 433d 617e 3dbe b2c2 1bbe 1363 e3bd
00000050: 80e9 bbbd 0e19 d4bd be31 b2bd 51cf 833d
00000060: fd18 dcbd 795d edbd b4d0 573c e3de 45be
00000070: f37b 6bbe 9ae0 a33d 2766 edbd 1973 8c3d

cnn_layers_max.1.running_mean f4 [32]
0.22668137 0.33116695 0.2576412 -0.17390332 0.035033908 0.18398386 -0.33120072 -0.5405938
-0.154018 -0.28855994 -0.1417681 0.21642534 -0.21474487 -0.2463234 0.24186026 0.14193927
-0.36893052 0.102008455 0.20156743 0.26114324 0.101988204 -0.018495461 0.09256368 -0.32978025
0.28126523 0.2593403 -0.5921115 0.32487148 0.033244416 -0.27375963 0.40536684 -0.23927595
00000000: 291f 683e b78e a93e 8ce9 833e b613 32be
00000010: b77f 0f3d 4466 3c3e 2493 a9be 5b64 0abf
00000020: e5b6 1dbe 21be 93be a82b 11be 9b9e 5d3e
00000030: 14e6 5bbe 343c 7cbe 37aa 773e 8758 113e
00000040: 76e4 bcbe cfe9 d03d b167 4e3e 91b4 853e
00000050: 31df d03d cb83 97bc 0792 bd3d f5d8 a8be
00000060: ff01 903e 40c8 843e 9f94 17bf 8e55 a63e
00000070: 4c2b 083d 392a 8cbe 3e8c cf3e c104 75be

cnn_layers_max.1.running_var f4 [32]
0.028398799 0.074731015 0.050359786 0.025299376 0.009863481 0.03191183 0.07252741 0.18295816
0.02425129 0.057582553 0.034254443 0.038026266 0.036433052 0.0488332 0.049582876 0.027929781
0.09405753 0.014358373 0.037572354 0.053409506 0.020359075 0.022271609 0.019012105 0.06131345
0.057551716 0.05041052 0.23098704 0.070073254 0.014021744 0.029349133 0.10956457 0.04154831
00000000: 99a4 e83c 930c 993d 1046 4e3d a340 cf3c
00000010: 709a 213c fbb5 023d 4089 943d 6259 3b3e
00000020: a4aa c63c afdb 6b3d 634e 0c3d 6ec1 1b3d
00000030: d33a 153d 5205 483d 6a17 4b3d ffcc e43c
00000040: 3ca1 c03d 623f 6b3c 78e5 193d edc3 5a3d
00000050: 13c8 a63c f372 b63c 46bf 9b3c d023 7b3d
00000060: 59bb 6b3d 437b 4e3d de87 6c3e 9182 8f3d
00000070: 75bb 653c 986d f03c 6463 e03d 902e 2a3d

cnn_layers_avg.0.weight f4 [32, 32, 3, 3]
-0.11393081 -0.05642779 -0.08287255 -0.032169186 -0.00258584 -0.039118797 -0.088783376 -0.03799678
-0.040804952 -0.05686584 -0.057140287 0.00085859833 -0.07457148 -0.059852134 -0.029269505 0.018572945
-0.07196025 0.004436143 -0.14424896 -0.094517216 -0.07054842 -0.10637673 -0.111443706 -0.08584296
-0.055362947 0.007308115 -0.05549559 0.02440386 -0.010486492 0.03608207 0.0303764 -0.02217716
0.04533081 0.04257565 0.0496602 0.07358132 -0.005709619 -0.016482217 -0.07504121 -0.04759981
-0.016251344 -0.06718915 -0.063030645 -0.05189116 -0.0777452 -0.067132935 -0.076404154 -0.10248704
-0.16794406 -0.053200595 -0.06692068 -0.122179 -0.16251133 -0.06555083 0.03478611 0.021536829
-0.00027888516 0.05349628 -0.013637995 0.019814277 0.02824465 0.04086853 0.031466883 -0.011822316
0.04108282 0.06154874 0.08374271 -0.0148218805 0.06332559 0.087135054 -0.026758328 0.07630573
-0.05936647 -0.07619898 -0.13448054 -0.04931286 -0.15332866 -0.20137794 -0.13428414 -0.09578886
-0.19519036 -0.16879188 -0.11402477 -0.13870086 -0.081234865 -0.051253594 -0.050345536 -0.009281574
-0.06132409 -0.09192318 -0.046005443 -0.099796586 -0.06194456 -0.10874992 -0.07435983 0.0024973985
-0.094621524 -0.047591895 -0.039126437 -0.028063169 -0.05127445 -0.03595839 0.020366194 0.010861234
0.009469787 -0.06818103 0.0010223933 -0.06596563 -0.0029841224 0.08253333 0.08951963 0.09828967
-0.016600238 -0.014494368 0.009131078 0.05226345 0.08007719 0.01927968 0.001483158 -0.02250433
0.08594022 0.04407207 0.0072274758 0.049638227 -0.019885482 0.036256824 -0.084296994 -0.07916688
-0.14293541 -0.07405027 -0.14733618 -0.08162238 -0.095697135 -0.091614924 -0.03565825 -0.06311087
-0.056261953 -0.02677858 -0.016830262 0.011842957 -0.06181636 -0.06952497 0.019028632 0.0055445964
-0.005818097 0.05355739 0.027813578 0.055559754 0.016288547 0.07721179 -0.0018852929 0.07722963
0.07589333 -0.032562885 0.014705119 -0.068719186 -0.005247428 -0.004633572 -0.0065077064 -0.03416415
0.027106402 -0.034949448 -0.05468766 -0.006770624 -0.07498026 -0.07217447 -0.046654087 -0.021997977
0.011058727 -0.022690695 -0.045789823 -0.08728675 -0.08262322 -0.054618195 -0.038999062 -0.059060857
-0.0335743 -0.0006070854 -0.030490015 -0.049586073 -0.1467276 -0.04995603 -0.042617727 -0.064029425
-0.0086562345 -0.019863414 -0.021822166 -0.0051783426 0.022855619 -0.0916298 0.0010015152 0.005701922
-0.044333003 0.017213503 -0.03831007 -0.043248728 0.020945568 -0.038415603 -0.021568343 -0.10198491
0.0077595 -0.0134135485 -0.049699392 -0.036624152 -0.014278387 -0.06358154 -0.08556488 0.02698575
0.06955049 0.05627679 0.012337322 0.041468564 0.07050135 -0.010317964 -0.031296466 -0.0076209414
-0.08678629 -0.061516188 -0.08246226 -0.07527959 -0.13922572 -0.08268386 -0.09156278 -0.084198505
-0.03647387 -0.09252991 -0.09298433 -0.122659765 -0.114671156 -0.026533756 -0.09206796 -0.06385146
-0.053019933 0.02350753 0.015322657 0.06060059 0.0072430335 0.0054271417 0.06421218 0.002930397
-0.007841387 0.038694363 0.02028602 -0.061129447 0.012778544 0.017030716 -0.083847545 0.026749888
-0.017912215 -0.0739992 -0.032786995 0.011905744 -0.0074546165 0.013833002 0.008431093 -0.03633865
00000000: 8e54 e9bd d420 67bd 15b9 a9bd d6c3 03bd
00000010: 3277 29bb 083b 20bd 0fd4 b5bd 83a2 1bbd
00000020: 1823 27bd 28ec 68bd ef0b 6abd 8f13 613a
00000030: efb8 98bd 8327 75bd 9ac6 efbc 4a26 983c
00000040: e55f 93bd 115d 913b 00b6 13be 3e92 c1bd
00000050: b17b 90bd 0bdc d9bd 993c e4bd 6fce afbd
00000060: 42c4 62bd e978 ef3b 584f 63bd 9bea c73c
00000070: 89cf 2bbc cbca 133d eed7 f83c e0ac b5bc
00000080: cdac 393d ce63 2e3d 7e68 4b3d ceb1 963d
00000090: c117 bbbb b705 87bc 35af 99bd 05f8 42bd
000000a0: 8a21 85bc 779a 89bd 3616 81bd d38b 54bd
000000b0: e038 9fbd fe7c 89bd c879 9cbd bae4 d1bd
000000c0: 87f9 2bbe dee8 59bd b60d 89bd fc38 fabd
000000d0: 5f69 26be 833f 86bd e17b 0e3d 016e b03c
000000e0: 5537 92b9 ea1e 5b3d e671 5fbc 8d51 a23c
000000f0: 5361 e73c c265 273d 6be3 003d 63b2 41bc
00000100: 7646 283d 881a 7c3d 4c81 ab3d 79d7 72bc
00000110: d9b0 813d dd73 b23d 4834 dbbc 2e46 9c3d
00000120: 412a 73bd 360e 9cbd 44b5 09be 48fc 49bd
00000130: 3002 1dbe 0536 4ebe c881 09be f32c c4bd
00000140: fbdf 47be c7d7 2cbe d285 e9bd 9907 0ebe
00000150: 775e a6bd 4aef 51bd 1f37 4ebd be11 18bc
00000160: f82e 7bbd 3842 bcbd 3470 3cbd 2762 ccbd
00000170: 94b9 7dbd 47b8 debd f749 98bd 65ab 233b
00000180: eec8 c1bd b8ef 42bd 0b43 20bd bbe4 e5bc
00000190: 2805 52bd 1b49 13bd 01d7 a63c 51f3 313c
000001a0: 2a27 1b3c 7fa2 8bbd d401 863a fd18 87bd
000001b0: 4491 43bb 3c07 a93d 1156 b73d 184c c93d
000001c0: 39fd 87bc c979 6dbc 849a 153c 3312 563d
000001d0: 83ff a33d 6bf0 9d3c 8666 c23a 005b b8bc
000001e0: 6d01 b03d ea84 343d 76d4 ec3b 7451 4b3d
000001f0: e1e6 a2bc 0982 143d e7a3 acbd 3f22 a2bd
00000200: a95d 12be aba7 97bd 4cdf 16be a229 a7bd
00000210: dcfc c3bd 9ba0 bbbd 630e 12bd 4640 81bd
00000220: ef72 66bd c15e dbbc 9edf 89bc f608 423c
00000230: 2733 7dbd 1c63 8ebd efe1 9b3c 72af b53b
00000240: bca5 bebb fe5e 5b3d 4dd9 e33c a092 633d
00000250: 8f6f 853c 3721 9e3d ef1b f7ba 912a 9e3d
00000260: f66d 9b3d a960 05bd bded 703c a5bc 8cbd
00000270: 9ef2 abbb 38d5 97bb 993e d5bb b5ef 0bbd
00000280: 3f0e de3c 2727 0fbd 2b00 60bd 1cdc ddbb
00000290: 408f 99bd 35d0 93bd 5b18 3fbd 1a35 b4bc
000002a0: aa2f 353c d6e1 b9bc 1c8e 3bbd 65c3 b2bd
000002b0: 5d36 a9bd 54b7 5fbd 7bbd 1fbd cce9 71bd
000002c0: 3585 09bd d024 1fba 32c6 f9bc c41a 4bbd
000002d0: c33f 16be b29e 4cbd ed8f 2ebd dc21 83bd
000002e0: e1d2 0dbc 99b8 a2bc 66c4 b2bc 16af a9bb
000002f0: b53b bb3c 68a8 bbbd 4645 833a 30d7 ba3b
00000300: 8696 35bd 5503 8d3c 05eb 1cbd 9425 31bd
00000310: 0a96 ab3c ae59 1dbd 18b0 b0bc 77dd d0bd
00000320: 6743 fe3b 80c4 5bbc 9791 4bbd 3503 16bd
00000330: e5ef 69bc 0a37 82bd a43c afbd 3811 dd3c
00000340: 7d70 8e3d 7e82 663d 7b22 4a3c f1da 293d
00000350: 0363 903d ad0c 29bc b930 00bd 17b9 f9bb
00000360: 03bd b1bd 66f8 7bbd f9e1 a8bd 302c 9abd
00000370: 3091 0ebe 2856 a9bd 4485 bbbd 4470 acbd
00000380: a065 15bd 5280 bdbd 926e bebd 0b35 fbbd
00000390: b6d8 eabd 525d d9bc 208e bcbd 8ec4 82bd
000003a0: 6e2b 59bd dd92 c03c e20b 7b3c 5338 783d
000003b0: f856 ed3b 2ad6 b13b ad81 833d e70b 403b
000003c0: 2979 00bc fb7d 1e3d de2e a63c df62 7abd
000003d0: 195d 513c 0084 8b3c 43b8 abbd 9522 db3c
000003e0: a3bc 92bc e48c 97bd a84b 06bd 4f10 433c
000003f0: db45 f4bb d1a3 623c 9122 0a3c d6d7 14bd

cnn_layers_avg.0.bias f4 [32]
-0.15474059 -0.08006099 -0.16459729 0.15177609 0.0039593717 -0.17441006 0.16659303 -0.02374463
-0.03551923 -0.01603233 0.016053999 -0.12143368 -0.11149188 -0.0035454435 0.054770697 0.0058391145
-0.008568146 0.06196886 -0.12081733 -0.18529114 0.017147139 -0.08937341 0.09789418 0.0045352387
-0.16013461 0.015954135 0.035776455 -0.033748034 -0.1342869 -0.14791591 0.016548993 0.06467278
00000000: 5174 1ebe 04f7 a3bd 318c 28be 316b 1b3e
00000010: 9ebd 813b 8d98 32be 5d97 2a3e 1984 c2bc
00000020: 9d7c 11bd 3c56 83bc ad83 833c 39b2 f8bd
00000030: db55 e4bd ac5a 68bb 3d57 603d 0b56 bf3b
00000040: 6961 0cbc 0fd3 7d3d 146f f7bd f6bc 3dbe
00000050: 2878 8c3c 6809 b7bd be7c c83d 579c 943b
00000060: 54fa 23be 3fb2 823c 558a 123d 613b 0abd
00000070: 8182 09be 4577 17be c191 873c 2a73 843d

cnn_layers_avg.1.weight f4 [32]
0.8881486 1.1096927 0.9060958 0.9849854 1.0577208 0.9417864 1.0294946 0.9025016
1.1299953 0.9238496 0.8755162 0.7945697 0.88749737 1.1314132 1.0852463 0.9685565
1.101959 1.1332122 0.82171655 0.89649695 1.0598752 0.73442155 0.96446586 0.9170331
0.9040036 1.1199639 1.0214918 1.0576078 0.8580839 0.8947729 0.9764786 1.1014777
00000000: b55d 633f 690a 8e3f e5f5 673f 0128 7c3f
00000010: 6563 873f ea18 713f 7bc6 833f 580a 673f
00000020: b0a3 903f 6881 6c3f d421 603f eb68 4b3f
00000030: 0733 633f 26d2 903f 5ae9 8a3f 52f3 773f
00000040: fe0c 8d3f 190d 913f 045c 523f d380 653f
00000050: fea9 873f 0d03 3c3f 3ce7 763f aec2 6a3f
00000060: c86c 673f fa5a 8f3f 3ec0 823f b15f 873f
00000070: 63ab 5b3f d60f 653f 80fa 793f 39fd 8c3f

cnn_layers_avg.1.bias f4 [32]
-0.22232354 -0.2812166 -0.1487346 -0.02335027 -0.14403391 -0.117673956 -0.03254364 -0.08523724
-0.1417659 -0.053598963 -0.043957245 -0.3431021 -0.16492978 -0.13761275 -0.07615921 0.043359414
-0.16434504 -0.07566145 -0.21287085 -0.2511103 -0.072794765 -0.18657467 0.11365241 -0.070784815
-0.21682996 -0.026865851 -0.14565675 -0.21902575 -0.16653608 -0.05000059 0.010165187 -0.08638296
00000000: c8a8 63be 9ffb 8fbe e24d 18be 1149 bfbc
00000010: a07d 13be 0bff f0bd 7b4c 05bd dd90 aebd
00000020: 152b 11be 968a 5bbd 830c 34bd 14ab afbe
00000030: 5ae3 28be 5bea 0cbe 5cf9 9bbd a499 313d
00000040: 114a 28be 64f4 9abd d1fa 59be 8791 80be
00000050: 6c15 95bd 6e0d 3fbe 98c2 e83d a1f7 90bd
00000060: ac08 5ebe c615 dcbc 0b27 15be 4948 60be
00000070: 6f88 2abe 6bcd 4cbd e28b 263c 8de9 b0bd

cnn_layers_avg.1.running_mean f4 [32]
-1.1277688 8.765997 0.84585035 2.0460317 7.5062246 0.9587544 7.504159 -3.812461
7.7180724 -5.8550625 -3.7954 -0.9352673 0.64944816 8.480477 6.791745 -6.894016
4.4453597 6.5589924 -3.5107949 0.90127766 6.950024 -4.6866755 -3.006549 -6.5165973
-0.9179996 7.3298 3.4650788 7.5795 -3.659262 -7.470734 -8.521606 7.814058
00000000: ba5a 90bf 8641 0c41 a689 583f 2ff2 0240
00000010: fe32 f040 ee70 753f 1222 f040 5cff 73c0
00000020: 73fa f640 ac5c bbc0 d5e7 72c0 ae6d 6fbf
00000030: 3c42 263f 09b0 0741 fa55 d940 c79b dcc0
00000040: 6340 8e40 44e3 d140 ddb0 60c0 22ba 663f
00000050: 9966 de40 3ff9 95c0 4c6b 40c0 f787 d0c0
00000060: 0602 6bbf b98d ea40 dac3 5d40 448b f240
00000070: 5931 6ac0 4110 efc0 8058 08c1 c30c fa40

cnn_layers_avg.1.running_var f4 [32]
30.162369 18.201946 26.541086 37.484467 20.060083 24.407127 16.413925 44.948627
13.986085 7.748926 33.673428 26.021936 29.091108 22.615688 14.66948 15.357867
23.997807 9.046472 36.198624 25.726196 26.668665 48.627697 32.712116 12.452937
30.05233 35.82819 33.302174 12.60783 38.457153 15.159844 18.905582 15.088875
00000000: 884c f141 969d 9141 2554 d441 18f0 1542
00000010: 0d7b a041 cc41 c341 b84f 8341 65cb 3342
00000020: 01c7 5f41 34f7 f740 97b1 0642 ed2c d041
00000030: 97ba e841 eeec b441 31b6 6a41 d3b9 7541
00000040: 82fb bf41 59be 1041 64cb 1042 40cf cd41
00000050: 6d59 d541 c382 4242 35d9 0242 3b3f 4741
00000060: 2c6b f041 1150 0f42 6d35 0542 acb9 4941
00000070: 20d4 1942 b98e 7241 a23e 9741 086c 7141

cnn_layers_max_2.0.weight f4 [32, 32, 3, 3]
0.0033992282 -0.011009472 0.01701716 0.014937178 0.04226686 0.06158448 0.024108456 0.071972586
-0.01552832 -0.10353902 -0.02570041 -0.064330064 -0.10838644 -0.10260635 -0.106837556 -0.08551739
-0.082484536 -0.10457839 -0.013099628 -0.018232914 0.008298639 -0.04129486 -0.007468615 -0.03645696
-0.021989245 -0.0068233763 -0.10687997 -0.029957334 -0.025623366 -0.10516092 -0.04571412 -0.11106382
-0.079883315 0.026873864 -0.067048416 -0.02869642 -0.044752482 -0.062462207 0.0012939774 -0.0152689135
-0.02542267 -0.047971494 -0.08513133 -0.029171998 -0.08268937 0.0519721 0.06299126 -0.023846973
0.02563938 0.033192586 0.0426644 -0.013832121 0.016986243 -0.03752406 -0.05727053 -0.022065904
-0.109334 -0.021490613 -0.032956302 -0.029508784 -0.12800346 -0.03213042 -0.014260259 0.01645594
-0.02914728 -0.06579351 -0.047849923 -0.09706408 -0.06533436 -0.012458342 -0.039944243 -0.1513927
-0.09462212 -0.11652866 -0.094342574 -0.033374608 -0.05003245 -0.09308206 -0.063446485 -0.052527014
-0.021297453 0.04393675 0.014151116 0.08101628 0.060895614 0.042216107 -0.029702324 -0.030119022
0.021153554 0.00052201445 -0.0073426343 -0.12923692 -0.066740096 -0.03808049 -0.06745092 -0.18589497
-0.03601114 -0.11101764 -0.056026444 0.031367697 0.060052462 0.047999967 0.09228864 -0.01803734
0.07266077 -0.0070888037 0.038392425 0.05000007 0.08352863 0.09826673 0.014113213 0.03906968
0.024205795 0.0017672499 0.021610849 0.033371992 0.051869463 -0.08640667 -0.12540908 -0.10952348
-0.12312299 -0.08089474 -0.05785708 -0.013021072 -0.07542599 -0.0397016 -0.07252371 -0.023690265
-0.042218816 -0.03627349 -0.017837442 -0.11629279 -0.07398559 -0.05342931 -0.023183977 -0.20490196
-0.14533582 -0.12639268 -0.07699941 -0.19400205 -0.07738971 -0.14535967 -0.16853411 -0.10346065
-0.091330655 -0.035809234 -0.11559968 -0.062190197 -0.09978808 -0.123565 0.00065144873 -0.05884347
-0.01838237 -0.096221566 -0.042903516 -0.037489906 -0.12653105 -0.0939004 -0.12806332 -0.083922304
-0.09838991 -0.022638235 0.009702023 -0.019178523 -0.0083893165 -0.032356746 0.02136632 0.008224046
-0.014935622 0.020405287 0.039951045 0.01495905 0.050127506 0.07042801 0.060275257 0.018903734
0.029251778 0.047167424 -0.007675822 0.048527703 -0.10360701 -0.029740753 -0.123409405 -0.023847526
-0.0304476 -0.051144786 -0.12168538 -0.09154518 -0.049727906 0.09575442 0.04510384 0.0065371282
-0.0015469893 -0.0007851224 0.039320096 0.06039353 -0.0074599157 -0.0067554107 -0.08194153 -0.14349763
-0.027945088 -0.11261482 -0.09339041 -0.10820012 -0.018166382 -0.07446994 -0.033032842 -0.030284217
0.01449851 -0.04151173 -0.048373014 -0.035054702 -0.047552664 -0.09835912 -0.012455966 -0.002478978
0.081010856 -0.011146352 0.05851656 -0.009964541 0.04834334 0.020065608 0.054864448 -0.018142847
0.029817767 -0.05657213 -0.06836304 -0.12293229 -0.11802191 -0.09787218 -0.11379121 -0.05446012
-0.09300503 -0.023118991 -0.073502645 -0.07432873 -0.0621182 -0.0635497 -0.019644653 -0.026601214
-0.027475541 -0.08747562 -0.10167531 -0.0069154287 -0.093691334 -0.009304061 -0.09652764 -0.034245998
-0.07176288 -0.055698577 -0.05666685 -0.060625132 0.033554416 0.048220955 0.0142330555 0.08468389
00000000: 96c5 5e3b 1361 34bc 9267 8b3c 11bb 743c
00000010: 0420 2d3d 0240 7c3d 197f c53c 5d66 933d
00000020: 7f6a 7ebc 440c d4bd ab89 d2bc 7bbf 83bd
00000030: b6f9 ddbd 4723 d2bd a6cd dabd be23 afbd
00000040: a7ed a8bd 322d d6bd d29f 56bc 315d 95bc
00000050: 04f7 073c cd24 29bd 49bb f4bb e553 15bd
00000060: ca22 b4bc a196 dfbb e3e3 dabd 1569 f5bc
00000070: 18e8 d1bc 9c5e d7bd bb3e 3bbd 6e75 e3bd
00000080: dd99 a3bd 9426 dc3c ae50 89bd c114 ebbc
00000090: 614e 37bd 5fd8 7fbd ad9a a93a 772a 7abc
000000a0: 3443 d0bc c27d 44bd 5659 aebd 1dfa eebc
000000b0: 0b59 a9bd b2e0 543d 9001 813d ba5a c3bc
000000c0: ad09 d23c f3f4 073d dec0 2e3d 1fa0 62bc
000000d0: bc26 8b3c d4b2 19bd 8194 6abd 8ec3 b4bc
000000e0: 81ea dfbd 150d b0bc 30fd 06bd 68bc f1bc
000000f0: 5713 03be 309b 03bd dda3 69bc 9cce 863c
00000100: 47c6 eebc bfbe 86bd 48fe 43bd 88c9 c6bd
00000110: 05ce 85bd 131e 4cbc 939c 23bd b006 1bbe
00000120: 3ec9 c1bd 94a6 eebd ae36 c1bd d0b3 08bd
00000130: d4ee 4cbd cfa1 bebd 3bf0 81bd 9126 57bd
00000140: ff77 aebc 06f7 333d 15da 673c ddeb a53d
00000150: ae6d 793d ccea 2c3d 4a52 f3bc 2bbc f6bc
00000160: 384a ad3c ccd7 083a 7b9a f0bb af56 04be
00000170: 08af 88bd 4afa 1bbd b523 8abd 405b 3ebe
00000180: 6b80 13bd 375d e3bd fc7b 65bd 6a7b 003d
00000190: 92f9 753d 9d9b 443d d401 bd3d 0bc3 93bc
000001a0: 2bcf 943d 3249 e8bb 6041 1d3d e0cc 4c3d
000001b0: 0f11 ab3d 1140 c93d 1b3b 673c 8707 203d
000001c0: 3b4b c63c 11a3 e73a 3c09 b13c 12b1 083d
000001d0: 1375 543d fbf5 b0bd 3d6b 00be d94d e0bd
000001e0: e827 fcbd 24ac a5bd 8cfb 6cbd 5656 55bc
000001f0: f178 9abd 259e 22bd 5087 94bd 1612 c2bc
00000200: a3ed 2cbd 8393 14bd d41f 92bc ea2a eebd
00000210: c285 97bd b1d8 5abd 53ec bdbc d2d1 51be
00000220: ead2 14be 156d 01be deb1 9dbd 79a8 46be
00000230: 7f7e 9ebd 2ad9 14be 3594 2cbe 2de3 d3bd
00000240: 910b bbbd b4ac 12bd 86bf ecbd 26bb 7ebd
00000250: b15d ccbd a60f fdbd fcc5 2a3a da05 71bd
00000260: a096 96bc d00f c5bd 99bb 2fbd 048f 19bd
00000270: 5b91 01be da4e c0bd 0823 03be 75df abbd
00000280: a680 c9bd d273 b9bc 3cf5 1e3c 471c 9dbc
00000290: 5873 09bc 8288 04bd 6c08 af3c 26be 063c
000002a0: 8ab4 74bc fd28 a73c b5a3 233d ce16 753c
000002b0: 8052 4d3d 8f3c 903d 30e3 763d 01dc 9a3c
000002c0: 6da1 ef3c a132 413d 7685 fbbb fcc4 463d
000002d0: e92f d4bd e1a2 f3bc 12be fcbd e35b c3bc
000002e0: 3f6d f9bc 327d 51bd 2f36 f9bd 0a7c bbbd
000002f0: 7daf 4bbd e51a c43d cebe 383d 6835 d63b
00000300: 59c4 caba acd0 4dba 1c0e 213d 355f 773d
00000310: 4f72 f4bb 7e5c ddbb f6d0 a7bd 0bf1 12be
00000320: 19ed e4bc 99a2 e6bd 7943 bfbd 0698 ddbd
00000330: aad1 94bc b283 98bd 724d 07bd 9b16 f8bc
00000340: 298b 6d3c 3408 2abd c822 46bd 8595 0fbd
00000350: 95c6 42bd 8270 c9bd 1c14 4cbc 5976 22bb
00000360: 05e9 a53d 309f 36bc 0faf 6f3d 5042 23bc
00000370: ab03 463d a160 a43c 8bb9 603d 4fa0 94bc
00000380: 6444 f43c 2eb8 67bd ec01 8cbd edc3 fbbd
00000390: 79b5 f1bd 3671 c8bd 5e0b e9bd 9311 5fbd
000003a0: 6c79 bebd 0a64 bdbc 8e88 96bd a939 98bd
000003b0: a76f 7ebd 5826 82bd d3ed a0bc caea d9bc
000003c0: 6314 e1bc 6b26 b3bd 253b d0bd d29a e2bb
000003d0: 3ee1 bfbd 0f70 18bc 49b0 c5bd 8845 0cbd
000003e0: 6bf8 92bd 3124 64bd 801b 68bd 0f52 78bd
000003f0: 5b70 093d 5683 453d c331 693c bf6e ad3d

cnn_layers_max_2.0.bias f4 [32]
-0.14862381 -0.1558435 0.017453143 0.011008494 -0.07409554 -0.048898775 -0.0793513 -0.13630098
-0.0201623 -0.19132702 -0.14990579 -0.12353597 -0.06613357 -0.2484795 0.036469083 -0.053565428
-0.036629323 -0.2552509 -0.09255956 -0.12915854 -0.02187375 -0.047290497 -0.121113025 0.12992129
-0.08912942 -0.057411723 -0.0011225314 -0.09258627 -0.063371085 -0.0803253 -0.034501627 -0.06993258
00000000: d730 18be 7095 1fbe e5f9 8e3c f85c 343c
00000010: 67bf 97bd 154a 48bd ef82 a2bd 7c92 0bbe
00000020: 682b a5bc 3beb 43be e780 19be 6d00 fdbd
00000030: 0a71 87bd 6971 7ebe 9b60 153d 6c67 5bbd
00000040: a108 16bd 3fb0 82be de8f bdbd 2342 04be
00000050: 9430 b3bc aeb3 41bd 1b0a f8bd 160a 053e
00000060: 7c89 b6bd 8e28 6bbd e721 93ba df9d bdbd
00000070: b3c8 81bd 9781 a4bd 9451 0dbd d038 8fbd

cnn_layers_max_2.1.weight f4 [32]
0.79049635 0.78386194 0.8722955 0.8868884 0.8033705 0.76558256 0.752378 0.76533717
0.7915998 0.8106015 0.8033572 0.7970226 0.75756955 0.7617754 0.8225442 0.80516917
0.8244031 0.7783711 0.8122375 0.7979343 0.8180033 0.8210587 0.7732593 0.80554086
0.781763 0.83625716 0.852151 0.82180166 0.82541925 0.8004416 0.81548184 0.8277299
00000000: f85d 4a3f 2dab 483f c24e 5f3f 1e0b 633f
00000010: b0a9 4d3f 38fd 433f d89b 403f 23ed 433f
00000020: 49a6 4a3f 9483 4f3f d1a8 4d3f ac09 4c3f
00000030: 14f0 413f b603 433f 4292 523f 911f 4e3f
00000040: 150c 533f 5443 473f ccee 4f3f 6c45 4c3f
00000050: aa68 513f e730 523f 52f4 453f ed37 4e3f
00000060: 9f21 483f f314 563f 9126 5a3f 9861 523f
00000070: ad4e 533f bee9 4c3f 6bc3 503f 1be6 533f

cnn_layers_max_2.1.bias f4 [32]
-0.22127181 -0.24549676 -0.18164474 -0.11329922 -0.1853493 -0.23385283 -0.2179808 -0.26145482
-0.2501807 -0.20442854 -0.21732125 -0.20663074 -0.2439647 -0.22018823 -0.17672496 -0.22073777
-0.2110216 -0.2583018 -0.21417013 -0.21380116 -0.20087337 -0.18085898 -0.18419802 -0.13775344
-0.24359347 -0.16860291 -0.1589574 -0.19481428 -0.18932833 -0.1926615 -0.1890272 -0.18379685
00000000: 1495 62be 8163 7bbe 1401 3abe 6c09 e8bd
00000010: 35cc 3dbe 1e77 6fbe 5c36 5fbe 68dd 85be
00000020: af17 80be b755 51be 7689 5ebe 0297 53be
00000030: e2d1 79be 0679 61be 63f7 34be 1509 62be
00000040: 0c16 58be 2240 84be 6a4f 5bbe b1ee 5abe
00000050: c0b1 4dbe 1933 39be 689e 3cbe 3d0f 0dbe
00000060: 9170 79be 3ea6 2cbe bbc5 22be 657d 47be
00000070: 49df 41be 0e49 45be 5990 41be 3e35 3cbe

cnn_layers_max_2.1.running_mean f4 [32]
-2.5288694 -3.353016 -3.5841885 -4.230786 -0.14267056 -4.335821 0.2748783 -4.346251
-2.5399482 -2.0148215 -1.9005286 1.3763504 0.39642087 0.64079255 4.0311275 -2.6779888
-2.0992503 -2.518206 -1.9196327 -3.4669867 -4.466704 -4.3199487 5.239144 3.2548082
-2.798703 -1.6194843 -2.888461 0.6346391 -1.7336364 4.385856 3.1693234 -2.6983297
00000000: ffd8 21c0 d097 56c0 5863 65c0 9962 87c0
00000010: 3b18 12be 0cbf 8ac0 d9bc 8c3e 7d14 8bc0
00000020: 838e 22c0 d6f2 00c0 8544 f3bf 402c b03f
00000030: adf7 ca3e fb0a 243f fffe 8040 2b64 2bc0
00000040: 1e5a 06c0 492a 21c0 86b6 f5bf 1ce3 5dc0
00000050: 3def 8ec0 053d 8ac0 11a7 a740 c74e 5040
00000060: f31d 33c0 434b cfbf 8cdc 38c0 b577 223f
00000070: cce7 ddbf ef58 8c40 32d6 4a40 6fb1 2cc0

cnn_layers_max_2.1.running_var f4 [32]
19.202494 19.810266 22.78807 24.223488 11.4006195 29.92998 14.552256 22.390478
24.064714 35.296165 25.73282 16.967148 18.576101 15.231632 17.678581 29.67086
27.512732 24.733486 24.657742 18.972551 27.458857 29.828304 11.321236 24.549994
27.48175 17.122149 20.48736 21.923923 30.128284 15.709201 12.49023 31.99295
00000000: b59e 9941 6d7b 9e41 f84d b641 b4c9 c141
00000010: f068 3641 9970 ef41 0ad6 6841 b31f b341
00000020: 8984 c041 462f 0d42 d1dc cd41 b8bc 8741
00000030: db9b 9441 c4b4 7341 bc6d 8d41 ec5d ed41
00000040: 131a dc41 2ede c541 0e43 c541 c9c7 9741
00000050: bdab db41 5ea0 ee41 c823 3541 6366 c441
00000060: a0da db41 29fa 8841 1de6 a341 3264 af41
00000070: ba06 f141 e358 7b41 fbd7 4741 90f1 ff41

linear_layers.0.weight f4 [2, 28800]
0.024683554 0.027410485 0.014839265 -0.0023361028 0.0050458 -0.0026691565 -0.0030067859 -0.00074102404
0.005464623 0.0034090623 0.007387007 0.000444399 0.009032245 7.574965e-05 -0.0025291482 0.0067999572
0.0012636596 -0.0023391957 -0.007960827 -0.0108672315 -0.012945618 -0.0021836106 0.0020124472 -0.0049245134
0.0044138595 0.0018363615 -0.00088702014 0.008230477 0.006748293 0.013853204 0.028593114 0.027890414
0.009906885 0.0023629812 -0.0073555484 -0.0037631616 0.0030520062 0.002436309 0.004749574 0.0070419624
-0.00044343178 0.0026021965 0.003280315 -0.0037160704 0.0031843162 0.0053395065 -0.002992895 0.0003533681
-0.0008318097 0.0021001636 -0.0035288034 -0.004353578 0.0019201965 -0.0080191605 0.002421305 0.007972445
0.007000648 0.0015783046 0.014589536 0.0068595014 0.030103322 0.026828215 0.013097797 -0.0042523774
-0.009346099 -0.0026026035 -0.009292591 -0.0070322594 0.003659288 0.00877873 0.0008501624 -0.0030137696
0.004320995 -0.009200946 -0.0057059578 -0.006805831 -0.0010781216 0.0038225686 -0.00035563417 -0.0050735404
-0.001644585 -0.008686665 -0.010732408 -0.007428707 0.0031483984 0.013534099 -0.001150275 0.0010559527
0.012101015 0.010224924 0.01915687 -0.0002474055 -0.0006141076 -0.0016629491 -0.00892304 -0.011070688
-0.017951733 -0.013165841 -0.007673743 -0.004236742 -0.0070468416 -0.00809257 -0.009304761 -0.00053149264
-0.00876478 -0.018139787 -0.011654169 -0.0036285364 0.0005919735 -0.01800757 -0.014869011 -0.022735324
-0.018886352 -0.018064858 -0.012759672 0.0033076473 -0.009568487 0.008646308 -0.0057921056 -0.0052013607
-0.0036654936 -0.006759821 -0.0077810762 -0.01989807 -0.012801367 -0.016071247 -0.026162466 -0.020440577
-0.017624272 -0.0058234865 -0.0031436086 -0.008768616 0.001159713 -0.0051868525 -0.008090055 -0.012800123
-0.00302978 -0.0043024137 -0.009831959 -0.00604072 -0.008217766 -0.011565776 -0.014607826 -0.01722212
-0.0077381474 -0.0065845065 0.004494401 0.0042012865 -0.008508237 -0.009477318 0.0077507948 0.0043535037
0.019779604 -0.01907786 -0.009863203 -0.009837313 -0.009819465 -0.0069804373 -0.0040339045 -0.0018983027
-0.0031686204 -0.005351361 -0.009063264 0.0025504252 0.021829538 0.0047556264 0.0040616184 -0.00030756817
-0.0028199123 -0.010887347 -0.004081802 -0.013059928 -0.010858718 -0.005229376 -0.0053733354 -0.0026047477
-0.012345616 -0.0015149217 -0.004342675 0.0029964386 0.0010519383 -0.00018514445 1.7087339e-05 -0.023890227
-0.016031496 -0.012361082 -0.011604733 -0.0052474863 -0.00932107 -0.014634284 -0.007959607 -0.006893276
-0.0008001209 0.028759819 0.019008253 -0.007423594 0.0012581497 -0.00040845413 -0.007075278 -0.014799755
-0.018900497 -0.020660093 -0.011535599 -0.008724673 -0.012816085 -0.0069773826 -0.0063496134 0.009927847
0.0040868702 0.011451786 0.030466689 0.022685235 0.017186241 -0.02735829 -0.02011874 -0.016930614
-0.02015714 -0.006476505 0.0005260739 -0.00844069 -0.0038881109 0.0019598184 0.0012303081 -0.005933739
-0.00787742 -0.009593066 -0.013552845 -0.02065355 -0.014423875 -0.009376336 -0.022632191 -0.011963435
-0.014837921 -0.014766572 -0.010747388 0.0055644265 -0.007337519 0.010042983 0.008637903 0.015519235
0.02638089 0.018734068 0.0059869117 -0.020058775 -0.014094546 -0.017491424 -0.003292523 0.0035531365
0.005796416 0.00039392692 -0.0014502818 0.0042331065 0.01818631 -0.0069344155 -0.012963629 -0.008162989
00000000: 2a35 ca3c f48b e03c 6320 733c 4d19 19bb
00000010: 3d57 a53b 04ed 2ebb 7f0d 45bb 4841 42ba
00000020: 9510 b33b 936a 5f3b b50e f23b 39fe e839
00000030: fbfb 133c c9db 9e38 11c0 25bb 2dd2 de3b
00000040: 61a1 a53a 314d 19bb 216e 02bc 790c 32bc
00000050: db19 54bc e81a 0fbb 43e3 033b d05d a1bb
00000060: 23a2 903b 11b2 f03a ea86 68ba 1fd9 063c
00000070: c920 dd3b 8df8 623c 1b3c ea3c 707a e43c
00000080: 7d50 223c 3fdc 1a3b d006 f1bb 609f 76bb
00000090: 2b04 483b 7baa 1f3b 50a2 9b3b 43c0 e63b
000000a0: 687c e8b9 9d89 2a3b 8efa 563b 5189 73bb
000000b0: f6af 503b 07f7 ae3b 7224 44bb 4344 b939
000000c0: ce0d 5aba e6a2 093b 7f43 67bb 76a8 8ebb
000000d0: 1aaf fb3a cc62 03bc c2ae 1e3b dc9e 023c
000000e0: b165 e53b 1ddf ce3a f308 6f3c abc5 e03b
000000f0: 3e9b f63c d8c6 db3c 2498 563c 8757 8bbb
00000100: 6120 19bc 7190 2abb f43f 18bc de6e e6bb
00000110: aad0 6f3b aad4 0f3c 6fdd 5e3a aa82 45bb
00000120: 2297 8d3b 91bf 16bc 0bf9 babb 7303 dfbb
00000130: c24f 8dba 0f84 7a3b 6974 bab9 f13f a6bb
00000140: 1e8f d7ba 8452 0ebc fbd6 2fbc 836c f3bb
00000150: 5c55 4e3b 20be 5d3c d3c4 96ba e567 8a3a
00000160: 5643 463c 7186 273c deee 9c3c 34b6 81b9
00000170: 10fc 20ba 50f7 d9ba f131 12bc d561 35bc
00000180: 830f 93bc 8ab5 57bc 0674 fbbb 5ed4 8abb
00000190: 31e9 e6bb b396 04bc ff72 18bc de53 0bba
000001a0: 279a 0fbc e499 94bc 21f1 3ebc bdcc 6dbb
000001b0: ab2e 1b3a 9d84 93bc 279d 73bc 6e3f babc
000001c0: 8db7 9abc c1fc 93bc f10d 51bc 1dc5 583b
000001d0: 25c5 1cbc 3fa9 0d3c b4cb bdbb 2d70 aabb
000001e0: c738 70bb 7d81 ddbb 66f8 febb 4701 a3bc
000001f0: d3bc 51bc d9a7 83bc ab52 d6bc ff72 a7bc
00000200: c760 90bc f2d2 bebb 0005 4ebb 3eaa 0fbc
00000210: 8301 983a 79f6 a9bb 268c 04bc 9bb7 51bc
00000220: 468f 46bb 43fb 8cbb 3a16 21bc 3bf1 c5bb
00000230: cfa3 06bc 617e 3dbc aa55 6fbc 6715 8dbc
00000240: 4990 fdbb d8c2 d7bb c545 933b f2aa 893b
00000250: 2266 0bbc c146 1bbc 61fa fd3b d6a7 8e3b
00000260: d608 a23c 2c49 9cbc 4699 21bc ae2c 21bc
00000270: d2e1 20bc 27bc e4bb d82e 84bb 78d0 f8ba
00000280: a1a8 4fbb 785a afbb 167e 14bc 0925 273b
00000290: dcd3 b23c 16d5 9b3b 5317 853b 1a41 a1b9
000002a0: 47ce 38bb d860 32bc a3c0 85bb 4ff9 55bc
000002b0: c4e8 31bc 2f5b abbb ce12 b0bb 6ab4 2abb
000002c0: 4445 4abc 5690 c6ba 004d 8ebb e65f 443b
000002d0: 31e1 893a 5623 42b9 c856 8f37 70b5 c3bc
000002e0: 7c54 83bc 2386 4abc c721 3ebc 1bf3 abbb
000002f0: 67b7 18bc a3c4 6fbc 0369 02bc fde0 e1bb
00000300: 34bf 51ba b699 eb3c 32b7 9b3c 9f41 f3bb
00000310: 80e8 a43a c925 d6b9 bcd7 e7bb ac7a 72bc
00000320: 37d5 9abc 5b3f a9bc cfff 3cbc eef1 0ebc
00000330: 8efa 51bc 87a2 e4bb 6b10 d0bb 69a8 223c
00000340: 27eb 853b 46a0 3b3c 4795 f93c 63d6 b93c
00000350: 29ca 8c3c 7e1e e0bc 0ed0 a4bc 12b2 8abc
00000360: 9620 a5bc dd38 d4bb 39e8 093a d24a 0abc
00000370: adcf 7ebb 4c70 003b 4a42 a13a cf6f c2bb
00000380: 4b10 01bc 3c2c 1dbc c10c 5ebc a231 a9bc
00000390: 1e52 6cbc 349f 19bc 2567 b9bc 4902 44bc
000003a0: c01a 73bc 7eef 71bc d015 30bc cb55 b63b
000003b0: 926f f0bb 538b 243c fe85 0d3c 6444 7e3c
000003c0: bc1c d83c 3078 993c db2d c43b 4d52 a4bc
000003d0: d0ec 66bc 2d4a 8fbc 5fc7 57bb bddb 683b
000003e0: ddef bd3b fa87 ce39 6217 beba dfb5 8a3b
000003f0: 75fb 943c 183a e3bb 6765 54bc 0fbe 05bc

linear_layers.0.bias f4 [2]
-0.004014923 0.012951622
00000000: 9d8f 83bb 0a33 543c
