model/model_archive/nose_translation.pt (torch, 315390 bytes, 20 tensors)

cnn_layers_max.0.weight f4 [32, 1, 3, 3]
00000000: d99c 02bf a710 4c3e 0cdc 543e 9eef 013e
00000010: bde9 9abe 8076 b0be 02bf a53e 9860 c33e
00000020: 8bdd b2bc ce96 0a3e 3a6b edbd 544a 363d
00000030: bdf5 823e 2ca3 dc3e 7315 90be 3fc0 d63d
00000040: ba3b 8f3e 2b79 89be f617 f43d 3c0e 05bf
00000050: fa8d ebbd 570a c6bd 81c2 213d 94c6 40be
00000060: 308f 8a3d 7843 0dbe 056d 223e 0bea 4ebe
00000070: 45b8 39bc d11d 6abe 536a 953e e90a 0cbe
00000080: c3ef 7abe c45a a73e 3342 0ebe 8ca7 88be
00000090: 5d89 a6be 2aa2 b8bc b9f7 c43d e2ce abbe
000000a0: 6f15 343d adbd b93d 2113 84be 9c6a abbd
000000b0: 1e8a af3d 00be 9e3e f030 73be 7e0d 6cbe
000000c0: b992 803e bc95 ff3d 9340 973e d33d 3fbe
000000d0: 3092 213e 3a35 663d cdaa d83d 5376 6e3e
000000e0: 3355 80be 0138 47bd 237a 98bd 0e4f 9cbe
000000f0: 1349 2d3c eed6 dfbc e6e3 a1bd 089d 27bb
00000100: 6cce 873e ed83 70be 6d13 1a3e 9c02 9f3e
00000110: 3ce3 fd3d 4055 473c 2cab 77be 0586 753e
00000120: bb81 8cbc b809 303e 7012 f9bd 9345 523e
00000130: 037b 1bbe 2eb7 063d 7dea a2be 2160 d3be
00000140: 20c0 3b3e 773a 8cbe 3465 cfbb ac42 b7bc
00000150: ba49 353e b0e3 7f3d 8311 ccbd 482c 53be
00000160: cbc4 0c3e 8d8c c3bb 39e0 833e ca2d 95be
00000170: b5e4 05be d0fd 4cbe 3a04 37be 203b 56be
00000180: 9d3d 53bd cc71 e13d 7e69 163e 584d 63be
00000190: 90bc e8bc 2071 9cbe 77cb 6b3e db0c 63be
000001a0: 0111 8abe 66ac 883d a47e 4b3e ea08 dabc
000001b0: b9b7 a33e d9d3 003e 5a21 80bd 8086 623e
000001c0: 32cf 953d a185 6fbd 846d 37be 0d45 473d
000001d0: 1473 b3bd df37 543e 26f4 be3d ddd5 89be
000001e0: a66d aebe 25e4 88be a7e4 b53d 3e90 39bd
000001f0: 38ee a83d 42f5 683d 23b3 393e e29c 633c
00000200: 3fb4 403e bbec a5bd f461 d3be 6925 a3bd
00000210: d9ff b9bd ad5d b2bd 3856 d23d 27d9 89be
00000220: dfeb 25be 7243 a9be 6911 edbd 97ac 42be
00000230: 1469 a23e ebd7 94bd 0f51 153c 0666 8b3e
00000240: 8005 723e b319 8ebd 4e38 513e e23d 7bbd
00000250: 871f fcbc f4ea 81bd aa31 c5bd aee6 a7be
00000260: 44a5 a1be d016 9abe 89e5 563e cd34 50be
00000270: fd2e 963b 271e 81be acab ef3d c4d1 843e
00000280: 4382 23be b162 afba f72b aabb 992a f1bc
00000290: 126e 9c3e ab55 b43d 49bf a83d cfd1 d73c
000002a0: 186c 423e c018 98be 8a89 6abd e285 5dbe
000002b0: 0429 943e 1288 5a3e 1f3e a2be 52ce 173e
000002c0: 09a3 a53d ee64 19be e979 b83d 0012 3a3d
000002d0: 2699 e73d a8f0 e0bd bb1f 9dbc 2461 d9bd
000002e0: 4fdc 94be 1d66 b4be 7c68 7ebd 4dff 243d
000002f0: 4fc8 c43d dae0 2dbe ad84 983d 124a f4bd
00000300: 4be9 2a3d 8281 92bc 4ceb 2bbe 2aac a1be
00000310: 05a3 883e ca0e 4dbc c078 4bbe 9390 163e
00000320: 5a1e 84bd 1849 9cbe 28b6 103e a3e2 b0bd
00000330: b682 f4bd d41d 85be 69f3 b33d ecc8 9bbe
00000340: 75db e63a 9b6f 48be 5099 d53d a7d2 d3bd
00000350: d961 cfbc dd24 973e b78b ef3d f429 8e3e
00000360: 8283 863e ed40 15be d3ab f4bc 365d 543d
00000370: e6e9 85bb 0bbc 0a3d 30dd acbe b7fa 11bd
00000380: cc4c 5fbe 567b 0a3e 97d5 bdbe 92f0 e0bd
00000390: 2af7 bfbe 22ce 19be a771 823e 7ed1 703e
000003a0: 7e26 3a3d 92d6 ce3c 6f71 06be de87 8b3e
000003b0: 6f17 b83d 612e 2d3e b260 943d 10b1 293e
000003c0: 0578 a43d fb20 b1be 1e03 4cbe a133 4d3d
000003d0: c099 e23c 7ad1 1cbe c959 b43e 900d 1b3d
000003e0: 72e9 d93e 047b da3d 3a78 59be d8c6 46be
000003f0: 8de3 c4bd 0e89 b2bd 7035 303d 2296 8f3e
-0.5102058 0.19928227 0.20787066 0.12689063 -0.30256453 -0.34465408 0.3237229 0.38159633
-0.021834156 0.1353409 -0.115927175 0.04450448 0.25578108 0.4309324 -0.28141364 0.10485887
0.27975255 -0.26850256 0.11918633 -0.51974845 -0.11501689 -0.09669941 0.039492134 -0.18825752
0.06765592 -0.13795269 0.158619 -0.20206468 -0.011335437 -0.22862937 0.2918268 -0.13676037
-0.24505524 0.32686436 -0.1389244 -0.26690328 -0.32526675 -0.022538263 0.09617562 -0.33556277
0.043965753 0.09069381 -0.25795844 -0.083699435 0.08571266 0.31004333 -0.23749137 -0.23052022
0.2511194 0.124797314 0.29541454 -0.18675928 0.15778422 0.056203105 0.10579453 0.23287325
-0.25065002 -0.048637394 -0.07445171 -0.30529064 0.010576504 -0.027324166 -0.07904796 -0.0025575776
0.26524675 -0.23487826 0.15046473 0.31056678 0.12396857 0.012166321 -0.2418639 0.23976906
-0.017151704 0.17191207 -0.1216172 0.20534353 -0.15183644 0.032889538 -0.31819525 -0.41284278
0.18335009 -0.27388355 -0.006329203 -0.022370659 0.17703906 0.062473 -0.099642776 -0.2062236
0.13746946 -0.0059676827 0.25757006 -0.29136497 -0.13075526 -0.20018697 -0.17872706 -0.20920992
-0.05157243 0.11008033 0.1468868 -0.22197473 -0.028410226 -0.30555058 0.23026834 -0.22172873
-0.26966098 0.066735074 0.19872528 -0.026615579 0.31976107 0.12580813 -0.06256361 0.2212162
0.0731491 -0.058477048 -0.1791287 0.048649836 -0.08762184 0.20724438 0.09323911 -0.26920977
-0.3406803 -0.2673656 0.088815026 -0.045303576 0.082485616 0.05687452 0.18134741 0.013892384
0.18818758 -0.081017934 -0.4128567 -0.0796612 -0.09082002 -0.087092735 0.10270351 -0.26923487
-0.16203259 -0.3305927 -0.11575586 -0.1901115 0.31720793 -0.072677456 0.009113564 0.27226275
0.2363491 -0.069384955 0.20431635 -0.061338313 -0.030776752 -0.06343642 -0.09628613 -0.32793182
-0.315714 -0.3009553 0.20985998 -0.20332642 0.004583238 -0.25218317 0.11702666 0.25941288
-0.1596766 -0.0013380853 -0.0051932293 -0.029439257 0.30552727 0.08805402 0.0823961 0.026345162
0.18986547 -0.29706383 -0.057260074 -0.21633103 0.28937542 0.21340969 -0.3168802 0.14824799
0.08087737 -0.14979908 0.090076275 0.045427322 0.113085076 -0.109834015 -0.01918017 -0.10614231
-0.29074332 -0.35234156 -0.062111363 0.040282536 0.09608518 -0.16980305 0.07447181 -0.1192819
0.04172639 -0.01788402 -0.16788977 -0.31576663 0.26686874 -0.012515733 -0.19870281 0.14703588
-0.064511016 -0.30524516 0.14131987 -0.086369775 -0.11938994 -0.2599932 0.08786661 -0.3042673
0.0017613011 -0.19573824 0.10429633 -0.10342913 -0.025315212 0.29520312 0.1169657 0.27766383
0.26272207 -0.14575548 -0.029867088 0.051846705 -0.0040867208 0.033870738 -0.33762503 -0.03563949
-0.2180664 0.13523611 -0.3707702 -0.10983385 -0.3749326 -0.1502004 0.25477335 0.23517415
0.045446865 0.0252488 -0.13129209 0.27252096 0.089888446 0.16912223 0.07245006 0.1657145
0.080307044 -0.34595475 -0.19923064 0.050098065 0.027661204 -0.15314284 0.3522475 0.03785473
0.42560917 0.106679946 -0.21237269 -0.1941179 -0.09613714 -0.08717547 0.043019712 0.2804423

cnn_layers_max.0.bias f4 [32]
00000000: 0be3 6c3d 9d06 98bc 55f1 edbd 3a4c 80bc
00000010: 7d1f 9a3c 1c44 b63c 2fdd d2bb 70fc 063a
00000020: 2364 50bd 2bd5 083d d0f5 e53c 17be b7bb
00000030: 999b 96bc e051 903d ae2e 87bd 28fd a0bb
00000040: 3b3b 4e3e f272 d53c 009c 803b dec6 da3c
00000050: 338f 5cbd a352 b1bc 92b3 30bc cb63 6bbb
00000060: 44c6 8bba 037c 9cbc bc2f c73c 2c03 acba
00000070: 5140 b5bd 6d53 cdbc 3479 95bc 0947 1f3d
0.057833713 -0.018557841 -0.11618296 -0.015661348 0.018813843 0.022249274 -0.0064350585 0.00051493105
-0.050876748 0.033406418 0.028071314 -0.0056073773 -0.018384742 0.070468664 -0.066007 -0.004912991
0.20139782 0.026055787 0.0039248466 0.026706155 -0.053847503 -0.02164585 -0.010785 -0.0035917636
-0.0010663946 -0.019102102 0.024314754 -0.0013123504 -0.08850158 -0.025064195 -0.01824627 0.038886104

cnn_layers_max.1.weight f4 [32]
00000000: d03d 973f e2af 653f 8982 843f 440a 7e3f
00000010: 4481 6d3f 4667 703f d89c 5b3f fca9 683f
00000020: 5b14 793f 9bc7 813f 7d52 7d3f fa14 633f
00000030: a758 7e3f 94f5 7d3f 477e 6c3f 03dc 843f
00000040: 6c49 693f 27bf 723f 5993 753f 1267 573f
00000050: a2da 7e3f 76bb 813f 6a6d 5f3f 354a 863f
00000060: 8856 723f 9a8a 8e3f 60ce 893f 7e04 6e3f
00000070: c77e 7d3f 2ab1 7f3f e696 793f 60e4 7b3f
1.1815739 0.897215 1.0352336 0.99234414 0.9277537 0.9390758 0.857862 0.90884376
0.97296685 1.013904 0.9895399 0.8870388 0.9935402 0.9920285 0.92380184 1.0379642
0.9112766 0.94822925 0.9592796 0.8414165 0.9955236 1.0135334 0.8727633 1.0491396
0.94663286 1.1136048 1.0766106 0.92975605 0.9902157 0.99879706 0.9749588 0.9839535

cnn_layers_max.1.bias f4 [32]
00000000: 1052 54be 9390 12be 1c47 f33c bf13 9dbd
00000010: 937c 97bd b203 13be fd03 e5bd 846c 1abe
00000020: def2 18be ea1b 063d 8d67 02bc 8dd6 e4bd
00000030: 87dd 4fbd c023 703d b006 76be fb32 923c
00000040: 15a6 ab3c d533 92bd d694 18be 3eb6 41be
00000050: 54fd 20be 031c 84bd 16f9 26be 175a 2abe
00000060: 4182 8abd d662 51bd 585e cabb a2ec 50be
00000070: da42 49be e562 5abe ccc6 ddbd 6253 4d3d
-0.2073443 -0.14312963 0.029696994 -0.07669782 -0.073968075 -0.14356878 -0.11182401 -0.15080458
-0.14936396 0.032741465 -0.007959259 -0.11173735 -0.050748374 0.058627844 -0.24025989 0.017846575
0.020953218 -0.071387924 -0.14900526 -0.18917176 -0.15721637 -0.06450655 -0.16305956 -0.16635929
-0.06763125 -0.051119648 -0.0061757974 -0.20402768 -0.19654408 -0.21326788 -0.10828933 0.05012835

cnn_layers_max.1.running_mean f4 [32]
00000000: b2c5 a83d 7b6e 5f3e 1252 33be 160b 0abf
00000010: 5848 e5be 8723 5e3e e7e6 9abe 5cb9 883e
00000020: d528 c43b 1462 9ebe 918c f6be d2ac f9be
00000030: 554a 163e 8f5f abbe 94ca d93d 65f7 16bf
00000040: 2d10 88be a9f4 bbbe 7b62 233e 6b3c af3d
00000050: 2440 0cbe 2fce 9fbe 520e 59be d97d cc3d
00000060: 289b 95be 7972 9b3d df60 053e 0a74 413e
00000070: eca2 48bb 93da bd3d 84ee 83be 96c8 84be
0.082408324 0.21819489 -0.17511776 -0.53923166 -0.44781756 0.2169324 -0.3025429 0.26703918
0.005986313 -0.30934203 -0.4815412 -0.48764664 0.14676793 -0.33471343 0.10634342 -0.58971244
-0.2657484 -0.36710098 0.15955536 0.08556446 -0.13696343 -0.31211993 -0.21196869 0.09984941
-0.29219937 0.07590193 0.13025235 0.18891922 -0.0030614687 0.09270205 -0.2576791 -0.25934285

cnn_layers_max.1.running_var f4 [32]
00000000: 20ec 6c3c a114 233d 4bc7 073d 1250 563e
00000010: 2b83 1c3e a436 2c3d f930 8f3d 3912 323d
00000020: 675c 193c 58c7 973d d6b4 213e 26ef 353e
00000030: c870 c83c e7cc 953d 3ffb c53c 64e7 733e
00000040: b686 683d 2d1a d43d 0647 bf3c 93c5 543c
00000050: c5c2 e93c 41c4 8d3d f8c6 2a3d 90ff 683c
00000060: a40f 873d 365e 1c3c db97 a03c 71f7 0c3d
00000070: d154 653c 257b 9a3c 0220 623d 0416 633d
0.014460593 0.039814595 0.033149045 0.20928982 0.15284412 0.042044297 0.06991763 0.04347441
0.009360409 0.07411069 0.1579164 0.17767009 0.02446784 0.07314473 0.024167655 0.23818737
0.056769095 0.10356555 0.023349296 0.0129865585 0.028535256 0.06922198 0.041693658 0.014221087
0.0659478 0.009543946 0.01960366 0.034415666 0.013997273 0.018857548 0.055206306 0.055440918

cnn_layers_avg.0.weight f4 [32, 32, 3, 3]
00000000: d0b6 5bbe 54c9 4dbe 6ebe 23be a443 59be
00000010: 9e11 44be a0fc 0cbe 18e8 7bbe 1e8f 6dbe
00000020: a2c4 1abe 094c 983c 931c ab3b eed9 c3bd
00000030: 781c b3bc a9da 18bc 4c8b c9bc cfa7 0e3d
00000040: bec1 c33c 1e73 5d3c f98c 46bd 72ee 02bd
00000050: f594 533b daed 40bc c57d 91bd dead d4b6
00000060: 3c80 2abd 9369 ecbc 140e f2bc 2654 963d
00000070: 014a 5c3d 292c b63d 3f4b bfbb d21d 043d
00000080: db6d b83d 72aa 813d 5714 b93d 1b5e a53d
00000090: 90c8 1e3d 514d 2d3c c933 35bd 685d 00bd
000000a0: 6c5f 28bd 34a6 21bd 449c a2bb 940c 893b
000000b0: 9723 15bd e318 cabd 474b d0bd 657d b3bd
000000c0: 00d2 52bd 2ff9 04be d707 01be e14e d5bd
000000d0: aba7 0ebe 77b2 5fbd 1759 433d a067 833d
000000e0: 144f 093d cb49 183d a1ec ab3c cdf1 6bbc
000000f0: 2cf0 48bd 7e65 8f3d 80cc 703d 3736 623d
00000100: 4323 3e3d 8be7 533d bef0 ffbc 7dbf 9ebc
00000110: 2f81 d2bd c40a e3bc cbd3 b5bc da64 ebbb
00000120: a40d fa3c d345 59ba a2ad 98bd d721 05be
00000130: af6c f3bd ba17 adbd 6055 1abd 12df b8bd
00000140: d9a2 b3bd de4f 82bc e074 473d 5377 1b3d
00000150: 9fed 063d 1f0c 4d3d e6bf dd3c 70de a1bb
00000160: 9aff 2f3d 7ec4 c63d dc1b 013c 37a4 8a3d
00000170: 2c2e 533b 5bfe 933d c1a6 083d 087b e23c
00000180: c50c e9bc e99a 383d 1f8d 493c 5e4b 5f3d
00000190: 76d1 313d a065 923d f97f 193d fc88 913c
000001a0: 5b76 2b3d b1b2 c63c d08c 983d 191f 133c
000001b0: 613b ecbd 11ae 35bd b615 d2bd 97cc 95bd
000001c0: 7c9b dbbd 736f a8bd 158e e8bc 56c6 ecbd
000001d0: 74af 8abc 6ddc 9a3c 3c7d 1d3d cea9 e43d
000001e0: f063 4cbd f7cc eabc 644e 11bd b821 14bd
000001f0: 85eb 75bc 1f87 b2bc 3325 dcbd 45ba a0bd
00000200: b4c9 a9bd a752 04be 6d32 a8bd 7c0f 24bd
00000210: c409 c6bd 037a ddbd 921b bfbd ac3a 033d
00000220: f970 fd3c 3f99 b63c 4ba6 a73d e66f d0bc
00000230: ee68 433d ea92 9fbc 63bd 663b 8f97 2f3d
00000240: 5a2b 273d 4d1a c23c 0078 24bc efcd bcba
00000250: c70d 513c 8456 9e3d ba9b ea3d 491f 2b3e
00000260: 20e3 0b3e 24ff 343c 9fa5 24bb 1fe2 923d
00000270: ea90 57ba 89df b3bc 5b84 ff3c 5c2b b5bc
00000280: f02b 0cbb ec84 86bb a603 8f3c 6d12 bcbc
00000290: 74ff fabb 2d56 afbd 2493 c4bd 3e18 c9bc
000002a0: dd01 a9bd fec8 a1bd 22dc 84bd 61f6 3b3d
000002b0: b16a 93bc 67fb e5bd 7ff5 113a fb6b bbbd
000002c0: 2c8e 8bbc 6f97 103d 6cc9 28bd 1215 febc
000002d0: 57cb 7bbd 83f8 92bd b3e1 6fbc 3d04 e6bd
000002e0: 1638 dabd cf19 13bc 4fb9 d1bd 8b75 25bd
000002f0: 8157 82bd a663 493d 0b85 a9bb e193 523d
00000300: 0d6c 283d 2630 c43c 5990 ea3c fbb2 30bd
00000310: 48d0 343d 5d31 e9bb 8a3a 8f3d b08b 09bd
00000320: 9d28 65bd 2840 803d a172 be3c 9548 573c
00000330: 8f5f 763d 1e70 b43c 8b70 1fbd c5a1 cdbd
00000340: b00e 96bc 191e c4ba 1588 86bd 978d e1bc
00000350: 7466 3bbd 0649 f4bd c4eb 9dbd f187 edbd
00000360: 5e87 c33a ef8e e73c 1cef 563d 8483 fe3c
00000370: 8029 553d 4818 973d 1d27 f13c 8c93 4cba
00000380: a095 cc3d 6185 d9bd 4fb4 a5bd eddc d2bc
00000390: 381e 8fbd 29a2 5bbd cab6 8abd 66aa 07be
000003a0: 2f89 a9bd b85b b2bd 2705 a8bd 7805 8abc
000003b0: 5f50 203d 4ab2 d7bd 9943 85bd 6c98 adbd
000003c0: db3c 8fbd 9591 54bd 2e08 53bd 4d77 663c
000003d0: bd33 2a3c 2fae d43c 140d f0bd 80b0 bbbd
000003e0: 32e8 07bd 28a9 84bd 3d38 67bc ba4d 91bc
000003f0: d64b c5bc 99ff e9bc d7d8 91bd 6435 c3bc
-0.21456456 -0.20096332 -0.15990612 -0.21217209 -0.19147345 -0.13768244 -0.24600255 -0.23199126
-0.15114072 0.018590944 0.005221912 -0.09563051 -0.02186416 -0.009329476 -0.024602555 0.034828003
0.023896094 0.013516216 -0.048474286 -0.03196568 0.003228483 -0.011775458 -0.07104067 -6.338333e-06
-0.0416262 -0.028858935 -0.029547729 0.07340269 0.053781513 0.08895142 -0.0058378275 0.032255
0.09005328 0.06331338 0.09037083 0.0807459 0.03876549 0.010577516 -0.04423884 -0.03133908
-0.041106626 -0.039465144 -0.004962476 0.0041824076 -0.036410894 -0.09868028 -0.10170608 -0.087641515
-0.051469803 -0.12985681 -0.12600647 -0.104154356 -0.13931148 -0.054613557 0.047692385 0.06416249
0.03352268 0.03717975 0.020986857 -0.0144009115 -0.04905717 0.0700178 0.058788776 0.055227485
0.046420347 0.05173449 -0.031242725 -0.019378418 -0.10278546 -0.027715094 -0.022195717 -0.0071836533
0.030524082 -0.00082882977 -0.07454993 -0.1300119 -0.11885964 -0.08451791 -0.037679076 -0.09026922
-0.08771295 -0.015907224 0.048695445 0.037955593 0.032941457 0.050060388 0.027069043 -0.0049398467
0.04296837 0.09705447 0.007880177 0.06769603 0.0032223566 0.07226249 0.033362154 0.027646556
-0.028448472 0.04506961 0.012301712 0.054515235 0.04341265 0.0714829 0.03747556 0.017765515
0.04186092 0.024255129 0.07448733 0.008979582 -0.11534763 -0.044355456 -0.10258047 -0.07314413
-0.10723016 -0.08224382 -0.028388062 -0.11561267 -0.016929366 0.018903935 0.03844951 0.111652
-0.049899995 -0.028662188 -0.03547515 -0.03616497 -0.0150097655 -0.021792946 -0.10749283 -0.07848028
-0.08290425 -0.12922154 -0.08212743 -0.04005383 -0.096698314 -0.108142875 -0.093314305 0.032038376
0.030937659 0.02228987 0.08186015 -0.025443982 0.04770749 -0.019479234 0.0035208098 0.042869147
0.040812828 0.023694182 -0.010038376 -0.0014404635 0.012759632 0.07731345 0.11455484 0.16711153
0.1366086 0.011047158 -0.0025123132 0.071720354 -0.0008223193 -0.021957176 0.031191042 -0.022115402
-0.0021388493 -0.004105201 0.017457794 -0.022958005 -0.007659847 -0.085613586 -0.09598377 -0.024547692
-0.082523085 -0.07899664 -0.064872995 0.045889262 -0.01799521 -0.11229592 0.0005567893 -0.09151455
-0.017035566 0.03530067 -0.041207716 -0.031015906 -0.061473217 -0.07176306 -0.014641213 -0.11231277
-0.10655229 -0.008978321 -0.10240423 -0.0403953 -0.06364346 0.049167298 -0.0051733307 0.05141056
0.04111867 0.02394874 0.028633283 -0.04313944 0.044143945 -0.0071164803 0.06993587 -0.033580482
-0.055946935 0.06262237 0.023248019 0.0131398635 0.060149726 0.022026118 -0.03892569 -0.10040621
-0.01831755 -0.0014962583 -0.06568924 -0.027533336 -0.045752004 -0.119279906 -0.07710984 -0.115981944
0.0014917662 0.028266398 0.052474126 0.03106857 0.05204153 0.07377678 0.029437596 -0.00078039686
0.09989476 -0.10621143 -0.08091032 -0.025740111 -0.06988186 -0.053621445 -0.067731455 -0.13248596
-0.08278119 -0.087089 -0.08204108 -0.01684831 0.039139148 -0.10532053 -0.06507034 -0.08476338
-0.06994029 -0.05189665 -0.051521473 0.014066529 0.010388312 0.025961963 -0.117212445 -0.09164524
-0.033180423 -0.064775765 -0.014112529 -0.017737258 -0.024084013 -0.028564261 -0.07121437 -0.02382917

cnn_layers_avg.0.bias f4 [32]
00000000: c795 403d fca7 043d 95c6 e1bc e79d b4bc
00000010: 3280 d4bd 1ed4 7b3d 7217 02be 64e6 98bd
00000020: 64a5 b2bd 4014 61bc d332 84bd 3a56 a6bd
00000030: 365f babd 66ed a0bd 837d f0bd 47dd dfbc
00000040: 0860 29bd 1a1e 16ba a864 663d f5d0 33bd
00000050: bbac b13e 8adb edbd 75d0 413e 22bc babd
00000060: 7b27 3ebd 7b06 4e3c c70a 583d ee43 12bd
00000070: 771a e93b f3e3 013e e79f e9bd 394f a6bd
0.04701784 0.032386765 -0.027560512 -0.02204795 -0.10376014 0.061481588 -0.12704256 -0.074658185
-0.08722952 -0.013737738 -0.064550065 -0.08121915 -0.09100191 -0.0785778 -0.117426895 -0.027327193
-0.04135135 -0.00057265314 0.056248337 -0.04390045 0.34702095 -0.116141394 0.18927176 -0.09117915
-0.04642437 0.012574787 0.052744653 -0.035709314 0.0071137506 0.12684612 -0.11407452 -0.08120579

cnn_layers_avg.1.weight f4 [32]
00000000: f180 503f fb3b 883f 0b5b 5b3f 85b1 753f
00000010: 3cad 6e3f 21ce 673f d780 6d3f 129f 7f3f
00000020: 242c 7d3f de1c 973f 4f57 803f 2fac 763f
00000030: c2e4 843f ed98 833f 7f1c 5a3f b813 693f
00000040: de0e 503f 7cb1 7b3f 09e5 893f b247 6c3f
00000050: f206 803f 1b36 803f 7627 7d3f 5289 483f
00000060: a23f 5e3f 5301 8a3f 8e18 823f 42a6 993f
00000070: f0a2 5d3f e50e 6a3f 7845 7e3f a72e 8e3f
0.8144675 1.0643305 0.85685796 0.95974 0.93233085 0.905489 0.9277472 0.998521
0.9889548 1.1805685 1.0026644 0.9635648 1.0382311 1.0281044 0.8519973 0.91045713
0.81272686 0.98317695 1.0773021 0.922969 1.000212 1.0016512 0.9888834 0.78334534
0.86815846 1.0781654 1.0163743 1.2003863 0.8657675 0.9142898 0.9932475 1.1107987

cnn_layers_avg.1.bias f4 [32]
00000000: fa32 18be 236f 58be 028b 20be b4b0 77bd
00000010: 420b 72be 85fc c4bd e280 a9bd 543a 0bbe
00000020: ab6a 17be 5ef4 3cbe 7d11 bcbd 6e6b 3ebe
00000030: 7057 c6bd 0ea7 aebd 779a 52be 7fef 8dbd
00000040: 5529 32be d807 06be 6321 20be 9c5b 75be
00000050: c6d8 2d3e 80f3 5dbb 533d 883d 3e3a 48be
00000060: f2d6 09be 83e4 02be 0927 8c3d 4617 3ebe
00000070: 7fa5 fdbd 36fd 5fbd afff 52be 8de9 f2b9
-0.14863196 -0.21136145 -0.15678027 -0.06047125 -0.23637107 -0.09618477 -0.082765356 -0.13596469
-0.14786784 -0.18452594 -0.09183023 -0.18595669 -0.09684646 -0.08527957 -0.20566736 -0.06930446
-0.1739858 -0.1308893 -0.15637736 -0.23960727 0.16977224 -0.003386706 0.06652322 -0.19553468
-0.13460901 -0.12782483 0.06843383 -0.18563566 -0.123850815 -0.05468484 -0.20605348 -0.00046331846

cnn_layers_avg.1.running_mean f4 [32]
00000000: 2fcc 2bc0 348b f33f ef67 893e 1833 2240
00000010: 9b88 ba40 38ec 0240 cbc8 edc0 9f5e 5140
00000020: 3e42 d640 3be7 f740 c6b7 b640 798f 0441
00000030: 5fe4 e640 865a bf40 ce56 c0c0 cab3 2cc0
00000040: 29ce 39c0 bea4 dc3f 507e 6d40 7576 b740
00000050: fb9d 73be 1ba8 9cc0 6656 4e40 893f c5c0
00000060: 50da 93c0 73d1 9e40 d2fa dd3f 9281 fb40
00000070: 7615 c0bf 8716 b33f c295 0041 84d6 8840
-2.6843374 1.9026856 0.26837108 2.5343685 5.8291755 2.0456676 -7.430761 3.2714002
6.695586 7.7469764 5.7099333 8.2850275 7.2153773 5.9798 -6.0105963 -2.6984735
-2.903208 1.7237775 3.7108345 5.73321 -0.23790734 -4.8955207 3.2240233 -6.1640058
-4.6203995 4.9630675 1.7342169 7.8595667 -1.5006549 1.399125 8.036562 4.276186

cnn_layers_avg.1.running_var f4 [32]
00000000: c3c1 9e41 e70d e441 6afd ef41 2d49 eb41
00000010: 32f0 2e41 316a 0a42 c84e 6941 c74b 9041
00000020: d78a 0742 76d3 c041 562f eb41 42d8 6c41
00000030: 857b be41 db39 8341 2c34 0941 c0db bf41
00000040: 7ca0 ea41 44eb e141 c577 dc41 cae5 ab41
00000050: 1a91 1842 bbcc a440 5064 cc41 a2bc a841
00000060: c34b 9f41 dcee 3241 cd86 3742 21a5 a541
00000070: 4d2f 2141 4522 cc41 ac07 e141 2b97 7d42
19.84461 28.506788 29.998737 29.41073 10.933641 34.603703 14.581734 18.037
33.885586 24.103252 29.398113 14.802797 23.810312 16.40325 8.575237 23.9823
29.328362 28.239876 27.558481 21.487202 38.1417 5.1499915 25.54898 21.092106
19.911993 11.183315 45.88164 20.70563 10.074048 25.516733 28.128746 63.397625

cnn_layers_max_2.0.weight f4 [32, 32, 3, 3]
00000000: 02aa 97bd 3fe3 c1bc 7374 72bb d64c 2bbd
00000010: 9bd1 13bd 0a14 6ebd f30d 0fbc 2107 b7bd
00000020: 2f80 96bd 6253 263d ac90 243d f25f 08bc
00000030: 4e57 313d 1d77 f13c f256 4a3d 68d1 f9bc
00000040: f0c8 afbd a0d3 80bc ee57 e3bd 1f37 d0bd
00000050: 51da c6bc 02c1 01bd 541b 2abd f9d3 dabd
00000060: 4ab9 65bd 2c6c 9bbd 4538 93bd fa22 03bd
00000070: 41a4 8abc 8ffa a7bd b8e7 74bd c468 03be
00000080: 89b6 3ebd cc18 82bd a11f cbbc f0df 71bd
00000090: 7151 5b3c 4f3f 343c 2f53 b13d 8fe9 8b3d
000000a0: bf3b 35bc 5232 ad3c 1b7c 3c3d 2624 863d
000000b0: 1445 903d d8eb 16be 2dd0 a1bd 4250 02be
000000c0: eb0f 72bd bafa 90bd 78b3 54bd c225 d3bc
000000d0: a448 0dbe 398d c6bd 6294 663c 3c05 83bd
000000e0: de27 f8bb abd5 2abc 9b73 90bc bf0a e0bb
000000f0: 406d 21bc bc99 00bd ae06 cebd fb24 ddbd
00000100: be4a 08be a7d0 ddbd 9c93 70bd afad d4bd
00000110: cc0c b3bd 9f15 66bd 61e2 0dbd 7386 6fbc
00000120: a4d4 8abc bc6d 94bd c6be f3bd 1f43 08bd
00000130: 022f 59bc 4ecc c3bc 902b c8bd b2c0 9bbd
00000140: a75c 1abd 5895 6d3d a74f b03c 19e1 2d3d
00000150: 9001 0fbd 991b 543c f475 70bc 3156 a43d
00000160: 26ca a53d 210c e8bc 8759 cdbd b50a 8cbd
00000170: 157b a3bd 89d7 9cbd f571 a2bc 28ef babd
00000180: ccc3 2ebd 8424 47bd a51b 56bc 8a9e 97bc
00000190: e575 573d 6dc4 413d d0d3 de3d 25fb ae3d
000001a0: 135c 173d b54e 9a3d 58c9 633d 846c 8a3d
000001b0: ccee 07be db41 ffbd 23bd c4bc cff2 debd
000001c0: be32 2ebd 9870 e7bd 33c1 dfbd 8f22 8fbd
000001d0: 1aa0 79bd a240 81bd 46a6 b1bd f0ef 89bd
000001e0: 193f 03be f53a 04be f036 e3bd aec9 c3bd
000001f0: 09d4 01be 2fd6 74bd 2edc 093e eed6 053e
00000200: d58b 453d a4df 893d b5e7 a33d 123a 013d
00000210: 255c 893b 6dc7 713d 7931 8f3d aba8 433d
00000220: 39dd 213d c3e8 ef3b 4171 b2bb f566 c83c
00000230: af71 7abb 5db0 0f3d ea2f 7d3c 9d12 4b3d
00000240: c2f8 3a3d 50b3 1c3d b242 333c 2044 54bb
00000250: 95bb 60bc 924a 303d d62d 573d 732b 6a3d
00000260: 3eb0 af3d efd4 12bd 8f7b 323d 6d28 e93b
00000270: b5c3 fa3c 5fde 51bd 00ba 30bd cbaf 483b
00000280: 3f7b 66bc 969c 363c ad11 eabc 1941 95bd
00000290: fe4b 99bd fca1 04be d1a3 86bd 7d92 0dbd
000002a0: d0ff a5bb 6a57 06be 5639 28be b20c 0cbd
000002b0: a38e 673c d9dc 10bc ecf2 9a3c 14c8 a83d
000002c0: 362a b13c 24aa 403d 9aa9 563b d944 9f3c
000002d0: 7af6 67bd bb90 203d 94d9 41bd 166a e4bd
000002e0: 6e9c 9dbb df23 e2bd 4dbe 3e3c 4322 86bd
000002f0: 5f2c 93bd 2ef8 4f3e d449 fb3d 5ddb f63d
00000300: 5189 353e 7913 0c3e 363e ab3d 9670 833d
00000310: 1a5f 1c3e ea15 d63d 31a1 ac3c dd66 0e3d
00000320: a78f 11b7 2c18 1f3d b5f3 423d ce3d a9bc
00000330: f133 9abb 50c3 84bc 6fe7 3f3d b73f a9bd
00000340: 714c b5bd 587f 27bd 8e77 e2bd bdb2 b8bd
00000350: 9441 aabd c991 08be a28e 12bd f9f8 01be
00000360: 492a 75be d5e3 58be 2dfe 3cbe c375 3ebe
00000370: 5631 06be 84f6 2cbe 3e80 49be 9f19 68be
00000380: 183f 5abe 350d 2dbd 9fef 13be 1c42 f5bd
00000390: 4abb 0fbe 705e 77bd 094c 96bd bb50 ebbd
000003a0: 78a1 61bd 4153 0cbe f710 8d3d 1de4 fb3b
000003b0: e5de 863d 0fa9 313d 004e bcbc ce10 cd3c
000003c0: 74ca da3d 0fd3 653d a216 953c cf62 603d
000003d0: 86ac cdbc c267 1638 6513 513d a1be b0bc
000003e0: 1b1c cb3c c1a3 813c d1f2 173d c4b7 083c
000003f0: 33b0 033c b102 67bc ee5e f4bc 060f d5bd
-0.07405473 -0.02366793 -0.0036995679 -0.041821323 -0.036088567 -0.05812458 -0.008731353 -0.089369066
-0.07348668 0.040606864 0.040177032 -0.008323656 0.04329615 0.029475743 0.049399324 -0.03049536
-0.08583248 -0.01572591 -0.11100756 -0.101667635 -0.024274023 -0.031678207 -0.04152997 -0.10684962
-0.05608491 -0.075889915 -0.07188467 -0.032015778 -0.016924025 -0.08202087 -0.059791297 -0.12832934
-0.046560798 -0.06352386 -0.024795355 -0.059051454 0.013386116 0.011001422 0.08658444 0.06831657
-0.011061608 0.021142159 0.046016794 0.065498635 0.070444256 -0.14738405 -0.079010345 -0.12725928
-0.05909721 -0.07079072 -0.051928967 -0.02577484 -0.13797241 -0.09694905 0.014073463 -0.06397483
-0.007573112 -0.010426919 -0.01763325 -0.0068372185 -0.009852707 -0.031396613 -0.10059868 -0.10798069
-0.13309762 -0.10830813 -0.05873452 -0.1038469 -0.08742675 -0.056172963 -0.03463972 -0.014619458
-0.016947098 -0.07247493 -0.119016215 -0.033267137 -0.013255836 -0.023901131 -0.09773934 -0.07605113
-0.037686016 0.058003753 0.021522356 0.042450998 -0.0349136 0.012946033 -0.01467656 0.08024252
0.080951974 -0.028326096 -0.100268416 -0.0683798 -0.079824604 -0.076582976 -0.01982973 -0.09127647
-0.042667195 -0.04861881 -0.013068114 -0.018508215 0.052602667 0.047306467 0.10880244 0.08543996
0.036953043 0.075345434 0.05561194 0.06758979 -0.13274688 -0.12463733 -0.024015969 -0.10886156
-0.04252886 -0.113007724 -0.10925522 -0.069890134 -0.0609437 -0.06311156 -0.08674292 -0.067352176
-0.12817039 -0.12913115 -0.11094463 -0.09559952 -0.12678541 -0.059774574 0.13462898 0.1307027
0.048229057 0.06732109 0.08003179 0.03154952 0.0041918927 0.059028078 0.06991858 0.047768276
0.039517615 0.0073214485 -0.00544563 0.024463156 -0.0038214733 0.035080303 0.015453318 0.049578298
0.04564739 0.038256943 0.010941194 -0.0032389238 -0.013716598 0.043039866 0.052533947 0.057170343
0.085785374 -0.0358476 0.043574866 0.007115415 0.030610899 -0.05123746 -0.043146133 0.003062236
-0.01406747 0.011145731 -0.028572882 -0.07287807 -0.074851975 -0.12952417 -0.06574214 -0.03456353
-0.0050658956 -0.13119283 -0.16428122 -0.034191795 0.014133128 -0.008841717 0.018914662 0.08241287
0.021626573 0.04703726 0.00327549 0.019442009 -0.056631543 0.039200526 -0.04732664 -0.11153047
-0.0048099076 -0.11041998 0.011642051 -0.06549504 -0.071861975 0.20309517 0.12269941 0.12053559
0.17728163 0.13679303 0.08361475 0.064179584 0.15270653 0.104533985 0.021072956 0.034766067
-8.67612e-06 0.03884141 0.0475957 -0.020659354 -0.004705899 -0.016206414 0.04685157 -0.08264106
-0.08852471 -0.04089293 -0.110579595 -0.090184666 -0.08313289 -0.13336863 -0.035780556 -0.12692632
-0.23941912 -0.21180661 -0.18456335 -0.1859961 -0.13104758 -0.16890913 -0.19677827 -0.22666024
-0.21313131 -0.042248923 -0.14446877 -0.119755 -0.14036289 -0.060392797 -0.07338721 -0.114900075
-0.05508563 -0.13703634 0.068880014 0.0076871053 0.065854825 0.043374117 -0.022986412 0.025032427
0.10683146 0.056109484 0.018199269 0.05478173 -0.02510668 3.585942e-05 0.051043887 -0.021575274
0.024793675 0.015825154 0.037096802 0.008344594 0.008037615 -0.014099763 -0.029830422 -0.10403256

cnn_layers_max_2.0.bias f4 [32]
00000000: 7e49 2cbe 52cc 30bd 6e70 edbd 1112 01be
00000010: 1e2c 4dbc 31b5 973c 31c7 84bd ef88 ccbd
00000020: 92d8 68bd 224e 93bd f18a 24bb 473f 05be
00000030: 6233 9dbc b4c5 8abd ffd4 bdbd 9531 c5bd
00000040: a387 4abd cb7b 10bd 30ff 93be d890 b0bd
00000050: 0646 96bd a95c 15be 447a a8bb ab13 bb3b
00000060: 8e89 ffbd 4a66 d0bc 597b 0ebe a752 0fbd
00000070: a80c 73b8 5604 82bd e168 dfbd f4a2 54be
-0.1682491 -0.043163605 -0.1159371 -0.12604548 -0.012522725 0.018519016 -0.06483305 -0.099870555
-0.056847163 -0.07192637 -0.002510723 -0.1301242 -0.01918954 -0.0677599 -0.092691414 -0.09628598
-0.04944576 -0.03527431 -0.2890563 -0.08621377 -0.07337575 -0.14586128 -0.0051415283 0.0057091317
-0.12477408 -0.0254394 -0.13914241 -0.034990933 -5.79475e-05 -0.06348483 -0.10908676 -0.20765287

cnn_layers_max_2.1.weight f4 [32]
00000000: 4bee 513f 925d 423f 6465 5c3f 2467 763f
00000010: 9b21 3a3f 9bf4 3e3f 3c59 303f 0e4f 3b3f
00000020: 1601 483f 2f9a 573f 310e 403f efb0 503f
00000030: cb4b 553f e00d 3d3f 0cb2 5e3f 0628 5c3f
00000040: 2524 5e3f 1829 3c3f ab94 2f3f bb4a 393f
00000050: 9a7b 353f 53b2 523f 18ba 573f 873d 3e3f
00000060: 35f3 513f c5c5 503f e834 503f 42d6 303f
00000070: 99cb 503f 4818 543f c5c8 503f 3ee3 593f
0.8200423 0.75924027 0.8609221 0.9625113 0.7270753 0.7459199 0.6888616 0.731675
0.78126657 0.8421964 0.75021654 0.8151998 0.83318776 0.73849297 0.8699043 0.8599857
0.867739 0.73500204 0.68586224 0.72379655 0.70891726 0.8230335 0.8426833 0.74312633
0.8201173 0.8155177 0.8133073 0.6907693 0.81560665 0.8284955 0.8155635 0.8511237

cnn_layers_max_2.1.bias f4 [32]
00000000: bcbe 63be bce7 73be b33c ffbd 8c49 07be
00000010: 5caa 86be 4aa5 7cbe 811c a0be 69ef 6abe
00000020: ce8f 68be 73e6 2bbe 2363 8ebe d288 26be
00000030: 623d 4fbe 4f15 62be a2dc 1ebe 6271 15be
00000040: 0308 0cbe 7031 75be 9ad4 aabe bb0b 97be
00000050: 3fbf 88be b70c 46be 3863 05be c748 82be
00000060: 9973 37be 9bac 21be 5be5 3ebe 3e90 82be
00000070: d94d 33be 4017 33be 6041 41be 87de 29be
-0.22240728 -0.23818868 -0.12462749 -0.1321165 -0.2630185 -0.24672428 -0.31271747 -0.2294289
-0.22711107 -0.16787128 -0.2781001 -0.1626313 -0.2023826 -0.22078441 -0.15513852 -0.14594033
-0.13674931 -0.2394464 -0.33365327 -0.29501137 -0.2670841 -0.19340788 -0.1302613 -0.2544615
-0.17915191 -0.157885 -0.1864218 -0.25500673 -0.17510165 -0.17489338 -0.18872595 -0.16588794

cnn_layers_max_2.1.running_mean f4 [32]
00000000: 87be 5b3f 2ed4 68c0 4438 c1c0 9f9a 193f
00000010: 8c89 88c0 7071 99be adc1 3cc0 d21e bbbf
00000020: c5b8 11c0 93ac 53c0 cdca 0d40 9bf7 3d40
00000030: f3a5 993f f723 d33d 7eb2 a7c0 52f9 0fc0
00000040: bd00 39c0 8ab8 6a3f cc77 4bc0 0cf6 c2bf
00000050: c038 37c0 9545 e4be 987e 43c0 be3e 2e3f
00000060: 47b9 66c0 5d9e a5c0 f190 69c0 dda6 d53f
00000070: 25d7 dbbe 91de 11c0 f2b6 39c0 8ff8 85c0
0.85837597 -3.6379504 -6.0381184 0.6000156 -4.2667904 -0.29969358 -2.949321 -1.4618781
-2.2769024 -3.307408 2.215503 2.9682376 1.2003769 0.10309594 -5.2405386 -2.2495923
-2.89067 0.91687834 -3.1791868 -1.5231338 -2.8628387 -0.44584337 -3.0546017 0.68064487
-3.6050584 -5.1755815 -3.6494715 1.6691548 -0.4293758 -2.2792094 -2.901791 -4.1865916

cnn_layers_max_2.1.running_var f4 [32]
00000000: f102 2641 7df5 1242 5dc0 5842 a2b9 0142
00000010: 7912 cc41 e2df 5241 6346 e041 f95f 3241
00000020: 05f1 4942 6728 e641 f0d8 ac41 b18d 6941
00000030: 34eb f241 35c1 8041 66dd 1a42 e3aa b241
00000040: 0d63 e341 7399 ec41 d2b3 8141 f801 c541
00000050: 40f4 8a41 fe3a 8741 4cf7 0c42 3f98 c941
00000060: b12d 2a42 4bd4 4e42 f3bd c841 0b79 9a41
00000070: 0ee4 e941 45a0 1b42 cb3f a141 fb0e 2642
10.375718 36.739735 54.187855 32.431282 25.50902 13.179659 28.034369 11.148431
50.48537 28.769728 21.605927 14.597093 30.364845 16.09434 38.71621 22.33344
28.423365 29.574926 16.212803 24.625961 17.369263 16.903805 35.2415 25.199339
42.54462 51.707317 25.092749 19.309103 29.236355 38.906513 20.156149 41.51463

linear_layers.0.weight f4 [2, 28800]
00000000: 1b1a b53c 5188 833c 889b 953c a88f 653c
00000010: 52c7 c13c be2b 743c 8c87 f93a e6fe 883b
00000020: 3f9d ae3b 65a0 bd3c 0c58 663c b4dd e03c
00000030: e69b 293d 7bb6 303d 40a4 173d f26e 063d
00000040: 2d3a fd3c a3df c43c c993 e3bb 26ac 8ebc
00000050: ae91 edbc 1bb1 3abd a5c1 25bd 9df7 c8bc
00000060: fece d3bc 9986 40bc 382d ae38 56d3 7dbb
00000070: 5b34 eabb 7bfd 0dbc c2d7 9c3c b884 dc3c
00000080: a4fa 523c c742 363c 22f5 be3c 0f3f 943c
00000090: b28d 4d3c 703a 303b 2f77 38bb 8e9d 343c
000000a0: 83c2 cf3c d6e4 f83c f674 be3c e8e5 a13c
000000b0: b781 d33b 1636 613c 6f85 bc3c 9b83 283c
000000c0: f412 b03b d986 633b e59e 34bc b826 20bd
000000d0: da37 3fbd 78c7 41bd 8677 1fbd 6cbe dcbc
000000e0: 645e 52bc f441 ddba 1ea7 d7bb 63d4 2cbc
000000f0: 8517 b93c b389 1f3c e766 a63b 6c58 963b
00000100: e383 713c de29 323c df25 323c 42f2 843b
00000110: f5c3 4a3b ffc3 933c 2009 c33c 2b8a 2f3c
00000120: 9790 ad3b 685c 323a 4fb9 5b3b ca2a 1f3c
00000130: 2303 3a3b 844f 713b 7384 03bb 8674 36bb
00000140: 3a61 b8bb 3c1a 44bc 40d6 1dbb 3780 b0bc
00000150: 3382 a0bc eaf1 c6bc a30f 093c a628 6bbb
00000160: 6bae 94ba ed01 1bbc cc55 523c 5acf ec3b
00000170: d708 0bbc 0eab 3dbc d6a3 83bc 173f 0abc
00000180: 0e20 f737 3a99 17bc 5685 d53a d025 8b3c
00000190: 13b0 cdbb f7b4 81bc e0a3 a5bc 3d73 a3bb
000001a0: f02d 373b 89cd c83b 830a 733c e36e 0a3c
000001b0: fd39 323a 2519 32bb 9357 a4bc a899 debc
000001c0: 88a4 133b c086 a5bb 9761 0cbb 7462 2ebc
000001d0: e285 b6bc 5955 103c 5bed e9bb f8ad c33c
000001e0: 6b59 1b3d b660 313c 64c7 823b 81b5 e83b
000001f0: e6a0 973c cdc3 dc3c a193 c23c cc1d f5bb
00000200: d046 2bbc f9ae 16bb 3ccb 1ebc 6f38 dbbc
00000210: 7a34 69bc 6a81 52bc ae36 d0bb ccb8 b63c
00000220: 83be c23c 34e0 9f3c 0e18 c13c 3faa ac3c
00000230: f45f 8c3c 6503 983c ebc7 c33a e89b 023d
00000240: 9921 ad3b 15a1 17bc 16a1 d2bc 7e8e 0abc
00000250: b762 343b 6354 833b 9fa0 bf3c 94c7 8f3c
00000260: ba44 473a 7ce3 69bc f2b2 d03b a983 f93b
00000270: b8c1 e13b caa0 8dbc 4a61 133c dc7f 89bc
00000280: d4e9 0d3b f8ee c1bc cae3 66bc 90c5 0bbc
00000290: 5345 8e3c 32b2 8a3c 2ac7 243c 34f1 2f3c
000002a0: 9cc9 8039 9e25 8b3c b2a6 1e3c 99a7 183c
000002b0: 4167 0dbc f1a3 83bb 7b13 95bb bf30 323a
000002c0: 06f7 bcbc 1347 6ebc bbe6 183b f99a d73b
000002d0: 752f a23c 10a5 703c 5c22 d63a 6882 b0bb
000002e0: 2961 3c3b fe64 633c cb1d 68bb d087 c9bc
000002f0: ca7e dbbc 916a 673c cb03 853b 50b7 e33b
00000300: 6964 8c3c d0a9 b93c ac18 b5bb 6d50 ab3b
00000310: feaa baba 9cac 9c3c 5201 c53b 75d9 a7ba
00000320: ad68 b03b 19fc 853a 9ef9 01bc c64d feb9
00000330: dcc9 d53c c9c3 893c 714e e13b 6ff2 8e3c
00000340: e841 e63b b1e6 193c aedd 433c b333 153c
00000350: 556c 38ba 5f8e 36bc fbfc 23bb a646 e3bc
00000360: 4d10 58bb d993 83bc acdb 77bc 8e43 89bc
00000370: 4691 24bc b4b6 7c3c cbc4 c4bb d6f5 c1bb
00000380: 6343 00bb 54f0 ac3b 5574 c53b bb6b 90ba
00000390: 2686 9abc 106e 913b 31cd f63b 26a2 c1bc
000003a0: 9757 37bc 730d aebb 6328 373c 961c b53c
000003b0: cef0 893c f0ea bb3c 8488 8739 e318 233c
000003c0: 374b 023c e25b 0d3c 2a97 03bc 9fdb 63bc
000003d0: 9e05 c0bc c129 b8bc 98e2 7fbc 4a89 81bc
000003e0: f64b f4bc 6799 f7bc 8979 61bc 79a1 ecbb
000003f0: fdc5 3fbc 1ff6 7abc 5ca3 9abb 7602 cd3b
0.022107175 0.016056212 0.01826264 0.014011301 0.023654614 0.014903007 0.0019037588 0.004180777
0.005328804 0.023147771 0.014059078 0.027449466 0.041408442 0.043142777 0.037021875 0.03282065
0.03091153 0.02403242 -0.0069451076 -0.017416071 -0.02900013 -0.045579057 -0.040467877 -0.024532134
-0.025855538 -0.011750841 8.305389e-05 -0.0038730702 -0.0071473545 -0.0086663915 0.01914585 0.026918754
0.01287714 0.011124319 0.023310248 0.018096475 0.01254599 0.00268903 -0.002814721 0.011023892
0.025361305 0.030382555 0.02324913 0.019762948 0.006454672 0.013745805 0.023012845 0.010285283
0.005373353 0.0034717827 -0.0110242115 -0.039099425 -0.046684124 -0.04730937 -0.038932346 -0.026946269
-0.012839887 -0.0016880617 -0.006581201 -0.010548684 0.022594223 0.00973742 0.005078185 0.0045881774
0.014740917 0.01087424 0.010873287 0.0040571997 0.0030939553 0.018037794 0.023808062 0.010714094
0.0052967775 0.0006803931 0.00335272 0.009714792 0.0028383217 0.0036821077 -0.002006796 -0.002784045
-0.0056268247 -0.011969145 -0.0024084002 -0.021545513 -0.019593334 -0.024285275 0.0083655445 -0.0035882383
-0.0011343485 -0.009460908 0.012837838 0.0072268667 -0.008485994 -0.011576427 -0.016069334 -0.008437893
2.9459621e-05 -0.009252841 0.0016290348 0.016985804 -0.006277093 -0.015833361 -0.020219743 -0.0049881027
0.0027950965 0.0061280173 0.014834049 0.008449289 0.0006798802 -0.0027175632 -0.02006129 -0.027172878
0.0022528488 -0.005051464 -0.0021420473 -0.01064359 -0.022280637 0.008809411 -0.0071388907 0.023886666
0.037927072 0.01082628 0.0039910544 0.007101715 0.01850934 0.026948834 0.023752036 -0.0074803587
-0.010453895 -0.0022992475 -0.00969201 -0.026760308 -0.014233703 -0.0128482375 -0.0063541746 0.022304915
0.023772484 0.019516088 0.02357104 0.021077273 0.017135598 0.018556306 0.00149369 0.031886965
0.005283546 -0.009254714 -0.025711577 -0.008456824 0.002752466 0.0040078624 0.02339202 0.017551221
0.00076014886 -0.014275428 0.006368988 0.007614572 0.006889548 -0.017288584 0.0089953635 -0.0167846
0.0021654265 -0.02367352 -0.014092395 -0.008530989 0.01736704 0.016930673 0.01005725 0.01073866
0.00024564273 0.01698571 0.009683298 0.009317302 -0.008630575 -0.004017346 -0.0045494414 0.0006797425
-0.023067009 -0.014543313 0.0023330885 0.0065797535 0.01979802 0.0146877915 0.0016337144 -0.0053866394
0.0028744435 0.013879059 -0.0035418149 -0.024600893 -0.026793856 0.0141245285 0.00405929 0.006949343
0.017137723 0.02266398 -0.0055266228 0.0052280934 -0.0014241633 0.019125275 0.0060121203 -0.0012805896
0.005383572 0.0010222226 -0.0079330485 -0.000485046 0.02609723 0.01681699 0.006875806 0.017449586
0.0070268996 0.00939338 0.011954708 0.009106564 -0.00070351857 -0.011142342 -0.0025022614 -0.027743649
-0.00329687 -0.01606171 -0.015128057 -0.016755845 -0.0100444015 0.015424419 -0.006004905 -0.0059191985
-0.0019571416 0.005277673 0.0060258307 -0.0011018434 -0.018862795 0.0044381693 0.007531785 -0.023636889
-0.011190317 -0.005311662 0.011179063 0.022108357 0.016838457 0.022939175 0.0002585092 0.009954664
0.007952503 0.008627864 -0.008031646 -0.013907342 -0.023440178 -0.022480847 -0.015617989 -0.015812535
-0.029821377 -0.030224515 -0.013761886 -0.0072213975 -0.011704919 -0.015317469 -0.004719181 0.006256397

linear_layers.0.bias f4 [2]
00000000: 8fc9 eabc 12de 8f3c
-0.028660564 0.017561946
