model/model_archive/nose.pt (torch, 315390 bytes, 20 tensors)

cnn_layers_max.0.weight f4 [32, 1, 3, 3]
0.10820913 0.050510753 -0.270217 0.27278253 -0.24093209 0.09815247 0.30220222 -0.11022158
0.30526203 -0.13965751 0.07604467 0.412821 0.34832802 0.17146173 -0.029201884 0.18674414
-0.057569828 -0.2967416 0.12562837 -0.07353423 -0.19281782 -0.14828321 -0.20234579 0.30136213
0.16250996 -0.24618144 0.3764555 0.32358274 0.24000229 0.040833354 -0.052507643 0.13095471
0.16489631 -0.095318444 -0.23751178 -0.024304021 0.059896093 0.09777436 0.26475176 -0.24651824
-0.083052136 -0.2586907 0.28279173 -0.18041056 0.227075 -0.2458335 0.14011745 0.14523712
-0.23639484 -0.24528645 -0.19843689 -0.19405967 0.28491142 -0.08473075 -0.29018858 -0.17422208
-0.13423806 -0.10796335 0.019289995 0.23208426 0.23494928 0.18066402 -0.29286566 -0.21254684
0.1830629 -0.17430484 0.2687852 0.08120819 0.08369277 0.05031964 0.015090348 0.1420919
0.02385658 -0.398202 0.11622979 0.22642703 0.0059629995 0.2417419 0.15523152 -0.3204529
-0.0074488744 0.17089863 -0.015032532 -0.31749976 0.016577464 0.32945648 0.06761805 0.09535036
-0.08364464 0.17763694 0.24081728 -0.1264399 0.034729242 0.016538125 -0.29751557 -0.17964122
0.042648915 0.03626197 -0.37624356 -0.25955188 -0.11476917 -0.30073336 0.06687527 0.2972613
-0.16581821 0.0046117287 0.13296747 -0.040722724 -0.119453765 0.29376572 -0.0091905985 0.006245508
0.28432292 0.18493342 -0.06666483 -0.10853885 0.38045996 0.15901715 0.19745731 0.33173692
0.18569407 -0.020474454 0.16090369 0.17757265 -0.2205696 -0.1290641 -0.15561576 -0.10784241
-0.053371575 0.113464415 -0.33032408 0.033343792 0.051592495 -0.36368835 0.12847489 -0.4757837
-0.4499065 0.064258166 0.034781087 0.18820842 -0.29439276 0.01803385 0.039515276 -0.05748006
0.3343473 0.092493996 -0.21028988 0.29061425 -0.059960127 -0.29684886 0.13816884 0.014362305
0.34827572 0.17285466 -0.057312965 -0.25185236 -0.27267444 -0.22918199 0.045603734 -0.1478178
-0.15506802 0.22032416 -0.23945828 -0.32834846 -0.056595217 0.10252597 -0.18775418 0.297474
0.115625076 -0.08355667 -0.13583651 -0.10855568 -0.04245571 -0.22262836 -0.10410092 0.2584446
-0.17527053 0.009470518 0.06892785 -0.098445475 -0.08972326 -0.27501023 -0.33013815 -0.10701345
-0.22601043 -0.07550184 0.20673136 -0.23460804 0.0035185835 -0.23787458 -0.21356358 0.1775657
0.11084505 -0.31361747 -0.24018158 -0.08220257 0.025604626 0.03782592 0.064684935 -0.018802976
-0.2704577 -0.0577417 -0.50930536 -0.17840753 0.088823356 0.0677194 -0.052347653 0.04746532
-0.037300374 -0.080864824 -0.118515134 -0.02788044 -0.35796762 0.027427083 -0.065981954 0.13789563
0.2770837 0.32476455 -0.21535398 -0.06771324 -0.00032396437 -0.04832193 -0.22679196 0.18149193
0.36964616 -0.26591235 0.30627567 -0.045492895 -0.11203151 -0.23041056 0.16967373 -0.17727168
-0.041847657 -0.041301753 -0.08675622 0.2677251 0.29347044 -0.016164301 -0.17623886 -0.2643518
-0.08851672 -0.26399913 -0.16103595 0.2871583 -0.12108726 0.37757707 0.34213802 0.008856691
0.12864615 -0.13337462 0.45655292 -0.013747556 -0.105202444 -0.26563644 0.11952076 -0.15169011
00000000: c09c dd3d 5de4 4e3d e259 8abe 27aa 8b3e
00000010: e7b6 76be 2a04 c93d 40ba 9a3e dabb e1bd
00000020: 4e4b 9c3e 6102 0fbe 4fbd 9b3d 465d d33e
00000030: 0d58 b23e aa93 2f3e ca38 efbc db39 3f3e
00000040: 57ce 6bbd 84ee 97be b9a4 003e 1d99 96bd
00000050: 0972 45be 8ed7 17be bc33 4fbe 234c 9a3e
00000060: 0369 263e fd16 7cbe c6be c03e a3ac a53e
00000070: 29c3 753e e040 273d 4112 57bd fe18 063e
00000080: 94da 283e 5136 c3bd 4a36 73be 3a19 c7bc
00000090: 9b55 753d ec3d c83d 8b8d 873e 476f 7cbe
000000a0: 3d17 aabd 1c73 84be 14ca 903e 8cbd 38be
000000b0: 5986 683e c7bb 7bbe f37a 0f3e 0ab9 143e
000000c0: 7d11 72be 5f2c 7bbe 0a33 4bbe 94b7 46be
000000d0: e9df 913e 5187 adbd 9993 94be 4667 32be
000000e0: b475 09be e41b ddbd 0d06 9e3c 7fa7 6d3e
000000f0: 8b96 703e fdff 383e 7df2 95be e1a5 59be
00000100: d774 3b3e f87c 32be 379e 893e 7b50 a63d
00000110: 1d67 ab3d f81b 4e3d 823d 773c 8a80 113e
00000120: e06e c33c 22e1 cbbe e209 ee3d 7ddc 673e
00000130: 4465 c33b 308b 773e 03f5 1e3e 6712 a4be
00000140: b015 f4bb 0d00 2f3e 024b 76bc 548f a2be
00000150: 76cd 873c 85ae a83e 557b 8a3d 0d47 c33d
00000160: e24d abbd 75e6 353e ce98 763e 7679 01be
00000170: 4040 0e3d f67a 873c f653 98be def3 37be
00000180: a1b0 2e3d 6e87 143d ffa2 c0be fce3 84be
00000190: 190c ebbd b9f9 99be e7f5 883d a232 983e
000001a0: 40cc 29be fc1d 973b a028 083e dfcc 26bd
000001b0: 2da4 f4bd 7668 963e 2a94 16bc 1ea7 cc3b
000001c0: c692 913e 305f 3d3e 9287 88bd 9e49 debd
000001d0: a6cb c23e 64d5 223e 4032 4a3e 6cd9 a93e
000001e0: 9626 3e3e 0bba a7bc f0c3 243e 9bd5 353e
000001f0: ffdc 61be 6129 04be bd59 1fbe 7bdc dcbd
00000200: 279c 5abd 0860 e83d 3d20 a9be 8093 083d
00000210: a752 533d 5c35 babe ec8e 033e ec99 f3be
00000220: 255a e6be c999 833d 9d76 0e3d b5b9 403e
00000230: a6ba 96be b9bb 933c c5da 213d 3670 6bbd
00000240: 922f ab3e 7e6d bd3d 3b56 57be 64cb 943e
00000250: c098 75bd 93fc 97be 227c 0d3e e04f 6b3c
00000260: 3251 b23e d000 313e 00c1 6abd cbf2 80be
00000270: fc9b 8bbe afae 6abe fbca 3a3d 8d5d 17be
00000280: 27ca 1ebe a89c 613e 8d34 75be 4a1d a8be
00000290: 63d0 67bd 23f9 d13d a242 40be 834e 983e
000002a0: d7cc ec3d c21f abbd ba18 0bbe 7152 debd
000002b0: 0ae6 2dbd b0f8 63be dd32 d5bd da52 843e
000002c0: 1e7a 33be 3b2a 1b3c 0b2a 8d3d c89d c9bd
000002d0: d4c0 b7bd 24ce 8cbe de07 a9be de29 dbbd
000002e0: 476f 67be b5a0 9abd 63b1 533e 173d 70be
000002f0: 0998 663b 6595 73be 69b0 5abe c8d3 353e
00000300: bb02 e33d 7892 a0be 29f2 75be d259 a8bd
00000310: cbc0 d13c 5aef 1a3d 8979 843d b308 9abc
00000320: 6f79 8abe 9082 6cbd d661 02bf 77b0 36be
00000330: 05e9 b53d 78b0 8a3d 7e6a 56bd ff6a 423d
00000340: 47c8 18bd 759c a5bd 10b8 f2bd 8565 e4bc
00000350: 8847 b7be c3ae e03c 8c21 87bd 8334 0d3e
00000360: eadd 8d3e 8a47 a63e c185 5cbe 3dad 8abd
00000370: c3d9 a9b9 37ed 45bd 273c 68be 05d9 393e
00000380: 4342 bd3e aa25 88be 2ad0 9c3e c256 3abd
00000390: c770 e5bd bff0 6bbe f3be 2d3e b586 35be
000003a0: 7368 2bbd 072c 29bd 3fad b1bd 4413 893e
000003b0: c241 963e ff6a 84bc f677 34be 1e59 87be
000003c0: 4148 b5bd e52a 87be 9ce6 24be 6a06 933e
000003d0: 99fc f7bd c851 c13e b72c af3e a81b 113c
000003e0: d1bb 033e 5b93 08be 4ec1 e93e 6e3d 61bc
000003f0: 6174 d7bd 8001 88be 4dc7 f43d a754 1bbe

cnn_layers_max.0.bias f4 [32]
0.015404008 0.039940156 0.02751824 -0.036825746 0.026677527 0.036840457 0.085708186 0.010712978
0.0621215 -0.012891819 -0.019670166 0.04388164 0.029637363 0.008645019 -0.0014296143 0.014258328
0.023166806 0.043211423 0.05624123 0.027197493 -0.015904434 0.04887285 0.046836365 0.015125136
-0.01723173 0.016988728 0.0064010057 0.018742327 0.03223044 -0.041493244 0.020011429 0.042686626
00000000: 1861 7c3c 4a98 233d ef6d e13c 98d6 16bd
00000010: d48a da3c 05e6 163d c687 af3d 7d85 2f3c
00000020: 1d73 7e3d 3538 53bc 5423 a1bc 3cbd 333d
00000030: 0eca f23c d6a3 0d3c e561 bbba c39b 693c
00000040: 50c8 bd3c 76fe 303d 345d 663d 47cd de3c
00000050: 044a 82bc e62e 483d 7dd7 3f3d 6bcf 773c
00000060: 8f29 8dbc f22b 8b3c 87bf d13b 8289 993c
00000070: 1104 043d d2f4 29bd 02ef a33c 2cd8 2e3d

cnn_layers_max.1.weight f4 [32]
0.99973553 1.0363739 0.89762694 0.88595784 1.1609079 0.93966866 0.9002172 1.0829208
1.256335 0.9707209 0.86821353 0.9092567 1.0655994 1.0592644 1.0455039 0.98066306
1.0711755 0.93693924 0.9033939 0.9397885 1.0024121 1.073763 1.0675399 0.9203046
0.9639728 0.94837743 0.8365377 0.9770559 0.8744168 1.008397 1.0495758 0.8444392
00000000: abee 7f3f e6a7 843f e1ca 653f 22ce 623f
00000010: a198 943f 208e 703f a274 663f 269d 8a3f
00000020: 96cf a03f 2a81 783f 3e43 5e3f 0cc5 683f
00000030: 9065 883f fa95 873f 12d3 853f bc0c 7b3f
00000040: 471c 893f 40db 6f3f d344 673f fb95 703f
00000050: 0a4f 803f 1171 893f 26a5 883f 1599 6b3f
00000060: ecc6 763f ddc8 723f 5627 563f 5620 7a3f
00000070: c8d9 5f3f 2713 813f 8058 863f 2b2d 583f

cnn_layers_max.1.bias f4 [32]
-0.03266897 0.0036609846 -0.043152057 -0.09561692 -0.020909566 -0.06555747 -0.02326765 -0.029605396
-0.007101924 -0.054325417 -0.09159143 -0.016627392 0.0016927994 -0.012223137 -0.08191302 -0.15161802
-0.013268638 -0.051302504 -0.09346135 -0.020687588 -0.13886078 -0.021410305 -0.024583647 -0.044363465
-0.025994169 -0.0058859484 -0.10199844 0.0045172586 -0.077515684 -0.024719149 0.00090429495 -0.091715366
00000000: e6cf 05bd 21ed 6f3b 36c0 30bd ced2 c3bd
00000010: 8a4a abbc ff42 86bd cc9b bebc 0487 f2bc
00000020: 42b7 e8bb 5484 5ebd 4a94 bbbd 2b36 88bc
00000030: ece0 dd3a 8d43 48bc 03c2 a7bd c141 1bbe
00000040: b464 59bc 9322 52bd aa68 bfbd 0479 a9bc
00000050: 8531 0ebe aa64 afbc a563 c9bc 77b6 35bd
00000060: b9f1 d4bc eade c0bb 8fe4 d0bd 8305 943b
00000070: 8bc0 9ebd d07f cabc 350e 6d3a 44d5 bbbd

cnn_layers_max.1.running_mean f4 [32]
0.16309533 0.37704238 -0.16976614 0.300741 0.039745506 -0.63731885 -0.24552669 0.13871054
0.037722852 0.12158151 -0.281815 -0.3430118 0.39050594 0.35477987 -0.18731143 -0.22261022
0.24413273 -0.65196747 -0.49365342 -0.39263085 -0.30895752 0.14868434 0.15315141 -0.4982852
0.27594504 -0.42249346 -0.2865287 0.6238861 -0.43702903 0.14525402 0.32458985 -0.37760946
00000000: 7602 273e b30b c13e 2dd7 2dbe b9fa 993e
00000010: 2fcc 223d 5427 23bf 596b 7bbe 230a 0e3e
00000020: 4783 1a3d baff f83d 0e4a 90be 3e9f afbe
00000030: 65f0 c73e b5a5 b53e 91ce 3fbe eff3 63be
00000040: eefd 793e 57e7 26bf 24c0 fcbe e906 c9be
00000050: ae2f 9ebe b540 183e b9d3 1c3e 3d1f ffbe
00000060: ab48 8d3e 1051 d8be e4b3 92be 00b7 1f3f
00000070: 45c2 dfbe 78bd 143e a430 a63e 0756 c1be

cnn_layers_max.1.running_var f4 [32]
0.017145699 0.05451196 0.016935349 0.035320908 0.009727887 0.13183475 0.026438445 0.013479908
0.0121639855 0.013647507 0.031766996 0.046053205 0.05195317 0.046360586 0.022456944 0.030256094
0.024470197 0.12743239 0.077552475 0.05148811 0.043310598 0.018029064 0.016535666 0.079151444
0.028541263 0.061557386 0.027335498 0.12753889 0.062273584 0.015207566 0.041544415 0.049446348
00000000: 2375 8c3c ef47 5f3d 00bc 8a3c a8ac 103d
00000010: b761 1f3c b0ff 063e 7095 d83c d5da 5c3c
00000020: 744b 473c cb99 5f3c 1c1e 023d 49a2 3c3d
00000030: d9cc 543d 99e4 3d3d a0f7 b73c a1db f73c
00000040: b975 c83c a37d 023e d5d3 9e3d 32e5 523d
00000050: 7466 313d b0b1 933c ce75 873c 271a a23d
00000060: 5ecf e93c 9923 7c3d b2ee df3c 8e99 023e
00000070: 9612 7f3d 2829 793c 7a2a 2a3d 4188 4a3d

cnn_layers_avg.0.weight f4 [32, 32, 3, 3]
0.13127385 0.090781935 0.14385462 0.13544732 0.13356534 0.15055096 0.17080507 0.07848468
0.15308914 0.08491406 0.086993404 0.08385312 0.04699703 0.022237858 0.040601093 0.12050811
0.07687123 0.077581875 -0.02851651 0.057096798 -0.014835292 -0.046057224 0.017239055 -0.0051518762
-0.0049524265 -0.04602121 -0.009509867 0.118058294 0.06685972 0.059228294 0.062381726 0.028830398
0.11215923 -0.017094536 0.0098799085 -0.040209435 0.15548638 0.064142145 0.14606373 0.13946626
0.15886354 0.1399858 0.11776246 0.07912862 0.14861299 0.09021326 0.037704907 0.06294964
-0.01419903 0.016453855 0.04714602 0.0707039 0.04374425 0.017376084 0.009132381 -0.06547052
-0.0613 0.012153329 -0.06271001 -0.012311884 -0.026282895 0.04972313 -0.043095745 0.16261692
0.10045342 0.09307251 0.11140514 0.11398146 0.13331263 0.16141678 0.10613675 0.17538351
0.117262214 0.13210852 0.094737686 0.10059445 0.18139745 0.14205927 0.07968008 0.17715326
0.15055707 0.12627268 0.12781097 0.109079316 0.14962454 0.08474615 0.03605572 0.092786744
0.13428555 0.13125126 -0.036085818 -0.022560587 -0.104412615 0.0030205343 0.0031697466 -0.08514219
-0.107073836 -0.029433303 -0.084093854 0.0747058 0.052607317 -0.001909608 -0.013917498 0.04664172
0.04932297 0.035271674 -0.0012631092 -0.03650207 0.064254485 0.041477077 0.066918425 0.070097096
0.14190747 0.048397936 0.08698099 0.08388136 0.10087615 0.118228905 0.044724263 0.076310925
0.10765098 0.048576124 0.045985937 0.06987643 0.051695548 0.028487291 0.05137644 0.04826835
0.104515865 0.06941751 0.024061805 0.031071153 0.14141195 0.06941295 0.12075697 -0.043523274
0.03875971 0.0439832 0.045249853 0.015376706 0.059641324 0.054595407 0.13153708 0.16847087
0.13645215 0.13170902 0.14021024 0.12778981 0.13784844 0.14013809 0.13017331 0.09622358
0.13189515 -0.04022314 0.03497376 0.050337207 0.038510192 0.008051745 -0.021504875 -0.02427577
0.040498678 -0.018666426 0.053448282 0.00592835 -0.022484606 0.016574249 0.0011736655 0.016982839
0.05141697 -0.013610152 -0.03441565 0.07425348 -0.022852981 -0.013306464 0.001619028 0.019314883
0.043286502 0.025417453 -0.002013844 0.038930018 -0.020178288 -0.022052126 0.067366615 0.12857632
0.1184815 0.056277815 0.08802879 0.09974717 0.07239108 0.09397943 0.09419816 0.081891075
0.15554233 0.08296915 0.09425037 0.063739866 0.08902357 0.13048887 0.116888374 0.118435495
0.13257359 0.13107641 0.110593155 0.13681224 0.14408304 0.10007798 0.0897928 -0.023476321
0.019956667 0.04458899 -0.0015345968 0.049931005 0.030219391 0.053567067 0.054345 -0.02924666
0.0733705 0.033869248 0.08008055 0.079495355 0.033736635 0.10155603 0.026910344 -0.033119507
0.066379875 0.057326082 0.029762603 0.0364122 0.07062869 0.06458294 -0.015746335 0.062279917
0.06340526 0.015033405 0.014130735 0.065439284 0.051091738 -0.02713629 0.04796886 0.04706319
-0.10022948 -0.12465113 -0.06904697 0.05129191 0.030834472 0.08985762 0.15031955 0.110776655
0.13917056 0.08984398 0.0966477 0.1413416 0.06545831 0.026386945 0.027465854 0.050383415
00000000: a76c 063e e1eb b93d a04e 133e b4b2 0a3e
00000010: 5ac5 083e 082a 1a3e 86e7 2e3e 93bc a03d
00000020: 66c3 1c3e 6ce7 ad3d 9929 b23d 2fbb ab3d
00000030: f57f 403d 2b2c b63c 554d 263d f5cc f63d
00000040: aa6e 9d3d 3fe3 9e3d 759b e9bc 55de 693d
00000050: b90f 73bc 80a6 3cbd eb38 8d3c 12d1 a8bb
00000060: f747 a2bb bc80 3cbd 46cf 1bbc 8cc8 f13d
00000070: c0ed 883d 5e99 723d fb83 7f3d ba2d ec3c
00000080: bdb3 e53d d709 8cbc 57df 213c a6b2 24bd
00000090: d237 1f3e f55c 833d bb91 153e 3ed0 0e3e
000000a0: 20ad 223e 7058 0f3e 722d f13d 300e a23d
000000b0: 012e 183e bbc1 b83d 7670 1a3d beeb 803d
000000c0: 0ca3 68bc 3cca 863c 2f1c 413d 35cd 903d
000000d0: 2c2d 333d 4a58 8e3c fb9f 153c 6815 86bd
000000e0: b515 7bbd c21e 473c 1b6e 80bd c9b7 49bc
000000f0: 3a4f d7bc 7baa 4b3d 2a85 30bd 0d85 263e
00000100: 86ba cd3d cd9c be3d 6128 e43d 1d6f e93d
00000110: 1b83 083e 714a 253e 395e d93d bc97 333e
00000120: 2c27 f03d 7547 073e d505 c23d 7704 ce3d
00000130: 41c0 393e fc77 113e 4f2f a33d aa67 353e
00000140: a22b 1a3e a04d 013e e1e0 023e fa64 df3d
00000150: 2d37 193e 648f ad3d 2aaf 133d fa06 be3d
00000160: 2782 093e bb66 063e b9ce 13bd fbd0 b8bc
00000170: 48d6 d5bd 28f4 453b 86bb 4f3b 075f aebd
00000180: 8749 dbbd 1c1e f1bc 6639 acbd 5bff 983d
00000190: c57a 573d d04b faba 3806 64bc 630b 3f3d
000001a0: e206 4a3d 0879 103d e98e a5ba 3283 15bd
000001b0: db97 833d dee3 293d 870c 893d 118f 8f3d
000001c0: 3150 113e ea3c 463d 1723 b23d fec9 ab3d
000001d0: 2898 ce3d ff21 f23d ca30 373d e748 9c3d
000001e0: 1e78 dc3d c2f7 463d c05b 3c3d 601b 8f3d
000001f0: b6be 533d 2e5e e93c 1a70 523d 09b5 453d
00000200: 6a0c d63d c42a 8e3d 431d c53c ee88 fe3c
00000210: 4bce 103e 6028 8e3d 6e4f f73d 7645 32bd
00000220: 80c2 1e3d ba27 343d e957 393d 94ee 7b3c
00000230: 764a 743d 6f9f 5f3d a8b1 063e a183 2c3e
00000240: 1dba 0b3e bbde 063e 4693 0f3e 55db 023e
00000250: 2428 0d3e 5c80 0f3e 274c 053e de10 c53d
00000260: 860f 073e 05c1 24bd a540 0f3d 632e 4e3d
00000270: ddbc 1d3d 77eb 033c fe2a b0bc fbdd c6bc
00000280: f1e1 253d 55ea 98bc 96ec 5a3d 9b42 c23b
00000290: a331 b8bc b8c6 873c aed5 993a 981f 8b3c
000002a0: 9a9a 523d 1dfd 5ebc 6df7 0cbd 3512 983d
000002b0: 2d36 bbbc 5b03 5abc 9135 d43a 3f3a 9e3c
000002c0: 304d 313d 4338 d03c b2fa 03bb 1575 1f3d
000002d0: f04c a5bc a9a6 b4bc 82f7 893d 83a9 033e
000002e0: 6ea6 f23d 9183 663d 7048 b43d 3f48 cc3d
000002f0: c641 943d 4a78 c03d f7ea c03d 82b6 a73d
00000300: 7d46 1f3e bbeb a93d 5706 c13d 0c8a 823d
00000310: fd51 b63d e09e 053e 2c63 ef3d 4f8e f23d
00000320: 5fc1 073e e538 063e aa7e e23d 8218 0c3e
00000330: 818a 133e aff5 cc3d 4ae5 b73d 6a51 c0bc
00000340: 2a7c a33c f2a2 363d 8624 c9ba 7484 4c3d
00000350: a88e f73c 2469 5b3d dd98 5e3d b196 efbc
00000360: 4643 963d 7bba 0a3d 4501 a43d 76ce a23d
00000370: 6d2f 0a3d 9cfc cf3d 1573 dc3c 52a8 07bd
00000380: 2cf2 873d c1ce 6a3d b4d0 f33c f624 153d
00000390: c6a5 903d 0f44 843d 75fe 80bc 3a19 7f3d
000003a0: 9eda 813d ac4e 763c 9984 673c 0805 863d
000003b0: 9245 513d ed4c debc ff7a 443d 55c5 403d
000003c0: 1d45 cdbd 1749 ffbd 7f68 8dbd 7717 523d
000003d0: 9398 fc3c 4607 b83d 5eed 193e dfde e23d
000003e0: ba82 0e3e 1f00 b83d 3bef c53d dabb 103e
000003f0: 020f 863d 6f29 d83c 1200 e13c d75e 4e3d

cnn_layers_avg.0.bias f4 [32]
0.02948547 0.07559733 0.034052152 -0.05859652 0.09440181 0.026697462 0.017080227 -0.08876365
-0.019187491 -0.029503215 0.064474486 -0.061737712 0.022463115 0.0644503 0.07896673 0.07859542
-0.08141536 0.09247352 0.018340029 0.028213164 0.013902608 0.023458483 0.009140675 0.014473601
-0.08002757 -0.014597856 0.05744614 -0.024390925 0.0946163 0.027024664 0.022865683 0.070487924
00000000: 838b f13c c6d2 9a3d 457a 0b3d e802 70bd
00000010: bc55 c13d a3b4 da3c d5eb 8b3c b7c9 b5bd
00000020: 162f 9dbc bab0 f1bc 330b 843d afe0 7cbd
00000030: 9104 b83c 85fe 833d 4fb9 a13d a3f6 a03d
00000040: 19bd a6bd c262 bd3d d43d 963c 4b1f e73c
00000050: c4c7 633c 012c c03c c5c2 153c af22 6d3c
00000060: 7fe5 a3bd d92b 6fbc a54c 6b3d 7acf c7bc
00000070: 31c6 c13d d462 dd3c d050 bb3c f95b 903d

cnn_layers_avg.1.weight f4 [32]
0.8867822 0.97894186 1.0775473 1.051203 0.9203339 1.0010428 0.90986615 0.8864328
0.9063943 1.0138433 0.94092864 0.9569899 0.9042364 0.8337287 0.88474846 0.95735043
0.93957716 0.9739834 0.94946754 0.95069456 0.99270135 0.98753285 0.8986254 0.91664624
0.8345632 0.8897695 0.92473346 1.0480293 0.9375484 0.9964115 1.0104134 0.9964656
00000000: 2904 633f ef9b 7a3f 12ed 893f d28d 863f
00000010: 019b 6b3f 2c22 803f fdec 683f 43ed 623f
00000020: 7509 683f 9ec5 813f b3e0 703f 4afd 743f
00000030: 097c 673f 3e6f 553f e07e 623f eb14 753f
00000040: 2188 703f fa56 793f 4e10 733f b860 733f
00000050: ad21 7e3f f4ce 7c3f 500c 663f 54a9 6a3f
00000060: efa5 553f efc7 633f 55bb 6c3f d325 863f
00000070: 2c03 703f d314 7f3f 3a55 813f 5f18 7f3f

cnn_layers_avg.1.bias f4 [32]
-0.058193754 -0.038006343 -0.0060716732 -0.055144668 -0.04117494 -0.033588294 -0.050227 -0.092414945
-0.10302193 -0.1306187 -0.007778013 -0.073288664 -0.06377442 -0.1094465 -0.002715942 0.02000528
-0.043087147 0.20227985 -0.123420194 -0.007041109 -0.043457963 -0.038216487 -0.08108862 -0.09543874
-0.22225289 -0.057592217 -0.0648765 -0.033301383 -0.060504787 -0.028035631 0.066600226 -0.05324077
00000000: 935c 6ebd 8aac 1bbd e3f4 c6bb 60df 61bd
00000010: 0ea7 28bd e193 09bd d4ba 4dbd 0c44 bdbd
00000020: 29fd d2bd e9c0 05be b4de febb 5e18 96bd
00000030: 2a9c 82bd 7d25 e0bd f2fd 31bb 1de2 a33c
00000040: 267c 30bd 7322 4f3e bac3 fcbd 1ab9 e6bb
00000050: fa00 32bd e488 1cbd ca11 a6bd 6375 c3bd
00000060: 4396 63be d1e5 6bbd f8dd 84bd 0867 08bd
00000070: ded3 77bd fbaa e5bc b365 883d fe12 5abd

cnn_layers_avg.1.running_mean f4 [32]
7.9147887 1.3664 5.0024767 13.360458 5.5756054 9.400153 7.0910044 4.681397
9.233132 5.706494 -0.9938078 10.010372 7.2505894 8.416615 -3.111531 -0.42606524
2.1360765 4.765515 5.676544 2.3527255 8.703524 8.674914 8.802845 5.411709
-7.6477466 6.3133364 2.3802135 -0.015606262 -0.67914253 9.641235 -5.176748 11.154423
00000000: f345 fd40 32e6 ae3f 4a14 a040 70c4 5541
00000010: 5c6b b240 0767 1641 82e9 e240 01ce 9540
00000020: e9ba 1341 999b b640 306a 7ebf 7c2a 2041
00000030: d404 e840 74aa 0641 5323 47c0 3925 dabe
00000040: 7ab5 0840 197f 9840 40a6 b540 0e93 1640
00000050: a241 0b41 73cc 0a41 74d8 0c41 b82c ad40
00000060: 57ba f4c0 da06 ca40 6b55 1840 68b1 7fbc
00000070: 49dc 2dbf 8042 1a41 eba7 a5c0 8478 3241

cnn_layers_avg.1.running_var f4 [32]
33.887455 14.764281 16.425919 52.319477 7.8708396 39.76036 25.909328 37.579998
22.45466 19.584229 39.396725 26.050875 28.67801 17.665197 37.058258 43.999336
39.017517 12.267433 23.627073 29.616966 27.909922 36.924404 28.360022 8.160168
14.838176 34.17108 35.406483 62.66671 37.504166 43.14712 37.9774 29.546295
00000000: c18c 0742 7f3a 6c41 4868 8341 2547 5142
00000010: ebdd fb40 9c0a 1f42 4e46 cf41 eb51 1642
00000020: 25a3 b341 80ac 9c41 3f96 1d42 3168 d041
00000030: 916c e541 5352 8d41 a83b 1442 52ff 2f42
00000040: f011 1c42 6847 4441 3f04 bd41 8cef ec41
00000050: 8547 df41 97b2 1342 53e1 e241 0c90 0241
00000060: 2b69 6d41 30af 0842 3da0 0d42 b6aa 7a42
00000070: 4404 1642 a796 2c42 dce8 1742 d05e ec41

cnn_layers_max_2.0.weight f4 [32, 32, 3, 3]
-0.09919063 -0.13012844 -0.07598336 -0.059015833 -0.07898078 -0.10731501 -0.07791722 -0.0493695
-0.074215636 0.024641564 -0.012012741 -0.003173998 0.036339965 0.045103956 -0.005287078 0.05664527
0.0932693 -0.03674167 -0.19079982 -0.100795805 -0.10385247 -0.1731801 -0.14955832 -0.115112275
-0.110855326 -0.059337582 -0.066972695 0.047989786 0.08801007 0.111097306 0.060138773 0.058515795
0.10561309 0.09210091 0.039060045 0.0489366 0.042367492 0.008959737 0.06877823 0.0634835
0.10936222 0.033754528 0.012632082 0.06435663 0.04159809 -0.040735636 -0.06958058 -0.019023793
-0.10269289 -0.04855892 -0.074778065 -0.08375023 -0.010984761 0.010580182 -0.017754335 -0.13369687
-0.112451 -0.016721962 -0.097225435 -0.12603539 -0.023315823 -0.071450435 -0.12346233 0.09832899
0.06598728 0.10717948 0.043116808 0.10579651 0.12723379 0.0800085 0.12461096 0.05910316
-0.06931691 -0.06104276 -0.14248912 -0.0733043 -0.0414761 -0.026341649 -0.05731372 -0.07207733
-0.057441067 0.055090684 -0.0022956016 0.06653825 0.016939439 -0.020080842 0.011996981 0.08823982
0.084326915 0.011744223 0.09400508 0.0800868 0.04513486 0.041489612 0.059635222 0.055878412
0.06882284 0.087490536 0.028865242 0.020677391 0.10138083 0.055894855 0.03132299 0.08985179
0.041611936 0.115558475 0.14081742 0.032049768 -0.09749512 -0.11082973 -0.09226453 -0.0444012
-0.09986772 -0.037798606 -0.04469066 -0.09736302 -0.02959946 0.053805605 0.005634659 0.050663654
-0.029599601 -0.026878957 0.024680076 0.07840825 0.03598351 0.020337433 0.039252147 0.09510246
0.076622464 0.08462049 0.057444688 0.05455789 0.059465688 0.067085855 0.07876011 0.059094228
0.04461358 0.06295493 0.04460493 0.07300901 0.01050001 0.005477437 0.09597108 0.046161838
-0.09469583 -0.14790232 -0.13444635 -0.16484092 -0.13805473 -0.13346834 -0.14228703 -0.15345639
-0.07721051 -0.029950703 0.018484766 -0.020317152 0.05782955 0.017317954 -0.050277904 -0.026532339
0.07176264 0.049283512 -0.032379374 0.038372003 0.0049982574 0.059076734 -0.03667492 0.011033899
0.053716086 0.09317241 0.06169613 0.072791494 0.070207074 0.051675938 0.043819603 0.107032284
0.034280296 0.057356756 0.057088334 0.103690445 -0.11854741 -0.029948983 -0.049541853 -0.1530428
-0.09186166 -0.054591168 -0.034819756 -0.039415903 -0.107947424 -0.12153459 -0.1261205 -0.06644947
-0.11049465 -0.12134952 -0.12959424 -0.06681405 -0.0705618 -0.09109128 -0.08135621 -0.056262538
-0.03437196 -0.05237253 -0.06406822 -0.074173346 -0.007653806 -0.03076061 -0.02840709 -0.12769394
-0.10511472 -0.042369545 -0.044578034 -0.085220695 -0.08721067 -0.008328905 -0.06309927 -0.09607349
-0.03158525 -0.06895858 -0.0051427353 -0.042772923 -0.083690576 -0.061007947 -0.041564126 -0.036757298
-0.06318681 0.09035125 0.08720319 0.041561063 0.04148008 0.007146958 0.08488251 -0.009877904
0.10288921 0.032685243 -0.11164269 -0.07416698 -0.08970426 -0.11784048 -0.0841315 -0.086482815
-0.10096828 -0.115486436 -0.13947527 0.04282713 0.060287524 0.047799226 0.071451694 0.010317684
0.02820091 0.09448644 0.05629976 0.093312256 0.03002774 -0.0038993666 0.004829999 0.025017437
00000000: 7524 cbbd 6440 05be 2a9d 9bbd 96ba 71bd
00000010: adc0 a1bd f9c7 dbbd 1093 9fbd ac37 4abd
00000020: 5efe 97bd 1bdd c93c 16d1 44bc da02 50bb
00000030: 37d9 143d edbe 383d 3a3f adbb df04 683d
00000040: fa03 bf3d 6f7e 16bd 0761 43be 086e cebd
00000050: 9bb0 d4bd 2056 31be d125 19be fcbf ebbd
00000060: 1e08 e3bd f70b 73bd fb28 89bd f090 443d
00000070: a03e b43d fc86 e33d 1354 763d 42ae 6f3d
00000080: ad4b d83d 679f bc3d 6dfd 1f3d bf71 483d
00000090: 8989 2d3d dccb 123c 9adb 8c3d a303 823d
000000a0: 4df9 df3d 3042 0a3d cbf6 4e3c 69cd 833d
000000b0: c262 2a3d 69da 26bd 4380 8ebd c9d7 9bbc
000000c0: a650 d2bd b8e5 46bd 3e25 99bd 3e85 abbd
000000d0: 6df9 33bc 8058 2d3c 8a71 91bc d5e7 08be
000000e0: b64c e6bd 7ffc 88bc 211e c7bd 6c0f 01be
000000f0: d300 bfbc 9b54 92bd d1d9 fcbd b660 c93d
00000100: 5724 873d ea80 db3d 409b 303d d7ab d83d
00000110: 9349 023e 7fdb a33d 0834 ff3d 2816 723d
00000120: 06f6 8dbd f907 7abd abe8 11be 9120 96bd
00000130: d8e2 29bd 71ca d7bc cbc1 6abd 479d 93bd
00000140: 5347 6bbd c5a6 613d ce71 16bb 3545 883d
00000150: 94c4 8a3c 9480 a4bc fc8e 443c 14b7 b43d
00000160: 97b3 ac3d d76a 403c bc85 c03d 8c04 a43d
00000170: 55df 383d 03f1 293d 1044 743d c3e0 643d
00000180: fdf2 8c3d 3d2e b33d cd76 ec3c a263 a93c
00000190: c1a0 cf3d 01f2 643d 894c 003d 3704 b83d
000001a0: 4771 2a3d eca9 ec3d 7132 103e 9e46 033d
000001b0: 85ab c7bd b3fa e2bd 30f5 bcbd 08de 35bd
000001c0: 7287 ccbd b6d2 1abd 8e0d 37bd 4366 c7bd
000001d0: 917a f2bc 4463 5c3d f2a2 b83b b184 4f3d
000001e0: dd7a f2bc 4231 dcbc df2d ca3c 8194 a03d
000001f0: 7263 133d b09a a63c dcc6 203d 14c5 c23d
00000200: 3dec 9c3d 824d ad3d 1f4b 6b3d 1878 5f3d
00000210: 4b92 733d 4f64 893d fb4c a13d ca0c 723d
00000220: bbbc 363d 84ee 803d a9b3 363d bf85 953d
00000230: 3c08 2c3c 127c b33b 7c8c c43d 3214 3d3d
00000240: e3ef c1bd b573 17be 4eac 09be 0fcc 28be
00000250: 385e 0dbe edab 08be b1b3 11be ac23 1dbe
00000260: 8b20 9ebd 2d5b f5bc 5d6d 973c 2870 a6bc
00000270: aede 6c3d 62de 8d3c 34f0 4dbd 595a d9bc
00000280: 4af8 923d 82dd 493d 3ca0 04bd f62b 1d3d
00000290: 6cc8 a33b 72fa 713d 7138 16bd 87c7 343c
000002a0: 6605 5c3d 2dd1 be3d 15b5 7c3d b513 953d
000002b0: bac8 8f3d 26aa 533d 2f7c 333d be33 db3d
000002c0: 7f69 0c3d ebee 6a3d 75d5 693d a85b d43d
000002d0: fcc8 f2bd 9257 f5bc 66ec 4abd 40b7 1cbe
000002e0: f721 bcbd fd9a 5fbd 299f 0ebd 9272 21bd
000002f0: 8a13 ddbd 21e7 f8bd bb25 01be a916 88bd
00000300: 054b e2bd 1986 f8bd 5ab4 04be ced5 88bd
00000310: b482 90bd 118e babd 169e a6bd 8c73 66bd
00000320: 9dc9 0cbd 9484 56bd 3336 83bd 32e8 97bd
00000330: c7cc fabb adfd fbbc fcb5 e8bc 33c2 02be
00000340: 6346 d7bd b08b 2dbd 7597 36bd 3088 aebd
00000350: 829b b2bd f675 08bc 313a 81bd 2ec2 c4bd
00000360: 895f 01bd 283a 8dbd 6484 a8bb a932 2fbd
00000370: f765 abbd 78e3 79bd 253f 2abd d28e 16bd
00000380: 1668 81bd 130a b93d 9697 b23d ef3b 2a3d
00000390: 04e7 293d 0731 ea3b e2d6 ad3d efd6 21bc
000003a0: 94b7 d23d f6e0 053d eca4 e4bd dce4 97bd
000003b0: deb6 b7bd 5956 f1bd 234d acbd e71d b1bd
000003c0: 75c8 cebd 2784 ecbd 9bd2 0ebe 806b 2f3d
000003d0: 0df0 763d 1fc9 433d 4455 923d 810b 293c
000003e0: 9805 e73c 1b82 c13d 949a 663d 7f1a bf3d
000003f0: bcfc f53c 848c 7fbb f844 9e3b 5ef1 cc3c

cnn_layers_max_2.0.bias f4 [32]
-0.07053433 -0.072281316 -0.23511781 -0.074355416 -0.058781 -0.069321975 -0.07219708 -0.038251895
-0.07740466 -0.08396825 0.013223312 -0.08794352 -0.1276976 -0.11165032 0.021873822 0.033828
-0.082166806 -0.18474354 -0.114981346 0.039742246 -0.10067462 -0.107929856 -0.10037728 -0.03816324
-0.08436562 -0.115212336 -0.0146293435 -0.09008201 -0.0805148 -0.06811015 -0.0689069 -0.08790419
00000000: 4e74 90bd 3a08 94bd b9c2 70be a747 98bd
00000010: 59c4 70bd aef8 8dbd 10dc 93bd 05ae 1cbd
00000020: 5686 9ebd 8cf7 abbd 97a6 583c bb1b b4bd
00000030: 29c3 02be eca8 e4bd bb30 b33c 3b8f 0a3d
00000040: 1247 a8bd 692d 3dbe 577b ebbd c4c8 223d
00000050: 7f2e cebd 540a ddbd 9a92 cdbd 0f51 1cbd
00000060: e2c7 acbd 72f4 ebbd eaaf 6fbc eb7c b8bd
00000070: f2e4 a4bd 567d 8bbd 101f 8dbd 1d07 b4bd

cnn_layers_max_2.1.weight f4 [32]
0.75925666 0.83432174 0.85283405 0.8559007 0.8959862 0.8371259 0.8103054 0.82298887
0.8532263 0.84112245 0.81429833 0.864923 0.7930457 0.78276235 0.7859982 0.81745017
0.8604393 0.8732304 0.85275567 0.8042852 0.8345278 0.84885234 0.8420742 0.7977545
0.85633445 0.84476274 0.8406343 0.7425811 0.83659047 0.82582325 0.83064944 0.84170955
00000000: a55e 423f 1c96 553f 5553 5a3f 4f1c 5b3f
00000010: 5a5f 653f e24d 563f 2d70 4f3f 66af 523f
00000020: 0a6d 5a3f cd53 573f db75 503f 986b 5d3f
00000030: 0b05 4b3f 1d63 483f 2e37 493f 6a44 513f
00000040: c045 5c3f 078c 5f3f 324e 5a3f a3e5 4d3f
00000050: 9da3 553f 634e 593f 2d92 573f a439 4c3f
00000060: bc38 5b3f 5f42 583f cf33 573f cc19 3e3f
00000070: cb2a 563f 2769 533f 71a5 543f 477a 573f

cnn_layers_max_2.1.bias f4 [32]
-0.21880142 -0.17833564 -0.1687383 -0.15762512 -0.1709868 -0.173319 -0.1974874 -0.18931729
-0.16475146 -0.18593165 -0.13056521 -0.14615415 -0.21193174 -0.15422137 -0.16395383 -0.17250492
-0.16762173 -0.16966416 -0.1660144 -0.19876915 -0.15847842 -0.14926563 -0.18483147 -0.1537254
-0.15244648 -0.17666814 -0.11577965 -0.1851984 -0.19068827 -0.17919706 -0.17452715 -0.17473987
00000000: 7b0d 60be 9e9d 36be bcc9 2cbe 7b68 21be
00000010: 2a17 2fbe 897a 31be 233a 4abe 64dc 41be
00000020: 9bb4 28be de64 3ebe e3b2 05be 6fa9 15be
00000030: a204 59be 35ec 1dbe 83e3 27be 21a5 30be
00000040: 08a5 2bbe 71bc 2dbe aeff 29be 248a 4bbe
00000050: 2b48 22be 17d9 18be 7644 3dbe 316a 1dbe
00000060: ee1a 1cbe 7ee8 34be e21d edbd a6a4 3dbe
00000070: c943 43be 6f7f 37be 3fb7 32be 02ef 32be

cnn_layers_max_2.1.running_mean f4 [32]
1.7912618 -1.8692468 2.2292418 -3.7750726 3.0891016 -5.746796 -5.0292206 -1.678955
-5.2969513 -1.0357482 1.6955504 -5.550941 3.7312162 5.3608913 0.16929652 0.8459934
-5.630465 2.6471515 -4.8350716 -0.21481109 -5.441521 2.9976704 -0.8693176 1.9163648
-5.7268424 -5.7193165 3.5267162 5.470116 -3.7260296 -4.407978 -4.736564 -1.191702
00000000: 1148 e53f 7b43 efbf e6ab 0e40 ca9a 71c0
00000010: d7b3 4540 c1e5 b7c0 60ef a0c0 ffe7 d6bf
00000020: a080 a9c0 6693 84bf cc07 d93f 4fa1 b1c0
00000030: 3fcc 6e40 6c8c ab40 115c 2d3e 0693 583f
00000040: c52c b4c0 ee6a 2940 e8b8 9ac0 70f7 5bbe
00000050: f120 aec0 d5d9 3f40 998b 5ebf 714b f53f
00000060: 4b42 b7c0 a404 b7c0 b8b5 6140 310b af40
00000070: 4577 6ec0 280e 8dc0 ef91 97c0 b189 98bf

cnn_layers_max_2.1.running_var f4 [32]
41.90033 12.0768795 15.143609 13.662053 42.28744 34.904507 26.693256 18.585798
27.132025 10.576104 36.889614 33.487152 21.0649 32.222607 20.507366 13.326283
28.844135 8.384929 22.372364 9.276362 30.189638 24.023308 12.41051 39.17248
31.23174 25.326395 59.56684 40.395924 15.584634 27.97374 29.478086 7.8110385
00000000: f099 2742 e63a 4141 394c 7241 c597 5a41
00000010: 5726 2942 379e 0b42 ca8b d541 b7af 9441
00000020: 630e d941 b937 2941 f78e 1342 d8f2 0542
00000030: ea84 a841 f3e3 0042 160f a441 7538 5541
00000040: cac0 e641 ab28 0641 9afa b241 fb6b 1441
00000050: 6184 f141 bc2f c041 7391 4641 9fb0 1c42
00000060: 9bda f941 759c ca41 7244 6e42 6d95 2142
00000070: a95a 7941 38ca df41 1fd3 eb41 07f4 f940

linear_layers.0.weight f4 [2, 28800]
0.00389732 0.0117197605 0.00092489406 0.004760572 0.0027320676 0.017935252 0.023380486 0.015954332
0.011367233 0.0069176434 0.0101268105 0.006358587 0.004484623 -2.9898318e-05 -0.00023568887 -0.0077854786
-0.011055174 -0.0035593738 -0.003193621 -0.0070375144 -0.001286506 0.011921811 0.0013890936 -0.0025092217
0.0024631727 0.0010067208 -0.014871241 0.0046574553 0.012760616 0.0077786758 0.0041921213 0.0089071505
0.0035828294 0.00065652764 0.015157337 0.015107513 0.004237423 0.0009429841 0.006069166 -0.0040915385
-0.0013882596 0.0006404398 0.005361464 0.00046929906 0.006781503 -0.005422172 -0.01131148 -0.024871755
-0.02931193 -0.018236676 0.00515908 -0.0037840584 -0.013426374 -0.003890993 -0.010809007 -0.0026724448
-0.008362892 -1.0619799e-05 0.008947095 0.013347186 0.0005818969 -0.00100047 0.009358722 0.010709914
0.0054404787 0.0043560644 -0.005596449 -0.010435023 -0.003612169 -0.011433286 -0.017422816 0.007305322
0.0033365018 -0.009699169 -0.0015633027 0.0010217122 -0.0085991705 -0.010897673 -0.019761568 -0.012294352
-0.012189882 -0.015011332 -0.019882655 -0.008311005 -0.008681406 -0.0044331993 -0.005850633 0.01077371
0.0010211468 0.01011158 0.0034129668 -0.0044630016 -0.005521209 0.0024441797 0.0008141171 -0.005484768
-0.008725044 -0.0039697858 -0.013910748 -0.01999895 -0.008061175 0.003714001 -0.0073568914 -0.018057883
-0.015201498 -0.018019915 -0.015974924 -0.019866852 -0.018629733 -0.024767645 -0.027958479 -0.027514312
-0.023539575 -0.0042532915 -0.0005138427 -0.006656857 0.0010421182 0.0066644195 0.00789852 0.017566262
0.0015141547 0.0035019384 -0.00876498 0.0014074022 0.005782164 0.003885392 0.0042380793 -0.019586159
-0.031077534 -0.016043145 -0.0044821706 -0.006128266 -0.015025369 -0.02996471 -0.03393716 -0.024996286
-0.03302778 -0.02473145 -0.031497978 -0.027676176 -0.01863618 -0.02347037 -0.02646713 -0.021107892
-0.0016183056 -0.0034813008 -0.008618226 0.0068368567 0.018694157 0.017820178 0.0013974835 -0.0026009304
-0.0017481637 -0.00034438574 0.0053190645 0.0020142354 -0.0068171066 -0.01677974 -0.02368299 -0.011218513
-0.023745073 -0.0147124985 -0.026075138 -0.029774554 -0.025184168 -0.022670316 -0.02383363 -0.025814451
-0.029201187 -0.03361152 -0.022191357 -0.017579488 -0.01909885 -0.019923681 -0.0050459313 -0.01626894
-0.017609743 0.011180195 0.020861514 0.022929702 -0.002915317 -0.004390865 0.00091130956 0.004168051
-0.0043414393 -0.009817792 -0.022576725 -0.0282639 -0.018786358 -0.02308823 -0.015677385 -0.007834598
-0.012966512 -0.011540506 -0.016444294 -0.016386548 -0.02352134 -0.01860354 -0.011358042 0.0008803496
0.0024012588 0.0036842525 -0.012821612 -0.0230032 -0.009747837 -0.0030023332 -0.008580251 0.0028824802
0.01120088 0.0192907 -0.0018668666 -0.004059549 -0.005937247 -0.005348146 -0.01486267 -0.01410458
-0.028985884 -0.023869004 -0.026089802 -0.01974463 0.0020839768 -0.019366022 -0.01016365 -0.017024107
-0.009646444 -0.007910182 -0.010318653 -0.024107695 -0.011097709 9.260748e-05 0.0056334874 0.0070748418
-0.009181462 -0.022069378 -0.008312813 -0.0055592903 -0.011845795 0.008984459 0.007001957 0.005508838
-0.0027882713 -0.0026233487 -0.005713953 -0.012214623 -0.013569886 -0.025656687 -0.02704889 -0.024045989
-0.028504362 -0.021354577 0.0044102916 -0.012711477 -0.013630789 -0.006808638 -0.006235748 0.006292793
00000000: 2e6a 7f3b 3d04 403c 9774 723a 93fe 9b3b
00000010: 7d0c 333b f3ec 923c 6f88 bf3c a9b2 823c
00000020: a13d 3a3c 66ad e23b ecea 253c b25b d03b
00000030: bff3 923b 26ce fab7 4023 77b9 541d ffbb
00000040: c320 35bc 6244 69bb 124c 51bb f39a e6bb
00000050: fa9f a8ba b353 433c 3f12 b63a c171 24bb
00000060: 2e6d 213b f2f3 833a 81a6 73bc 919d 983b
00000070: e711 513c 43e4 fe3b 105e 893b 4cef 113c
00000080: e7cd 6a3b d31a 2c3a 7b56 783c 8185 773c
00000090: 15da 8a3b 9732 773a dbdf c63b 5012 86bb
000000a0: 43f6 b5ba 30e3 273a 38af af3b 410c f639
000000b0: 5f37 de3b 7aac b1bb c953 39bc dabf cbbc
000000c0: 931f f0bc 1565 95bc 800d a93b f7fd 77bb
000000d0: 4bfa 5bbc 0800 7fbb 4318 31bc 2f24 2fbb
000000e0: 8304 09bc b02b 32b7 d696 123c 28ae 5a3c
000000f0: 718a 183a 3422 83ba 5355 193c a378 2f3c
00000100: 0b46 b23b 51bd 8e3b 6b62 b7bb a9f7 2abc
00000110: 24ba 6cbb ad52 3bbc 4bba 8ebc 7c61 ef3b
00000120: 36a9 5a3b 43e9 1ebc bce7 ccba f9ea 853a
00000130: 89e3 0cbc 278c 32bc 03e3 a1bc 406e 49bc
00000140: 12b8 47bc 17f2 75bc f3e0 a2bc e22a 08bc
00000150: 753c 0ebc 5f44 91bb abb6 bfbb 3784 303c
00000160: 00d8 853a 0aab 253c 15ac 5f3b 5f3e 92bb
00000170: 42eb b4bb 882e 203b 796a 553a 92b9 b3bb
00000180: 7df3 0ebc fa14 82bb e8e9 63bc d7d4 a3bc
00000190: 0513 04bc 9966 733b 1412 f1bb 20ee 93bc
000001a0: b40f 79bc 809e 93bc d8dd 82bc cfbf a2bc
000001b0: 629d 98bc 84e5 cabc 2e09 e5bc b265 e1bc
000001c0: 11d6 c0bc 325f 8bbb 66b3 06ba c421 dabb
000001d0: af97 883a 3461 da3b cb68 013c 1fe7 8f3c
000001e0: 9a76 c63a c780 653b fe9a 0fbc 9578 b83a
000001f0: 4f78 bd3b 10a2 7e3b 96df 8a3b 2773 a0bc
00000200: 5096 febc ea6c 83bc 2cdf 92bb 9fcf c8bb
00000210: f72c 76bc 8d78 f5bc b101 0bbd 03c5 ccbc
00000220: 2348 07bd 9c99 cabc 0604 01bd 26b9 e2bc
00000230: e7aa 98bc ef44 c0bc 98d1 d8bc 75ea acbc
00000240: 531d d4ba 8926 64bb 7633 0dbc b607 e03b
00000250: 7d24 993c 9ffb 913c c42b b73a 5f74 2abb
00000260: a422 e5ba ac8e b4b9 8c4b ae3b 4301 043b
00000270: 0962 dfbb aa75 89bc d402 c2bc dbcd 37bc
00000280: 0785 c2bc b10c 71bc 879b d5bc c4e9 f3bc
00000290: 074f cebc 19b7 b9bc bf3e c3bc d478 d3bc
000002a0: 5437 efbc 3cac 09bd a6ca b5bc dc02 90bc
000002b0: 3175 9cbc fd36 a3bc 5758 a5bb 7146 85bc
000002c0: 4f42 90bc 232d 373c c4e5 aa3c 12d7 bb3c
000002d0: e70e 3fbb 3fe1 8fbb f3e4 6e3a 2594 883b
000002e0: a242 8ebb ceda 20bc d3f2 b8bc b289 e7bc
000002f0: d9e5 99bc 8723 bdbc dc6d 80bc b05c 00bc
00000300: 7e71 54bc 6414 3dbc 2fb6 86bc 153d 86bc
00000310: d3af c0bc 7366 98bc 1517 3abc 43c7 663a
00000320: 705e 1d3b 8073 713b bd11 52bc 3571 bcbc
00000330: 64b5 1fbc cbc2 44bb 2e94 0cbc fee7 3c3b
00000340: e583 373c 8807 9e3c a6b1 f4ba f705 85bb
00000350: 3d8d c2bb 803f afbb 8e82 73bc e516 67bc
00000360: ce73 edbc ee88 c3bc 48ba d5bc 7ebf a1bc
00000370: 5493 083b 7ea5 9ebc 7085 26bc 2476 8bbc
00000380: 1e0c 1ebc b599 01bc 910f 29bc 807d c5bc
00000390: 2ad3 35bc 4336 c238 1e99 b83b 13d4 e73b
000003a0: d86d 16bc d7ca b4bc 7732 08bc b52a b6bb
000003b0: de14 42bc 8d33 133c ac70 e53b 7c83 b43b
000003c0: 6ebb 36bb 7dec 2bbb 1d3c bbbb d81f 48bc
000003d0: 3a54 5ebc f92d d2bc a295 ddbc 18fc c4bc
000003e0: fb81 e9bc cbef aebc 3584 903b cc43 50bc
000003f0: ac53 5fbc ff1a dfbb 3f55 ccbb c633 ce3b

linear_layers.0.bias f4 [2]
-0.02720849 0.03084208
00000000: 57e4 debc 88a8 fc3c
